…
--
Lang1:  deu.rst.pcc    Lang2:  tur.pdtb.tdb
Saving run to:  runs/SingleEpochPass=v4_deu.rst.pcc_tur.pdtb.tdb_lrfunc=Adafactor_lr=2e-05_plm=bert-base-multilingual-cased
Running with params: BERT_MODEL=bert-base-multilingual-cased lr=2e-05
read 2164 examples
read 241 examples
read 260 examples
read 2451 examples
read 312 examples
read 422 examples
Total prediction labels:  49
BertAdapterModel(
  (shared_parameters): ModuleDict()
  (bert): BertModel(
    (shared_parameters): ModuleDict()
    (invertible_adapters): ModuleDict(
      (de): NICECouplingBlock(
        (F): Sequential(
          (0): Linear(in_features=384, out_features=192, bias=True)
          (1): Activation_Function_Class(
            (f): NewGELUActivation()
          )
          (2): Linear(in_features=192, out_features=384, bias=True)
        )
        (G): Sequential(
          (0): Linear(in_features=384, out_features=192, bias=True)
          (1): Activation_Function_Class(
            (f): NewGELUActivation()
          )
          (2): Linear(in_features=192, out_features=384, bias=True)
        )
      )
      (tr): NICECouplingBlock(
        (F): Sequential(
          (0): Linear(in_features=384, out_features=192, bias=True)
          (1): Activation_Function_Class(
            (f): NewGELUActivation()
          )
          (2): Linear(in_features=192, out_features=384, bias=True)
        )
        (G): Sequential(
          (0): Linear(in_features=384, out_features=192, bias=True)
          (1): Activation_Function_Class(
            (f): NewGELUActivation()
          )
          (2): Linear(in_features=192, out_features=384, bias=True)
        )
      )
    )
    (embeddings): BertEmbeddings(
      (word_embeddings): Embedding(119547, 768, padding_idx=0)
      (position_embeddings): Embedding(512, 768)
      (token_type_embeddings): Embedding(2, 768)
      (LayerNorm): LayerNorm((768,), eps=1e-12, elementwise_affine=True)
      (dropout): Dropout(p=0.1, inplace=False)
    )
    (encoder): BertEncoder(
      (layer): ModuleList(
        (0): BertLayer(
          (attention): BertAttention(
            (self): BertSelfAttention(
              (query): Linear(
                in_features=768, out_features=768, bias=True
                (loras): ModuleDict()
              )
              (key): Linear(
                in_features=768, out_features=768, bias=True
                (loras): ModuleDict()
              )
              (value): Linear(
                in_features=768, out_features=768, bias=True
                (loras): ModuleDict()
              )
              (dropout): Dropout(p=0.1, inplace=False)
              (prefix_tuning): PrefixTuningShim(
                (prefix_gates): ModuleDict()
                (pool): PrefixTuningPool(
                  (prefix_tunings): ModuleDict()
                )
              )
            )
            (output): BertSelfOutput(
              (dense): Linear(in_features=768, out_features=768, bias=True)
              (LayerNorm): LayerNorm((768,), eps=1e-12, elementwise_affine=True)
              (dropout): Dropout(p=0.1, inplace=False)
              (adapters): ModuleDict()
              (adapter_fusion_layer): ModuleDict()
            )
          )
          (intermediate): BertIntermediate(
            (dense): Linear(
              in_features=768, out_features=3072, bias=True
              (loras): ModuleDict()
            )
            (intermediate_act_fn): GELUActivation()
          )
          (output): BertOutput(
            (dense): Linear(
              in_features=3072, out_features=768, bias=True
              (loras): ModuleDict()
            )
            (LayerNorm): LayerNorm((768,), eps=1e-12, elementwise_affine=True)
            (dropout): Dropout(p=0.1, inplace=False)
            (adapters): ModuleDict(
              (de): Adapter(
                (non_linearity): Activation_Function_Class(
                  (f): NewGELUActivation()
                )
                (adapter_down): Sequential(
                  (0): Linear(in_features=768, out_features=384, bias=True)
                  (1): Activation_Function_Class(
                    (f): NewGELUActivation()
                  )
                )
                (adapter_up): Linear(in_features=384, out_features=768, bias=True)
              )
              (tr): Adapter(
                (non_linearity): Activation_Function_Class(
                  (f): NewGELUActivation()
                )
                (adapter_down): Sequential(
                  (0): Linear(in_features=768, out_features=384, bias=True)
                  (1): Activation_Function_Class(
                    (f): NewGELUActivation()
                  )
                )
                (adapter_up): Linear(in_features=384, out_features=768, bias=True)
              )
              (disrpt): Adapter(
                (non_linearity): Activation_Function_Class(
                  (f): ReLU()
                )
                (adapter_down): Sequential(
                  (0): Linear(in_features=768, out_features=48, bias=True)
                  (1): Activation_Function_Class(
                    (f): ReLU()
                  )
                )
                (adapter_up): Linear(in_features=48, out_features=768, bias=True)
              )
            )
            (adapter_fusion_layer): ModuleDict()
          )
        )
        (1): BertLayer(
          (attention): BertAttention(
            (self): BertSelfAttention(
              (query): Linear(
                in_features=768, out_features=768, bias=True
                (loras): ModuleDict()
              )
              (key): Linear(
                in_features=768, out_features=768, bias=True
                (loras): ModuleDict()
              )
              (value): Linear(
                in_features=768, out_features=768, bias=True
                (loras): ModuleDict()
              )
              (dropout): Dropout(p=0.1, inplace=False)
              (prefix_tuning): PrefixTuningShim(
                (prefix_gates): ModuleDict()
                (pool): PrefixTuningPool(
                  (prefix_tunings): ModuleDict()
                )
              )
            )
            (output): BertSelfOutput(
              (dense): Linear(in_features=768, out_features=768, bias=True)
              (LayerNorm): LayerNorm((768,), eps=1e-12, elementwise_affine=True)
              (dropout): Dropout(p=0.1, inplace=False)
              (adapters): ModuleDict()
              (adapter_fusion_layer): ModuleDict()
            )
          )
          (intermediate): BertIntermediate(
            (dense): Linear(
              in_features=768, out_features=3072, bias=True
              (loras): ModuleDict()
            )
            (intermediate_act_fn): GELUActivation()
          )
          (output): BertOutput(
            (dense): Linear(
              in_features=3072, out_features=768, bias=True
              (loras): ModuleDict()
            )
            (LayerNorm): LayerNorm((768,), eps=1e-12, elementwise_affine=True)
            (dropout): Dropout(p=0.1, inplace=False)
            (adapters): ModuleDict(
              (de): Adapter(
                (non_linearity): Activation_Function_Class(
                  (f): NewGELUActivation()
                )
                (adapter_down): Sequential(
                  (0): Linear(in_features=768, out_features=384, bias=True)
                  (1): Activation_Function_Class(
                    (f): NewGELUActivation()
                  )
                )
                (adapter_up): Linear(in_features=384, out_features=768, bias=True)
              )
              (tr): Adapter(
                (non_linearity): Activation_Function_Class(
                  (f): NewGELUActivation()
                )
                (adapter_down): Sequential(
                  (0): Linear(in_features=768, out_features=384, bias=True)
                  (1): Activation_Function_Class(
                    (f): NewGELUActivation()
                  )
                )
                (adapter_up): Linear(in_features=384, out_features=768, bias=True)
              )
              (disrpt): Adapter(
                (non_linearity): Activation_Function_Class(
                  (f): ReLU()
                )
                (adapter_down): Sequential(
                  (0): Linear(in_features=768, out_features=48, bias=True)
                  (1): Activation_Function_Class(
                    (f): ReLU()
                  )
                )
                (adapter_up): Linear(in_features=48, out_features=768, bias=True)
              )
            )
            (adapter_fusion_layer): ModuleDict()
          )
        )
        (2): BertLayer(
          (attention): BertAttention(
            (self): BertSelfAttention(
              (query): Linear(
                in_features=768, out_features=768, bias=True
                (loras): ModuleDict()
              )
              (key): Linear(
                in_features=768, out_features=768, bias=True
                (loras): ModuleDict()
              )
              (value): Linear(
                in_features=768, out_features=768, bias=True
                (loras): ModuleDict()
              )
              (dropout): Dropout(p=0.1, inplace=False)
              (prefix_tuning): PrefixTuningShim(
                (prefix_gates): ModuleDict()
                (pool): PrefixTuningPool(
                  (prefix_tunings): ModuleDict()
                )
              )
            )
            (output): BertSelfOutput(
              (dense): Linear(in_features=768, out_features=768, bias=True)
              (LayerNorm): LayerNorm((768,), eps=1e-12, elementwise_affine=True)
              (dropout): Dropout(p=0.1, inplace=False)
              (adapters): ModuleDict()
              (adapter_fusion_layer): ModuleDict()
            )
          )
          (intermediate): BertIntermediate(
            (dense): Linear(
              in_features=768, out_features=3072, bias=True
              (loras): ModuleDict()
            )
            (intermediate_act_fn): GELUActivation()
          )
          (output): BertOutput(
            (dense): Linear(
              in_features=3072, out_features=768, bias=True
              (loras): ModuleDict()
            )
            (LayerNorm): LayerNorm((768,), eps=1e-12, elementwise_affine=True)
            (dropout): Dropout(p=0.1, inplace=False)
            (adapters): ModuleDict(
              (de): Adapter(
                (non_linearity): Activation_Function_Class(
                  (f): NewGELUActivation()
                )
                (adapter_down): Sequential(
                  (0): Linear(in_features=768, out_features=384, bias=True)
                  (1): Activation_Function_Class(
                    (f): NewGELUActivation()
                  )
                )
                (adapter_up): Linear(in_features=384, out_features=768, bias=True)
              )
              (tr): Adapter(
                (non_linearity): Activation_Function_Class(
                  (f): NewGELUActivation()
                )
                (adapter_down): Sequential(
                  (0): Linear(in_features=768, out_features=384, bias=True)
                  (1): Activation_Function_Class(
                    (f): NewGELUActivation()
                  )
                )
                (adapter_up): Linear(in_features=384, out_features=768, bias=True)
              )
              (disrpt): Adapter(
                (non_linearity): Activation_Function_Class(
                  (f): ReLU()
                )
                (adapter_down): Sequential(
                  (0): Linear(in_features=768, out_features=48, bias=True)
                  (1): Activation_Function_Class(
                    (f): ReLU()
                  )
                )
                (adapter_up): Linear(in_features=48, out_features=768, bias=True)
              )
            )
            (adapter_fusion_layer): ModuleDict()
          )
        )
        (3): BertLayer(
          (attention): BertAttention(
            (self): BertSelfAttention(
              (query): Linear(
                in_features=768, out_features=768, bias=True
                (loras): ModuleDict()
              )
              (key): Linear(
                in_features=768, out_features=768, bias=True
                (loras): ModuleDict()
              )
              (value): Linear(
                in_features=768, out_features=768, bias=True
                (loras): ModuleDict()
              )
              (dropout): Dropout(p=0.1, inplace=False)
              (prefix_tuning): PrefixTuningShim(
                (prefix_gates): ModuleDict()
                (pool): PrefixTuningPool(
                  (prefix_tunings): ModuleDict()
                )
              )
            )
            (output): BertSelfOutput(
              (dense): Linear(in_features=768, out_features=768, bias=True)
              (LayerNorm): LayerNorm((768,), eps=1e-12, elementwise_affine=True)
              (dropout): Dropout(p=0.1, inplace=False)
              (adapters): ModuleDict()
              (adapter_fusion_layer): ModuleDict()
            )
          )
          (intermediate): BertIntermediate(
            (dense): Linear(
              in_features=768, out_features=3072, bias=True
              (loras): ModuleDict()
            )
            (intermediate_act_fn): GELUActivation()
          )
          (output): BertOutput(
            (dense): Linear(
              in_features=3072, out_features=768, bias=True
              (loras): ModuleDict()
            )
            (LayerNorm): LayerNorm((768,), eps=1e-12, elementwise_affine=True)
            (dropout): Dropout(p=0.1, inplace=False)
            (adapters): ModuleDict(
              (de): Adapter(
                (non_linearity): Activation_Function_Class(
                  (f): NewGELUActivation()
                )
                (adapter_down): Sequential(
                  (0): Linear(in_features=768, out_features=384, bias=True)
                  (1): Activation_Function_Class(
                    (f): NewGELUActivation()
                  )
                )
                (adapter_up): Linear(in_features=384, out_features=768, bias=True)
              )
              (tr): Adapter(
                (non_linearity): Activation_Function_Class(
                  (f): NewGELUActivation()
                )
                (adapter_down): Sequential(
                  (0): Linear(in_features=768, out_features=384, bias=True)
                  (1): Activation_Function_Class(
                    (f): NewGELUActivation()
                  )
                )
                (adapter_up): Linear(in_features=384, out_features=768, bias=True)
              )
              (disrpt): Adapter(
                (non_linearity): Activation_Function_Class(
                  (f): ReLU()
                )
                (adapter_down): Sequential(
                  (0): Linear(in_features=768, out_features=48, bias=True)
                  (1): Activation_Function_Class(
                    (f): ReLU()
                  )
                )
                (adapter_up): Linear(in_features=48, out_features=768, bias=True)
              )
            )
            (adapter_fusion_layer): ModuleDict()
          )
        )
        (4): BertLayer(
          (attention): BertAttention(
            (self): BertSelfAttention(
              (query): Linear(
                in_features=768, out_features=768, bias=True
                (loras): ModuleDict()
              )
              (key): Linear(
                in_features=768, out_features=768, bias=True
                (loras): ModuleDict()
              )
              (value): Linear(
                in_features=768, out_features=768, bias=True
                (loras): ModuleDict()
              )
              (dropout): Dropout(p=0.1, inplace=False)
              (prefix_tuning): PrefixTuningShim(
                (prefix_gates): ModuleDict()
                (pool): PrefixTuningPool(
                  (prefix_tunings): ModuleDict()
                )
              )
            )
            (output): BertSelfOutput(
              (dense): Linear(in_features=768, out_features=768, bias=True)
              (LayerNorm): LayerNorm((768,), eps=1e-12, elementwise_affine=True)
              (dropout): Dropout(p=0.1, inplace=False)
              (adapters): ModuleDict()
              (adapter_fusion_layer): ModuleDict()
            )
          )
          (intermediate): BertIntermediate(
            (dense): Linear(
              in_features=768, out_features=3072, bias=True
              (loras): ModuleDict()
            )
            (intermediate_act_fn): GELUActivation()
          )
          (output): BertOutput(
            (dense): Linear(
              in_features=3072, out_features=768, bias=True
              (loras): ModuleDict()
            )
            (LayerNorm): LayerNorm((768,), eps=1e-12, elementwise_affine=True)
            (dropout): Dropout(p=0.1, inplace=False)
            (adapters): ModuleDict(
              (de): Adapter(
                (non_linearity): Activation_Function_Class(
                  (f): NewGELUActivation()
                )
                (adapter_down): Sequential(
                  (0): Linear(in_features=768, out_features=384, bias=True)
                  (1): Activation_Function_Class(
                    (f): NewGELUActivation()
                  )
                )
                (adapter_up): Linear(in_features=384, out_features=768, bias=True)
              )
              (tr): Adapter(
                (non_linearity): Activation_Function_Class(
                  (f): NewGELUActivation()
                )
                (adapter_down): Sequential(
                  (0): Linear(in_features=768, out_features=384, bias=True)
                  (1): Activation_Function_Class(
                    (f): NewGELUActivation()
                  )
                )
                (adapter_up): Linear(in_features=384, out_features=768, bias=True)
              )
              (disrpt): Adapter(
                (non_linearity): Activation_Function_Class(
                  (f): ReLU()
                )
                (adapter_down): Sequential(
                  (0): Linear(in_features=768, out_features=48, bias=True)
                  (1): Activation_Function_Class(
                    (f): ReLU()
                  )
                )
                (adapter_up): Linear(in_features=48, out_features=768, bias=True)
              )
            )
            (adapter_fusion_layer): ModuleDict()
          )
        )
        (5): BertLayer(
          (attention): BertAttention(
            (self): BertSelfAttention(
              (query): Linear(
                in_features=768, out_features=768, bias=True
                (loras): ModuleDict()
              )
              (key): Linear(
                in_features=768, out_features=768, bias=True
                (loras): ModuleDict()
              )
              (value): Linear(
                in_features=768, out_features=768, bias=True
                (loras): ModuleDict()
              )
              (dropout): Dropout(p=0.1, inplace=False)
              (prefix_tuning): PrefixTuningShim(
                (prefix_gates): ModuleDict()
                (pool): PrefixTuningPool(
                  (prefix_tunings): ModuleDict()
                )
              )
            )
            (output): BertSelfOutput(
              (dense): Linear(in_features=768, out_features=768, bias=True)
              (LayerNorm): LayerNorm((768,), eps=1e-12, elementwise_affine=True)
              (dropout): Dropout(p=0.1, inplace=False)
              (adapters): ModuleDict()
              (adapter_fusion_layer): ModuleDict()
            )
          )
          (intermediate): BertIntermediate(
            (dense): Linear(
              in_features=768, out_features=3072, bias=True
              (loras): ModuleDict()
            )
            (intermediate_act_fn): GELUActivation()
          )
          (output): BertOutput(
            (dense): Linear(
              in_features=3072, out_features=768, bias=True
              (loras): ModuleDict()
            )
            (LayerNorm): LayerNorm((768,), eps=1e-12, elementwise_affine=True)
            (dropout): Dropout(p=0.1, inplace=False)
            (adapters): ModuleDict(
              (de): Adapter(
                (non_linearity): Activation_Function_Class(
                  (f): NewGELUActivation()
                )
                (adapter_down): Sequential(
                  (0): Linear(in_features=768, out_features=384, bias=True)
                  (1): Activation_Function_Class(
                    (f): NewGELUActivation()
                  )
                )
                (adapter_up): Linear(in_features=384, out_features=768, bias=True)
              )
              (tr): Adapter(
                (non_linearity): Activation_Function_Class(
                  (f): NewGELUActivation()
                )
                (adapter_down): Sequential(
                  (0): Linear(in_features=768, out_features=384, bias=True)
                  (1): Activation_Function_Class(
                    (f): NewGELUActivation()
                  )
                )
                (adapter_up): Linear(in_features=384, out_features=768, bias=True)
              )
              (disrpt): Adapter(
                (non_linearity): Activation_Function_Class(
                  (f): ReLU()
                )
                (adapter_down): Sequential(
                  (0): Linear(in_features=768, out_features=48, bias=True)
                  (1): Activation_Function_Class(
                    (f): ReLU()
                  )
                )
                (adapter_up): Linear(in_features=48, out_features=768, bias=True)
              )
            )
            (adapter_fusion_layer): ModuleDict()
          )
        )
        (6): BertLayer(
          (attention): BertAttention(
            (self): BertSelfAttention(
              (query): Linear(
                in_features=768, out_features=768, bias=True
                (loras): ModuleDict()
              )
              (key): Linear(
                in_features=768, out_features=768, bias=True
                (loras): ModuleDict()
              )
              (value): Linear(
                in_features=768, out_features=768, bias=True
                (loras): ModuleDict()
              )
              (dropout): Dropout(p=0.1, inplace=False)
              (prefix_tuning): PrefixTuningShim(
                (prefix_gates): ModuleDict()
                (pool): PrefixTuningPool(
                  (prefix_tunings): ModuleDict()
                )
              )
            )
            (output): BertSelfOutput(
              (dense): Linear(in_features=768, out_features=768, bias=True)
              (LayerNorm): LayerNorm((768,), eps=1e-12, elementwise_affine=True)
              (dropout): Dropout(p=0.1, inplace=False)
              (adapters): ModuleDict()
              (adapter_fusion_layer): ModuleDict()
            )
          )
          (intermediate): BertIntermediate(
            (dense): Linear(
              in_features=768, out_features=3072, bias=True
              (loras): ModuleDict()
            )
            (intermediate_act_fn): GELUActivation()
          )
          (output): BertOutput(
            (dense): Linear(
              in_features=3072, out_features=768, bias=True
              (loras): ModuleDict()
            )
            (LayerNorm): LayerNorm((768,), eps=1e-12, elementwise_affine=True)
            (dropout): Dropout(p=0.1, inplace=False)
            (adapters): ModuleDict(
              (de): Adapter(
                (non_linearity): Activation_Function_Class(
                  (f): NewGELUActivation()
                )
                (adapter_down): Sequential(
                  (0): Linear(in_features=768, out_features=384, bias=True)
                  (1): Activation_Function_Class(
                    (f): NewGELUActivation()
                  )
                )
                (adapter_up): Linear(in_features=384, out_features=768, bias=True)
              )
              (tr): Adapter(
                (non_linearity): Activation_Function_Class(
                  (f): NewGELUActivation()
                )
                (adapter_down): Sequential(
                  (0): Linear(in_features=768, out_features=384, bias=True)
                  (1): Activation_Function_Class(
                    (f): NewGELUActivation()
                  )
                )
                (adapter_up): Linear(in_features=384, out_features=768, bias=True)
              )
              (disrpt): Adapter(
                (non_linearity): Activation_Function_Class(
                  (f): ReLU()
                )
                (adapter_down): Sequential(
                  (0): Linear(in_features=768, out_features=48, bias=True)
                  (1): Activation_Function_Class(
                    (f): ReLU()
                  )
                )
                (adapter_up): Linear(in_features=48, out_features=768, bias=True)
              )
            )
            (adapter_fusion_layer): ModuleDict()
          )
        )
        (7): BertLayer(
          (attention): BertAttention(
            (self): BertSelfAttention(
              (query): Linear(
                in_features=768, out_features=768, bias=True
                (loras): ModuleDict()
              )
              (key): Linear(
                in_features=768, out_features=768, bias=True
                (loras): ModuleDict()
              )
              (value): Linear(
                in_features=768, out_features=768, bias=True
                (loras): ModuleDict()
              )
              (dropout): Dropout(p=0.1, inplace=False)
              (prefix_tuning): PrefixTuningShim(
                (prefix_gates): ModuleDict()
                (pool): PrefixTuningPool(
                  (prefix_tunings): ModuleDict()
                )
              )
            )
            (output): BertSelfOutput(
              (dense): Linear(in_features=768, out_features=768, bias=True)
              (LayerNorm): LayerNorm((768,), eps=1e-12, elementwise_affine=True)
              (dropout): Dropout(p=0.1, inplace=False)
              (adapters): ModuleDict()
              (adapter_fusion_layer): ModuleDict()
            )
          )
          (intermediate): BertIntermediate(
            (dense): Linear(
              in_features=768, out_features=3072, bias=True
              (loras): ModuleDict()
            )
            (intermediate_act_fn): GELUActivation()
          )
          (output): BertOutput(
            (dense): Linear(
              in_features=3072, out_features=768, bias=True
              (loras): ModuleDict()
            )
            (LayerNorm): LayerNorm((768,), eps=1e-12, elementwise_affine=True)
            (dropout): Dropout(p=0.1, inplace=False)
            (adapters): ModuleDict(
              (de): Adapter(
                (non_linearity): Activation_Function_Class(
                  (f): NewGELUActivation()
                )
                (adapter_down): Sequential(
                  (0): Linear(in_features=768, out_features=384, bias=True)
                  (1): Activation_Function_Class(
                    (f): NewGELUActivation()
                  )
                )
                (adapter_up): Linear(in_features=384, out_features=768, bias=True)
              )
              (tr): Adapter(
                (non_linearity): Activation_Function_Class(
                  (f): NewGELUActivation()
                )
                (adapter_down): Sequential(
                  (0): Linear(in_features=768, out_features=384, bias=True)
                  (1): Activation_Function_Class(
                    (f): NewGELUActivation()
                  )
                )
                (adapter_up): Linear(in_features=384, out_features=768, bias=True)
              )
              (disrpt): Adapter(
                (non_linearity): Activation_Function_Class(
                  (f): ReLU()
                )
                (adapter_down): Sequential(
                  (0): Linear(in_features=768, out_features=48, bias=True)
                  (1): Activation_Function_Class(
                    (f): ReLU()
                  )
                )
                (adapter_up): Linear(in_features=48, out_features=768, bias=True)
              )
            )
            (adapter_fusion_layer): ModuleDict()
          )
        )
        (8): BertLayer(
          (attention): BertAttention(
            (self): BertSelfAttention(
              (query): Linear(
                in_features=768, out_features=768, bias=True
                (loras): ModuleDict()
              )
              (key): Linear(
                in_features=768, out_features=768, bias=True
                (loras): ModuleDict()
              )
              (value): Linear(
                in_features=768, out_features=768, bias=True
                (loras): ModuleDict()
              )
              (dropout): Dropout(p=0.1, inplace=False)
              (prefix_tuning): PrefixTuningShim(
                (prefix_gates): ModuleDict()
                (pool): PrefixTuningPool(
                  (prefix_tunings): ModuleDict()
                )
              )
            )
            (output): BertSelfOutput(
              (dense): Linear(in_features=768, out_features=768, bias=True)
              (LayerNorm): LayerNorm((768,), eps=1e-12, elementwise_affine=True)
              (dropout): Dropout(p=0.1, inplace=False)
              (adapters): ModuleDict()
              (adapter_fusion_layer): ModuleDict()
            )
          )
          (intermediate): BertIntermediate(
            (dense): Linear(
              in_features=768, out_features=3072, bias=True
              (loras): ModuleDict()
            )
            (intermediate_act_fn): GELUActivation()
          )
          (output): BertOutput(
            (dense): Linear(
              in_features=3072, out_features=768, bias=True
              (loras): ModuleDict()
            )
            (LayerNorm): LayerNorm((768,), eps=1e-12, elementwise_affine=True)
            (dropout): Dropout(p=0.1, inplace=False)
            (adapters): ModuleDict(
              (de): Adapter(
                (non_linearity): Activation_Function_Class(
                  (f): NewGELUActivation()
                )
                (adapter_down): Sequential(
                  (0): Linear(in_features=768, out_features=384, bias=True)
                  (1): Activation_Function_Class(
                    (f): NewGELUActivation()
                  )
                )
                (adapter_up): Linear(in_features=384, out_features=768, bias=True)
              )
              (tr): Adapter(
                (non_linearity): Activation_Function_Class(
                  (f): NewGELUActivation()
                )
                (adapter_down): Sequential(
                  (0): Linear(in_features=768, out_features=384, bias=True)
                  (1): Activation_Function_Class(
                    (f): NewGELUActivation()
                  )
                )
                (adapter_up): Linear(in_features=384, out_features=768, bias=True)
              )
              (disrpt): Adapter(
                (non_linearity): Activation_Function_Class(
                  (f): ReLU()
                )
                (adapter_down): Sequential(
                  (0): Linear(in_features=768, out_features=48, bias=True)
                  (1): Activation_Function_Class(
                    (f): ReLU()
                  )
                )
                (adapter_up): Linear(in_features=48, out_features=768, bias=True)
              )
            )
            (adapter_fusion_layer): ModuleDict()
          )
        )
        (9): BertLayer(
          (attention): BertAttention(
            (self): BertSelfAttention(
              (query): Linear(
                in_features=768, out_features=768, bias=True
                (loras): ModuleDict()
              )
              (key): Linear(
                in_features=768, out_features=768, bias=True
                (loras): ModuleDict()
              )
              (value): Linear(
                in_features=768, out_features=768, bias=True
                (loras): ModuleDict()
              )
              (dropout): Dropout(p=0.1, inplace=False)
              (prefix_tuning): PrefixTuningShim(
                (prefix_gates): ModuleDict()
                (pool): PrefixTuningPool(
                  (prefix_tunings): ModuleDict()
                )
              )
            )
            (output): BertSelfOutput(
              (dense): Linear(in_features=768, out_features=768, bias=True)
              (LayerNorm): LayerNorm((768,), eps=1e-12, elementwise_affine=True)
              (dropout): Dropout(p=0.1, inplace=False)
              (adapters): ModuleDict()
              (adapter_fusion_layer): ModuleDict()
            )
          )
          (intermediate): BertIntermediate(
            (dense): Linear(
              in_features=768, out_features=3072, bias=True
              (loras): ModuleDict()
            )
            (intermediate_act_fn): GELUActivation()
          )
          (output): BertOutput(
            (dense): Linear(
              in_features=3072, out_features=768, bias=True
              (loras): ModuleDict()
            )
            (LayerNorm): LayerNorm((768,), eps=1e-12, elementwise_affine=True)
            (dropout): Dropout(p=0.1, inplace=False)
            (adapters): ModuleDict(
              (de): Adapter(
                (non_linearity): Activation_Function_Class(
                  (f): NewGELUActivation()
                )
                (adapter_down): Sequential(
                  (0): Linear(in_features=768, out_features=384, bias=True)
                  (1): Activation_Function_Class(
                    (f): NewGELUActivation()
                  )
                )
                (adapter_up): Linear(in_features=384, out_features=768, bias=True)
              )
              (tr): Adapter(
                (non_linearity): Activation_Function_Class(
                  (f): NewGELUActivation()
                )
                (adapter_down): Sequential(
                  (0): Linear(in_features=768, out_features=384, bias=True)
                  (1): Activation_Function_Class(
                    (f): NewGELUActivation()
                  )
                )
                (adapter_up): Linear(in_features=384, out_features=768, bias=True)
              )
              (disrpt): Adapter(
                (non_linearity): Activation_Function_Class(
                  (f): ReLU()
                )
                (adapter_down): Sequential(
                  (0): Linear(in_features=768, out_features=48, bias=True)
                  (1): Activation_Function_Class(
                    (f): ReLU()
                  )
                )
                (adapter_up): Linear(in_features=48, out_features=768, bias=True)
              )
            )
            (adapter_fusion_layer): ModuleDict()
          )
        )
        (10): BertLayer(
          (attention): BertAttention(
            (self): BertSelfAttention(
              (query): Linear(
                in_features=768, out_features=768, bias=True
                (loras): ModuleDict()
              )
              (key): Linear(
                in_features=768, out_features=768, bias=True
                (loras): ModuleDict()
              )
              (value): Linear(
                in_features=768, out_features=768, bias=True
                (loras): ModuleDict()
              )
              (dropout): Dropout(p=0.1, inplace=False)
              (prefix_tuning): PrefixTuningShim(
                (prefix_gates): ModuleDict()
                (pool): PrefixTuningPool(
                  (prefix_tunings): ModuleDict()
                )
              )
            )
            (output): BertSelfOutput(
              (dense): Linear(in_features=768, out_features=768, bias=True)
              (LayerNorm): LayerNorm((768,), eps=1e-12, elementwise_affine=True)
              (dropout): Dropout(p=0.1, inplace=False)
              (adapters): ModuleDict()
              (adapter_fusion_layer): ModuleDict()
            )
          )
          (intermediate): BertIntermediate(
            (dense): Linear(
              in_features=768, out_features=3072, bias=True
              (loras): ModuleDict()
            )
            (intermediate_act_fn): GELUActivation()
          )
          (output): BertOutput(
            (dense): Linear(
              in_features=3072, out_features=768, bias=True
              (loras): ModuleDict()
            )
            (LayerNorm): LayerNorm((768,), eps=1e-12, elementwise_affine=True)
            (dropout): Dropout(p=0.1, inplace=False)
            (adapters): ModuleDict(
              (de): Adapter(
                (non_linearity): Activation_Function_Class(
                  (f): NewGELUActivation()
                )
                (adapter_down): Sequential(
                  (0): Linear(in_features=768, out_features=384, bias=True)
                  (1): Activation_Function_Class(
                    (f): NewGELUActivation()
                  )
                )
                (adapter_up): Linear(in_features=384, out_features=768, bias=True)
              )
              (tr): Adapter(
                (non_linearity): Activation_Function_Class(
                  (f): NewGELUActivation()
                )
                (adapter_down): Sequential(
                  (0): Linear(in_features=768, out_features=384, bias=True)
                  (1): Activation_Function_Class(
                    (f): NewGELUActivation()
                  )
                )
                (adapter_up): Linear(in_features=384, out_features=768, bias=True)
              )
              (disrpt): Adapter(
                (non_linearity): Activation_Function_Class(
                  (f): ReLU()
                )
                (adapter_down): Sequential(
                  (0): Linear(in_features=768, out_features=48, bias=True)
                  (1): Activation_Function_Class(
                    (f): ReLU()
                  )
                )
                (adapter_up): Linear(in_features=48, out_features=768, bias=True)
              )
            )
            (adapter_fusion_layer): ModuleDict()
          )
        )
        (11): BertLayer(
          (attention): BertAttention(
            (self): BertSelfAttention(
              (query): Linear(
                in_features=768, out_features=768, bias=True
                (loras): ModuleDict()
              )
              (key): Linear(
                in_features=768, out_features=768, bias=True
                (loras): ModuleDict()
              )
              (value): Linear(
                in_features=768, out_features=768, bias=True
                (loras): ModuleDict()
              )
              (dropout): Dropout(p=0.1, inplace=False)
              (prefix_tuning): PrefixTuningShim(
                (prefix_gates): ModuleDict()
                (pool): PrefixTuningPool(
                  (prefix_tunings): ModuleDict()
                )
              )
            )
            (output): BertSelfOutput(
              (dense): Linear(in_features=768, out_features=768, bias=True)
              (LayerNorm): LayerNorm((768,), eps=1e-12, elementwise_affine=True)
              (dropout): Dropout(p=0.1, inplace=False)
              (adapters): ModuleDict()
              (adapter_fusion_layer): ModuleDict()
            )
          )
          (intermediate): BertIntermediate(
            (dense): Linear(
              in_features=768, out_features=3072, bias=True
              (loras): ModuleDict()
            )
            (intermediate_act_fn): GELUActivation()
          )
          (output): BertOutput(
            (dense): Linear(
              in_features=3072, out_features=768, bias=True
              (loras): ModuleDict()
            )
            (LayerNorm): LayerNorm((768,), eps=1e-12, elementwise_affine=True)
            (dropout): Dropout(p=0.1, inplace=False)
            (adapters): ModuleDict(
              (de): Adapter(
                (non_linearity): Activation_Function_Class(
                  (f): NewGELUActivation()
                )
                (adapter_down): Sequential(
                  (0): Linear(in_features=768, out_features=384, bias=True)
                  (1): Activation_Function_Class(
                    (f): NewGELUActivation()
                  )
                )
                (adapter_up): Linear(in_features=384, out_features=768, bias=True)
              )
              (tr): Adapter(
                (non_linearity): Activation_Function_Class(
                  (f): NewGELUActivation()
                )
                (adapter_down): Sequential(
                  (0): Linear(in_features=768, out_features=384, bias=True)
                  (1): Activation_Function_Class(
                    (f): NewGELUActivation()
                  )
                )
                (adapter_up): Linear(in_features=384, out_features=768, bias=True)
              )
              (disrpt): Adapter(
                (non_linearity): Activation_Function_Class(
                  (f): ReLU()
                )
                (adapter_down): Sequential(
                  (0): Linear(in_features=768, out_features=48, bias=True)
                  (1): Activation_Function_Class(
                    (f): ReLU()
                  )
                )
                (adapter_up): Linear(in_features=48, out_features=768, bias=True)
              )
            )
            (adapter_fusion_layer): ModuleDict()
          )
        )
      )
    )
    (pooler): BertPooler(
      (dense): Linear(in_features=768, out_features=768, bias=True)
      (activation): Tanh()
    )
    (prefix_tuning): PrefixTuningPool(
      (prefix_tunings): ModuleDict()
    )
  )
  (heads): ModuleDict(
    (tr): BertStyleMaskedLMHead(
      (0): Linear(in_features=768, out_features=768, bias=True)
      (1): Activation_Function_Class(
        (f): GELUActivation()
      )
      (2): LayerNorm((768,), eps=1e-12, elementwise_affine=True)
      (3): Linear(in_features=768, out_features=119547, bias=True)
    )
    (disrpt): ClassificationHead(
      (0): Dropout(p=0.1, inplace=False)
      (1): Linear(in_features=768, out_features=768, bias=True)
      (2): Activation_Function_Class(
        (f): Tanh()
      )
      (3): Dropout(p=0.1, inplace=False)
      (4): Linear(in_features=768, out_features=49, bias=True)
    )
  )
)
{'train@deu.rst.pcc_loss': 3.6159982681274414, 'train@deu.rst.pcc_accuracy@deu.rst.pcc': 0.09704251386321626, 'train@deu.rst.pcc_f1@deu.rst.pcc': 0.01419069648747149, 'train@deu.rst.pcc_precision@deu.rst.pcc': 0.011465030306977375, 'train@deu.rst.pcc_recall@deu.rst.pcc': 0.03965687205134286, 'train@deu.rst.pcc_loss@deu.rst.pcc': 3.6159982681274414, 'train@deu.rst.pcc_runtime': 27.3697, 'train@deu.rst.pcc_samples_per_second': 79.065, 'train@deu.rst.pcc_steps_per_second': 2.484, 'epoch': 1.0}
…
Lang1:  eng.pdtb.pdtb    Lang2:  tur.pdtb.tdb
Saving run to:  runs/SingleEpochPass=v4_eng.pdtb.pdtb_tur.pdtb.tdb_lrfunc=Adafactor_lr=2e-05_plm=bert-base-multilingual-cased
Running with params: BERT_MODEL=bert-base-multilingual-cased lr=2e-05
read 43920 examples
read 1674 examples
read 2257 examples
read 2451 examples
read 312 examples
read 422 examples
Total prediction labels:  25
BertAdapterModel(
  (shared_parameters): ModuleDict()
  (bert): BertModel(
    (shared_parameters): ModuleDict()
    (invertible_adapters): ModuleDict(
      (en): NICECouplingBlock(
        (F): Sequential(
          (0): Linear(in_features=384, out_features=192, bias=True)
          (1): Activation_Function_Class(
            (f): ReLU()
          )
          (2): Linear(in_features=192, out_features=384, bias=True)
        )
        (G): Sequential(
          (0): Linear(in_features=384, out_features=192, bias=True)
          (1): Activation_Function_Class(
            (f): ReLU()
          )
          (2): Linear(in_features=192, out_features=384, bias=True)
        )
      )
      (tr): NICECouplingBlock(
        (F): Sequential(
          (0): Linear(in_features=384, out_features=192, bias=True)
          (1): Activation_Function_Class(
            (f): NewGELUActivation()
          )
          (2): Linear(in_features=192, out_features=384, bias=True)
        )
        (G): Sequential(
          (0): Linear(in_features=384, out_features=192, bias=True)
          (1): Activation_Function_Class(
            (f): NewGELUActivation()
          )
          (2): Linear(in_features=192, out_features=384, bias=True)
        )
      )
    )
    (embeddings): BertEmbeddings(
      (word_embeddings): Embedding(119547, 768, padding_idx=0)
      (position_embeddings): Embedding(512, 768)
      (token_type_embeddings): Embedding(2, 768)
      (LayerNorm): LayerNorm((768,), eps=1e-12, elementwise_affine=True)
      (dropout): Dropout(p=0.1, inplace=False)
    )
    (encoder): BertEncoder(
      (layer): ModuleList(
        (0): BertLayer(
          (attention): BertAttention(
            (self): BertSelfAttention(
              (query): Linear(
                in_features=768, out_features=768, bias=True
                (loras): ModuleDict()
              )
              (key): Linear(
                in_features=768, out_features=768, bias=True
                (loras): ModuleDict()
              )
              (value): Linear(
                in_features=768, out_features=768, bias=True
                (loras): ModuleDict()
              )
              (dropout): Dropout(p=0.1, inplace=False)
              (prefix_tuning): PrefixTuningShim(
                (prefix_gates): ModuleDict()
                (pool): PrefixTuningPool(
                  (prefix_tunings): ModuleDict()
                )
              )
            )
            (output): BertSelfOutput(
              (dense): Linear(in_features=768, out_features=768, bias=True)
              (LayerNorm): LayerNorm((768,), eps=1e-12, elementwise_affine=True)
              (dropout): Dropout(p=0.1, inplace=False)
              (adapters): ModuleDict()
              (adapter_fusion_layer): ModuleDict()
            )
          )
          (intermediate): BertIntermediate(
            (dense): Linear(
              in_features=768, out_features=3072, bias=True
              (loras): ModuleDict()
            )
            (intermediate_act_fn): GELUActivation()
          )
          (output): BertOutput(
            (dense): Linear(
              in_features=3072, out_features=768, bias=True
              (loras): ModuleDict()
            )
            (LayerNorm): LayerNorm((768,), eps=1e-12, elementwise_affine=True)
            (dropout): Dropout(p=0.1, inplace=False)
            (adapters): ModuleDict(
              (en): Adapter(
                (non_linearity): Activation_Function_Class(
                  (f): ReLU()
                )
                (adapter_down): Sequential(
                  (0): Linear(in_features=768, out_features=384, bias=True)
                  (1): Activation_Function_Class(
                    (f): ReLU()
                  )
                )
                (adapter_up): Linear(in_features=384, out_features=768, bias=True)
              )
              (tr): Adapter(
                (non_linearity): Activation_Function_Class(
                  (f): NewGELUActivation()
                )
                (adapter_down): Sequential(
                  (0): Linear(in_features=768, out_features=384, bias=True)
                  (1): Activation_Function_Class(
                    (f): NewGELUActivation()
                  )
                )
                (adapter_up): Linear(in_features=384, out_features=768, bias=True)
              )
              (disrpt): Adapter(
                (non_linearity): Activation_Function_Class(
                  (f): ReLU()
                )
                (adapter_down): Sequential(
                  (0): Linear(in_features=768, out_features=48, bias=True)
                  (1): Activation_Function_Class(
                    (f): ReLU()
                  )
                )
                (adapter_up): Linear(in_features=48, out_features=768, bias=True)
              )
            )
            (adapter_fusion_layer): ModuleDict()
          )
        )
        (1): BertLayer(
          (attention): BertAttention(
            (self): BertSelfAttention(
              (query): Linear(
                in_features=768, out_features=768, bias=True
                (loras): ModuleDict()
              )
              (key): Linear(
                in_features=768, out_features=768, bias=True
                (loras): ModuleDict()
              )
              (value): Linear(
                in_features=768, out_features=768, bias=True
                (loras): ModuleDict()
              )
              (dropout): Dropout(p=0.1, inplace=False)
              (prefix_tuning): PrefixTuningShim(
                (prefix_gates): ModuleDict()
                (pool): PrefixTuningPool(
                  (prefix_tunings): ModuleDict()
                )
              )
            )
            (output): BertSelfOutput(
              (dense): Linear(in_features=768, out_features=768, bias=True)
              (LayerNorm): LayerNorm((768,), eps=1e-12, elementwise_affine=True)
              (dropout): Dropout(p=0.1, inplace=False)
              (adapters): ModuleDict()
              (adapter_fusion_layer): ModuleDict()
            )
          )
          (intermediate): BertIntermediate(
            (dense): Linear(
              in_features=768, out_features=3072, bias=True
              (loras): ModuleDict()
            )
            (intermediate_act_fn): GELUActivation()
          )
          (output): BertOutput(
            (dense): Linear(
              in_features=3072, out_features=768, bias=True
              (loras): ModuleDict()
            )
            (LayerNorm): LayerNorm((768,), eps=1e-12, elementwise_affine=True)
            (dropout): Dropout(p=0.1, inplace=False)
            (adapters): ModuleDict(
              (en): Adapter(
                (non_linearity): Activation_Function_Class(
                  (f): ReLU()
                )
                (adapter_down): Sequential(
                  (0): Linear(in_features=768, out_features=384, bias=True)
                  (1): Activation_Function_Class(
                    (f): ReLU()
                  )
                )
                (adapter_up): Linear(in_features=384, out_features=768, bias=True)
              )
              (tr): Adapter(
                (non_linearity): Activation_Function_Class(
                  (f): NewGELUActivation()
                )
                (adapter_down): Sequential(
                  (0): Linear(in_features=768, out_features=384, bias=True)
                  (1): Activation_Function_Class(
                    (f): NewGELUActivation()
                  )
                )
                (adapter_up): Linear(in_features=384, out_features=768, bias=True)
              )
              (disrpt): Adapter(
                (non_linearity): Activation_Function_Class(
                  (f): ReLU()
                )
                (adapter_down): Sequential(
                  (0): Linear(in_features=768, out_features=48, bias=True)
                  (1): Activation_Function_Class(
                    (f): ReLU()
                  )
                )
                (adapter_up): Linear(in_features=48, out_features=768, bias=True)
              )
            )
            (adapter_fusion_layer): ModuleDict()
          )
        )
        (2): BertLayer(
          (attention): BertAttention(
            (self): BertSelfAttention(
              (query): Linear(
                in_features=768, out_features=768, bias=True
                (loras): ModuleDict()
              )
              (key): Linear(
                in_features=768, out_features=768, bias=True
                (loras): ModuleDict()
              )
              (value): Linear(
                in_features=768, out_features=768, bias=True
                (loras): ModuleDict()
              )
              (dropout): Dropout(p=0.1, inplace=False)
              (prefix_tuning): PrefixTuningShim(
                (prefix_gates): ModuleDict()
                (pool): PrefixTuningPool(
                  (prefix_tunings): ModuleDict()
                )
              )
            )
            (output): BertSelfOutput(
              (dense): Linear(in_features=768, out_features=768, bias=True)
              (LayerNorm): LayerNorm((768,), eps=1e-12, elementwise_affine=True)
              (dropout): Dropout(p=0.1, inplace=False)
              (adapters): ModuleDict()
              (adapter_fusion_layer): ModuleDict()
            )
          )
          (intermediate): BertIntermediate(
            (dense): Linear(
              in_features=768, out_features=3072, bias=True
              (loras): ModuleDict()
            )
            (intermediate_act_fn): GELUActivation()
          )
          (output): BertOutput(
            (dense): Linear(
              in_features=3072, out_features=768, bias=True
              (loras): ModuleDict()
            )
            (LayerNorm): LayerNorm((768,), eps=1e-12, elementwise_affine=True)
            (dropout): Dropout(p=0.1, inplace=False)
            (adapters): ModuleDict(
              (en): Adapter(
                (non_linearity): Activation_Function_Class(
                  (f): ReLU()
                )
                (adapter_down): Sequential(
                  (0): Linear(in_features=768, out_features=384, bias=True)
                  (1): Activation_Function_Class(
                    (f): ReLU()
                  )
                )
                (adapter_up): Linear(in_features=384, out_features=768, bias=True)
              )
              (tr): Adapter(
                (non_linearity): Activation_Function_Class(
                  (f): NewGELUActivation()
                )
                (adapter_down): Sequential(
                  (0): Linear(in_features=768, out_features=384, bias=True)
                  (1): Activation_Function_Class(
                    (f): NewGELUActivation()
                  )
                )
                (adapter_up): Linear(in_features=384, out_features=768, bias=True)
              )
              (disrpt): Adapter(
                (non_linearity): Activation_Function_Class(
                  (f): ReLU()
                )
                (adapter_down): Sequential(
                  (0): Linear(in_features=768, out_features=48, bias=True)
                  (1): Activation_Function_Class(
                    (f): ReLU()
                  )
                )
                (adapter_up): Linear(in_features=48, out_features=768, bias=True)
              )
            )
            (adapter_fusion_layer): ModuleDict()
          )
        )
        (3): BertLayer(
          (attention): BertAttention(
            (self): BertSelfAttention(
              (query): Linear(
                in_features=768, out_features=768, bias=True
                (loras): ModuleDict()
              )
              (key): Linear(
                in_features=768, out_features=768, bias=True
                (loras): ModuleDict()
              )
              (value): Linear(
                in_features=768, out_features=768, bias=True
                (loras): ModuleDict()
              )
              (dropout): Dropout(p=0.1, inplace=False)
              (prefix_tuning): PrefixTuningShim(
                (prefix_gates): ModuleDict()
                (pool): PrefixTuningPool(
                  (prefix_tunings): ModuleDict()
                )
              )
            )
            (output): BertSelfOutput(
              (dense): Linear(in_features=768, out_features=768, bias=True)
              (LayerNorm): LayerNorm((768,), eps=1e-12, elementwise_affine=True)
              (dropout): Dropout(p=0.1, inplace=False)
              (adapters): ModuleDict()
              (adapter_fusion_layer): ModuleDict()
            )
          )
          (intermediate): BertIntermediate(
            (dense): Linear(
              in_features=768, out_features=3072, bias=True
              (loras): ModuleDict()
            )
            (intermediate_act_fn): GELUActivation()
          )
          (output): BertOutput(
            (dense): Linear(
              in_features=3072, out_features=768, bias=True
              (loras): ModuleDict()
            )
            (LayerNorm): LayerNorm((768,), eps=1e-12, elementwise_affine=True)
            (dropout): Dropout(p=0.1, inplace=False)
            (adapters): ModuleDict(
              (en): Adapter(
                (non_linearity): Activation_Function_Class(
                  (f): ReLU()
                )
                (adapter_down): Sequential(
                  (0): Linear(in_features=768, out_features=384, bias=True)
                  (1): Activation_Function_Class(
                    (f): ReLU()
                  )
                )
                (adapter_up): Linear(in_features=384, out_features=768, bias=True)
              )
              (tr): Adapter(
                (non_linearity): Activation_Function_Class(
                  (f): NewGELUActivation()
                )
                (adapter_down): Sequential(
                  (0): Linear(in_features=768, out_features=384, bias=True)
                  (1): Activation_Function_Class(
                    (f): NewGELUActivation()
                  )
                )
                (adapter_up): Linear(in_features=384, out_features=768, bias=True)
              )
              (disrpt): Adapter(
                (non_linearity): Activation_Function_Class(
                  (f): ReLU()
                )
                (adapter_down): Sequential(
                  (0): Linear(in_features=768, out_features=48, bias=True)
                  (1): Activation_Function_Class(
                    (f): ReLU()
                  )
                )
                (adapter_up): Linear(in_features=48, out_features=768, bias=True)
              )
            )
            (adapter_fusion_layer): ModuleDict()
          )
        )
        (4): BertLayer(
          (attention): BertAttention(
            (self): BertSelfAttention(
              (query): Linear(
                in_features=768, out_features=768, bias=True
                (loras): ModuleDict()
              )
              (key): Linear(
                in_features=768, out_features=768, bias=True
                (loras): ModuleDict()
              )
              (value): Linear(
                in_features=768, out_features=768, bias=True
                (loras): ModuleDict()
              )
              (dropout): Dropout(p=0.1, inplace=False)
              (prefix_tuning): PrefixTuningShim(
                (prefix_gates): ModuleDict()
                (pool): PrefixTuningPool(
                  (prefix_tunings): ModuleDict()
                )
              )
            )
            (output): BertSelfOutput(
              (dense): Linear(in_features=768, out_features=768, bias=True)
              (LayerNorm): LayerNorm((768,), eps=1e-12, elementwise_affine=True)
              (dropout): Dropout(p=0.1, inplace=False)
              (adapters): ModuleDict()
              (adapter_fusion_layer): ModuleDict()
            )
          )
          (intermediate): BertIntermediate(
            (dense): Linear(
              in_features=768, out_features=3072, bias=True
              (loras): ModuleDict()
            )
            (intermediate_act_fn): GELUActivation()
          )
          (output): BertOutput(
            (dense): Linear(
              in_features=3072, out_features=768, bias=True
              (loras): ModuleDict()
            )
            (LayerNorm): LayerNorm((768,), eps=1e-12, elementwise_affine=True)
            (dropout): Dropout(p=0.1, inplace=False)
            (adapters): ModuleDict(
              (en): Adapter(
                (non_linearity): Activation_Function_Class(
                  (f): ReLU()
                )
                (adapter_down): Sequential(
                  (0): Linear(in_features=768, out_features=384, bias=True)
                  (1): Activation_Function_Class(
                    (f): ReLU()
                  )
                )
                (adapter_up): Linear(in_features=384, out_features=768, bias=True)
              )
              (tr): Adapter(
                (non_linearity): Activation_Function_Class(
                  (f): NewGELUActivation()
                )
                (adapter_down): Sequential(
                  (0): Linear(in_features=768, out_features=384, bias=True)
                  (1): Activation_Function_Class(
                    (f): NewGELUActivation()
                  )
                )
                (adapter_up): Linear(in_features=384, out_features=768, bias=True)
              )
              (disrpt): Adapter(
                (non_linearity): Activation_Function_Class(
                  (f): ReLU()
                )
                (adapter_down): Sequential(
                  (0): Linear(in_features=768, out_features=48, bias=True)
                  (1): Activation_Function_Class(
                    (f): ReLU()
                  )
                )
                (adapter_up): Linear(in_features=48, out_features=768, bias=True)
              )
            )
            (adapter_fusion_layer): ModuleDict()
          )
        )
        (5): BertLayer(
          (attention): BertAttention(
            (self): BertSelfAttention(
              (query): Linear(
                in_features=768, out_features=768, bias=True
                (loras): ModuleDict()
              )
              (key): Linear(
                in_features=768, out_features=768, bias=True
                (loras): ModuleDict()
              )
              (value): Linear(
                in_features=768, out_features=768, bias=True
                (loras): ModuleDict()
              )
              (dropout): Dropout(p=0.1, inplace=False)
              (prefix_tuning): PrefixTuningShim(
                (prefix_gates): ModuleDict()
                (pool): PrefixTuningPool(
                  (prefix_tunings): ModuleDict()
                )
              )
            )
            (output): BertSelfOutput(
              (dense): Linear(in_features=768, out_features=768, bias=True)
              (LayerNorm): LayerNorm((768,), eps=1e-12, elementwise_affine=True)
              (dropout): Dropout(p=0.1, inplace=False)
              (adapters): ModuleDict()
              (adapter_fusion_layer): ModuleDict()
            )
          )
          (intermediate): BertIntermediate(
            (dense): Linear(
              in_features=768, out_features=3072, bias=True
              (loras): ModuleDict()
            )
            (intermediate_act_fn): GELUActivation()
          )
          (output): BertOutput(
            (dense): Linear(
              in_features=3072, out_features=768, bias=True
              (loras): ModuleDict()
            )
            (LayerNorm): LayerNorm((768,), eps=1e-12, elementwise_affine=True)
            (dropout): Dropout(p=0.1, inplace=False)
            (adapters): ModuleDict(
              (en): Adapter(
                (non_linearity): Activation_Function_Class(
                  (f): ReLU()
                )
                (adapter_down): Sequential(
                  (0): Linear(in_features=768, out_features=384, bias=True)
                  (1): Activation_Function_Class(
                    (f): ReLU()
                  )
                )
                (adapter_up): Linear(in_features=384, out_features=768, bias=True)
              )
              (tr): Adapter(
                (non_linearity): Activation_Function_Class(
                  (f): NewGELUActivation()
                )
                (adapter_down): Sequential(
                  (0): Linear(in_features=768, out_features=384, bias=True)
                  (1): Activation_Function_Class(
                    (f): NewGELUActivation()
                  )
                )
                (adapter_up): Linear(in_features=384, out_features=768, bias=True)
              )
              (disrpt): Adapter(
                (non_linearity): Activation_Function_Class(
                  (f): ReLU()
                )
                (adapter_down): Sequential(
                  (0): Linear(in_features=768, out_features=48, bias=True)
                  (1): Activation_Function_Class(
                    (f): ReLU()
                  )
                )
                (adapter_up): Linear(in_features=48, out_features=768, bias=True)
              )
            )
            (adapter_fusion_layer): ModuleDict()
          )
        )
        (6): BertLayer(
          (attention): BertAttention(
            (self): BertSelfAttention(
              (query): Linear(
                in_features=768, out_features=768, bias=True
                (loras): ModuleDict()
              )
              (key): Linear(
                in_features=768, out_features=768, bias=True
                (loras): ModuleDict()
              )
              (value): Linear(
                in_features=768, out_features=768, bias=True
                (loras): ModuleDict()
              )
              (dropout): Dropout(p=0.1, inplace=False)
              (prefix_tuning): PrefixTuningShim(
                (prefix_gates): ModuleDict()
                (pool): PrefixTuningPool(
                  (prefix_tunings): ModuleDict()
                )
              )
            )
            (output): BertSelfOutput(
              (dense): Linear(in_features=768, out_features=768, bias=True)
              (LayerNorm): LayerNorm((768,), eps=1e-12, elementwise_affine=True)
              (dropout): Dropout(p=0.1, inplace=False)
              (adapters): ModuleDict()
              (adapter_fusion_layer): ModuleDict()
            )
          )
          (intermediate): BertIntermediate(
            (dense): Linear(
              in_features=768, out_features=3072, bias=True
              (loras): ModuleDict()
            )
            (intermediate_act_fn): GELUActivation()
          )
          (output): BertOutput(
            (dense): Linear(
              in_features=3072, out_features=768, bias=True
              (loras): ModuleDict()
            )
            (LayerNorm): LayerNorm((768,), eps=1e-12, elementwise_affine=True)
            (dropout): Dropout(p=0.1, inplace=False)
            (adapters): ModuleDict(
              (en): Adapter(
                (non_linearity): Activation_Function_Class(
                  (f): ReLU()
                )
                (adapter_down): Sequential(
                  (0): Linear(in_features=768, out_features=384, bias=True)
                  (1): Activation_Function_Class(
                    (f): ReLU()
                  )
                )
                (adapter_up): Linear(in_features=384, out_features=768, bias=True)
              )
              (tr): Adapter(
                (non_linearity): Activation_Function_Class(
                  (f): NewGELUActivation()
                )
                (adapter_down): Sequential(
                  (0): Linear(in_features=768, out_features=384, bias=True)
                  (1): Activation_Function_Class(
                    (f): NewGELUActivation()
                  )
                )
                (adapter_up): Linear(in_features=384, out_features=768, bias=True)
              )
              (disrpt): Adapter(
                (non_linearity): Activation_Function_Class(
                  (f): ReLU()
                )
                (adapter_down): Sequential(
                  (0): Linear(in_features=768, out_features=48, bias=True)
                  (1): Activation_Function_Class(
                    (f): ReLU()
                  )
                )
                (adapter_up): Linear(in_features=48, out_features=768, bias=True)
              )
            )
            (adapter_fusion_layer): ModuleDict()
          )
        )
        (7): BertLayer(
          (attention): BertAttention(
            (self): BertSelfAttention(
              (query): Linear(
                in_features=768, out_features=768, bias=True
                (loras): ModuleDict()
              )
              (key): Linear(
                in_features=768, out_features=768, bias=True
                (loras): ModuleDict()
              )
              (value): Linear(
                in_features=768, out_features=768, bias=True
                (loras): ModuleDict()
              )
              (dropout): Dropout(p=0.1, inplace=False)
              (prefix_tuning): PrefixTuningShim(
                (prefix_gates): ModuleDict()
                (pool): PrefixTuningPool(
                  (prefix_tunings): ModuleDict()
                )
              )
            )
            (output): BertSelfOutput(
              (dense): Linear(in_features=768, out_features=768, bias=True)
              (LayerNorm): LayerNorm((768,), eps=1e-12, elementwise_affine=True)
              (dropout): Dropout(p=0.1, inplace=False)
              (adapters): ModuleDict()
              (adapter_fusion_layer): ModuleDict()
            )
          )
          (intermediate): BertIntermediate(
            (dense): Linear(
              in_features=768, out_features=3072, bias=True
              (loras): ModuleDict()
            )
            (intermediate_act_fn): GELUActivation()
          )
          (output): BertOutput(
            (dense): Linear(
              in_features=3072, out_features=768, bias=True
              (loras): ModuleDict()
            )
            (LayerNorm): LayerNorm((768,), eps=1e-12, elementwise_affine=True)
            (dropout): Dropout(p=0.1, inplace=False)
            (adapters): ModuleDict(
              (en): Adapter(
                (non_linearity): Activation_Function_Class(
                  (f): ReLU()
                )
                (adapter_down): Sequential(
                  (0): Linear(in_features=768, out_features=384, bias=True)
                  (1): Activation_Function_Class(
                    (f): ReLU()
                  )
                )
                (adapter_up): Linear(in_features=384, out_features=768, bias=True)
              )
              (tr): Adapter(
                (non_linearity): Activation_Function_Class(
                  (f): NewGELUActivation()
                )
                (adapter_down): Sequential(
                  (0): Linear(in_features=768, out_features=384, bias=True)
                  (1): Activation_Function_Class(
                    (f): NewGELUActivation()
                  )
                )
                (adapter_up): Linear(in_features=384, out_features=768, bias=True)
              )
              (disrpt): Adapter(
                (non_linearity): Activation_Function_Class(
                  (f): ReLU()
                )
                (adapter_down): Sequential(
                  (0): Linear(in_features=768, out_features=48, bias=True)
                  (1): Activation_Function_Class(
                    (f): ReLU()
                  )
                )
                (adapter_up): Linear(in_features=48, out_features=768, bias=True)
              )
            )
            (adapter_fusion_layer): ModuleDict()
          )
        )
        (8): BertLayer(
          (attention): BertAttention(
            (self): BertSelfAttention(
              (query): Linear(
                in_features=768, out_features=768, bias=True
                (loras): ModuleDict()
              )
              (key): Linear(
                in_features=768, out_features=768, bias=True
                (loras): ModuleDict()
              )
              (value): Linear(
                in_features=768, out_features=768, bias=True
                (loras): ModuleDict()
              )
              (dropout): Dropout(p=0.1, inplace=False)
              (prefix_tuning): PrefixTuningShim(
                (prefix_gates): ModuleDict()
                (pool): PrefixTuningPool(
                  (prefix_tunings): ModuleDict()
                )
              )
            )
            (output): BertSelfOutput(
              (dense): Linear(in_features=768, out_features=768, bias=True)
              (LayerNorm): LayerNorm((768,), eps=1e-12, elementwise_affine=True)
              (dropout): Dropout(p=0.1, inplace=False)
              (adapters): ModuleDict()
              (adapter_fusion_layer): ModuleDict()
            )
          )
          (intermediate): BertIntermediate(
            (dense): Linear(
              in_features=768, out_features=3072, bias=True
              (loras): ModuleDict()
            )
            (intermediate_act_fn): GELUActivation()
          )
          (output): BertOutput(
            (dense): Linear(
              in_features=3072, out_features=768, bias=True
              (loras): ModuleDict()
            )
            (LayerNorm): LayerNorm((768,), eps=1e-12, elementwise_affine=True)
            (dropout): Dropout(p=0.1, inplace=False)
            (adapters): ModuleDict(
              (en): Adapter(
                (non_linearity): Activation_Function_Class(
                  (f): ReLU()
                )
                (adapter_down): Sequential(
                  (0): Linear(in_features=768, out_features=384, bias=True)
                  (1): Activation_Function_Class(
                    (f): ReLU()
                  )
                )
                (adapter_up): Linear(in_features=384, out_features=768, bias=True)
              )
              (tr): Adapter(
                (non_linearity): Activation_Function_Class(
                  (f): NewGELUActivation()
                )
                (adapter_down): Sequential(
                  (0): Linear(in_features=768, out_features=384, bias=True)
                  (1): Activation_Function_Class(
                    (f): NewGELUActivation()
                  )
                )
                (adapter_up): Linear(in_features=384, out_features=768, bias=True)
              )
              (disrpt): Adapter(
                (non_linearity): Activation_Function_Class(
                  (f): ReLU()
                )
                (adapter_down): Sequential(
                  (0): Linear(in_features=768, out_features=48, bias=True)
                  (1): Activation_Function_Class(
                    (f): ReLU()
                  )
                )
                (adapter_up): Linear(in_features=48, out_features=768, bias=True)
              )
            )
            (adapter_fusion_layer): ModuleDict()
          )
        )
        (9): BertLayer(
          (attention): BertAttention(
            (self): BertSelfAttention(
              (query): Linear(
                in_features=768, out_features=768, bias=True
                (loras): ModuleDict()
              )
              (key): Linear(
                in_features=768, out_features=768, bias=True
                (loras): ModuleDict()
              )
              (value): Linear(
                in_features=768, out_features=768, bias=True
                (loras): ModuleDict()
              )
              (dropout): Dropout(p=0.1, inplace=False)
              (prefix_tuning): PrefixTuningShim(
                (prefix_gates): ModuleDict()
                (pool): PrefixTuningPool(
                  (prefix_tunings): ModuleDict()
                )
              )
            )
            (output): BertSelfOutput(
              (dense): Linear(in_features=768, out_features=768, bias=True)
              (LayerNorm): LayerNorm((768,), eps=1e-12, elementwise_affine=True)
              (dropout): Dropout(p=0.1, inplace=False)
              (adapters): ModuleDict()
              (adapter_fusion_layer): ModuleDict()
            )
          )
          (intermediate): BertIntermediate(
            (dense): Linear(
              in_features=768, out_features=3072, bias=True
              (loras): ModuleDict()
            )
            (intermediate_act_fn): GELUActivation()
          )
          (output): BertOutput(
            (dense): Linear(
              in_features=3072, out_features=768, bias=True
              (loras): ModuleDict()
            )
            (LayerNorm): LayerNorm((768,), eps=1e-12, elementwise_affine=True)
            (dropout): Dropout(p=0.1, inplace=False)
            (adapters): ModuleDict(
              (en): Adapter(
                (non_linearity): Activation_Function_Class(
                  (f): ReLU()
                )
                (adapter_down): Sequential(
                  (0): Linear(in_features=768, out_features=384, bias=True)
                  (1): Activation_Function_Class(
                    (f): ReLU()
                  )
                )
                (adapter_up): Linear(in_features=384, out_features=768, bias=True)
              )
              (tr): Adapter(
                (non_linearity): Activation_Function_Class(
                  (f): NewGELUActivation()
                )
                (adapter_down): Sequential(
                  (0): Linear(in_features=768, out_features=384, bias=True)
                  (1): Activation_Function_Class(
                    (f): NewGELUActivation()
                  )
                )
                (adapter_up): Linear(in_features=384, out_features=768, bias=True)
              )
              (disrpt): Adapter(
                (non_linearity): Activation_Function_Class(
                  (f): ReLU()
                )
                (adapter_down): Sequential(
                  (0): Linear(in_features=768, out_features=48, bias=True)
                  (1): Activation_Function_Class(
                    (f): ReLU()
                  )
                )
                (adapter_up): Linear(in_features=48, out_features=768, bias=True)
              )
            )
            (adapter_fusion_layer): ModuleDict()
          )
        )
        (10): BertLayer(
          (attention): BertAttention(
            (self): BertSelfAttention(
              (query): Linear(
                in_features=768, out_features=768, bias=True
                (loras): ModuleDict()
              )
              (key): Linear(
                in_features=768, out_features=768, bias=True
                (loras): ModuleDict()
              )
              (value): Linear(
                in_features=768, out_features=768, bias=True
                (loras): ModuleDict()
              )
              (dropout): Dropout(p=0.1, inplace=False)
              (prefix_tuning): PrefixTuningShim(
                (prefix_gates): ModuleDict()
                (pool): PrefixTuningPool(
                  (prefix_tunings): ModuleDict()
                )
              )
            )
            (output): BertSelfOutput(
              (dense): Linear(in_features=768, out_features=768, bias=True)
              (LayerNorm): LayerNorm((768,), eps=1e-12, elementwise_affine=True)
              (dropout): Dropout(p=0.1, inplace=False)
              (adapters): ModuleDict()
              (adapter_fusion_layer): ModuleDict()
            )
          )
          (intermediate): BertIntermediate(
            (dense): Linear(
              in_features=768, out_features=3072, bias=True
              (loras): ModuleDict()
            )
            (intermediate_act_fn): GELUActivation()
          )
          (output): BertOutput(
            (dense): Linear(
              in_features=3072, out_features=768, bias=True
              (loras): ModuleDict()
            )
            (LayerNorm): LayerNorm((768,), eps=1e-12, elementwise_affine=True)
            (dropout): Dropout(p=0.1, inplace=False)
            (adapters): ModuleDict(
              (en): Adapter(
                (non_linearity): Activation_Function_Class(
                  (f): ReLU()
                )
                (adapter_down): Sequential(
                  (0): Linear(in_features=768, out_features=384, bias=True)
                  (1): Activation_Function_Class(
                    (f): ReLU()
                  )
                )
                (adapter_up): Linear(in_features=384, out_features=768, bias=True)
              )
              (tr): Adapter(
                (non_linearity): Activation_Function_Class(
                  (f): NewGELUActivation()
                )
                (adapter_down): Sequential(
                  (0): Linear(in_features=768, out_features=384, bias=True)
                  (1): Activation_Function_Class(
                    (f): NewGELUActivation()
                  )
                )
                (adapter_up): Linear(in_features=384, out_features=768, bias=True)
              )
              (disrpt): Adapter(
                (non_linearity): Activation_Function_Class(
                  (f): ReLU()
                )
                (adapter_down): Sequential(
                  (0): Linear(in_features=768, out_features=48, bias=True)
                  (1): Activation_Function_Class(
                    (f): ReLU()
                  )
                )
                (adapter_up): Linear(in_features=48, out_features=768, bias=True)
              )
            )
            (adapter_fusion_layer): ModuleDict()
          )
        )
        (11): BertLayer(
          (attention): BertAttention(
            (self): BertSelfAttention(
              (query): Linear(
                in_features=768, out_features=768, bias=True
                (loras): ModuleDict()
              )
              (key): Linear(
                in_features=768, out_features=768, bias=True
                (loras): ModuleDict()
              )
              (value): Linear(
                in_features=768, out_features=768, bias=True
                (loras): ModuleDict()
              )
              (dropout): Dropout(p=0.1, inplace=False)
              (prefix_tuning): PrefixTuningShim(
                (prefix_gates): ModuleDict()
                (pool): PrefixTuningPool(
                  (prefix_tunings): ModuleDict()
                )
              )
            )
            (output): BertSelfOutput(
              (dense): Linear(in_features=768, out_features=768, bias=True)
              (LayerNorm): LayerNorm((768,), eps=1e-12, elementwise_affine=True)
              (dropout): Dropout(p=0.1, inplace=False)
              (adapters): ModuleDict()
              (adapter_fusion_layer): ModuleDict()
            )
          )
          (intermediate): BertIntermediate(
            (dense): Linear(
              in_features=768, out_features=3072, bias=True
              (loras): ModuleDict()
            )
            (intermediate_act_fn): GELUActivation()
          )
          (output): BertOutput(
            (dense): Linear(
              in_features=3072, out_features=768, bias=True
              (loras): ModuleDict()
            )
            (LayerNorm): LayerNorm((768,), eps=1e-12, elementwise_affine=True)
            (dropout): Dropout(p=0.1, inplace=False)
            (adapters): ModuleDict(
              (en): Adapter(
                (non_linearity): Activation_Function_Class(
                  (f): ReLU()
                )
                (adapter_down): Sequential(
                  (0): Linear(in_features=768, out_features=384, bias=True)
                  (1): Activation_Function_Class(
                    (f): ReLU()
                  )
                )
                (adapter_up): Linear(in_features=384, out_features=768, bias=True)
              )
              (tr): Adapter(
                (non_linearity): Activation_Function_Class(
                  (f): NewGELUActivation()
                )
                (adapter_down): Sequential(
                  (0): Linear(in_features=768, out_features=384, bias=True)
                  (1): Activation_Function_Class(
                    (f): NewGELUActivation()
                  )
                )
                (adapter_up): Linear(in_features=384, out_features=768, bias=True)
              )
              (disrpt): Adapter(
                (non_linearity): Activation_Function_Class(
                  (f): ReLU()
                )
                (adapter_down): Sequential(
                  (0): Linear(in_features=768, out_features=48, bias=True)
                  (1): Activation_Function_Class(
                    (f): ReLU()
                  )
                )
                (adapter_up): Linear(in_features=48, out_features=768, bias=True)
              )
            )
            (adapter_fusion_layer): ModuleDict()
          )
        )
      )
    )
    (pooler): BertPooler(
      (dense): Linear(in_features=768, out_features=768, bias=True)
      (activation): Tanh()
    )
    (prefix_tuning): PrefixTuningPool(
      (prefix_tunings): ModuleDict()
    )
  )
  (heads): ModuleDict(
    (tr): BertStyleMaskedLMHead(
      (0): Linear(in_features=768, out_features=768, bias=True)
      (1): Activation_Function_Class(
        (f): GELUActivation()
      )
      (2): LayerNorm((768,), eps=1e-12, elementwise_affine=True)
      (3): Linear(in_features=768, out_features=119547, bias=True)
    )
    (disrpt): ClassificationHead(
      (0): Dropout(p=0.1, inplace=False)
      (1): Linear(in_features=768, out_features=768, bias=True)
      (2): Activation_Function_Class(
        (f): Tanh()
      )
      (3): Dropout(p=0.1, inplace=False)
      (4): Linear(in_features=768, out_features=25, bias=True)
    )
  )
)
{'train@eng.pdtb.pdtb_loss': 1.6007750034332275, 'train@eng.pdtb.pdtb_accuracy@eng.pdtb.pdtb': 0.5247723132969034, 'train@eng.pdtb.pdtb_f1@eng.pdtb.pdtb': 0.1894035004698123, 'train@eng.pdtb.pdtb_precision@eng.pdtb.pdtb': 0.24864943415978602, 'train@eng.pdtb.pdtb_recall@eng.pdtb.pdtb': 0.18964802622382515, 'train@eng.pdtb.pdtb_loss@eng.pdtb.pdtb': 1.6007752418518066, 'train@eng.pdtb.pdtb_runtime': 531.3796, 'train@eng.pdtb.pdtb_samples_per_second': 82.653, 'train@eng.pdtb.pdtb_steps_per_second': 2.584, 'epoch': 1.0}
…
Lang1:  eng.rst.gum    Lang2:  tur.pdtb.tdb
Saving run to:  runs/SingleEpochPass=v4_eng.rst.gum_tur.pdtb.tdb_lrfunc=Adafactor_lr=2e-05_plm=bert-base-multilingual-cased
Running with params: BERT_MODEL=bert-base-multilingual-cased lr=2e-05
read 13897 examples
read 2149 examples
read 2091 examples
read 2451 examples
read 312 examples
read 422 examples
Total prediction labels:  46
BertAdapterModel(
  (shared_parameters): ModuleDict()
  (bert): BertModel(
    (shared_parameters): ModuleDict()
    (invertible_adapters): ModuleDict(
      (en): NICECouplingBlock(
        (F): Sequential(
          (0): Linear(in_features=384, out_features=192, bias=True)
          (1): Activation_Function_Class(
            (f): ReLU()
          )
          (2): Linear(in_features=192, out_features=384, bias=True)
        )
        (G): Sequential(
          (0): Linear(in_features=384, out_features=192, bias=True)
          (1): Activation_Function_Class(
            (f): ReLU()
          )
          (2): Linear(in_features=192, out_features=384, bias=True)
        )
      )
      (tr): NICECouplingBlock(
        (F): Sequential(
          (0): Linear(in_features=384, out_features=192, bias=True)
          (1): Activation_Function_Class(
            (f): NewGELUActivation()
          )
          (2): Linear(in_features=192, out_features=384, bias=True)
        )
        (G): Sequential(
          (0): Linear(in_features=384, out_features=192, bias=True)
          (1): Activation_Function_Class(
            (f): NewGELUActivation()
          )
          (2): Linear(in_features=192, out_features=384, bias=True)
        )
      )
    )
    (embeddings): BertEmbeddings(
      (word_embeddings): Embedding(119547, 768, padding_idx=0)
      (position_embeddings): Embedding(512, 768)
      (token_type_embeddings): Embedding(2, 768)
      (LayerNorm): LayerNorm((768,), eps=1e-12, elementwise_affine=True)
      (dropout): Dropout(p=0.1, inplace=False)
    )
    (encoder): BertEncoder(
      (layer): ModuleList(
        (0): BertLayer(
          (attention): BertAttention(
            (self): BertSelfAttention(
              (query): Linear(
                in_features=768, out_features=768, bias=True
                (loras): ModuleDict()
              )
              (key): Linear(
                in_features=768, out_features=768, bias=True
                (loras): ModuleDict()
              )
              (value): Linear(
                in_features=768, out_features=768, bias=True
                (loras): ModuleDict()
              )
              (dropout): Dropout(p=0.1, inplace=False)
              (prefix_tuning): PrefixTuningShim(
                (prefix_gates): ModuleDict()
                (pool): PrefixTuningPool(
                  (prefix_tunings): ModuleDict()
                )
              )
            )
            (output): BertSelfOutput(
              (dense): Linear(in_features=768, out_features=768, bias=True)
              (LayerNorm): LayerNorm((768,), eps=1e-12, elementwise_affine=True)
              (dropout): Dropout(p=0.1, inplace=False)
              (adapters): ModuleDict()
              (adapter_fusion_layer): ModuleDict()
            )
          )
          (intermediate): BertIntermediate(
            (dense): Linear(
              in_features=768, out_features=3072, bias=True
              (loras): ModuleDict()
            )
            (intermediate_act_fn): GELUActivation()
          )
          (output): BertOutput(
            (dense): Linear(
              in_features=3072, out_features=768, bias=True
              (loras): ModuleDict()
            )
            (LayerNorm): LayerNorm((768,), eps=1e-12, elementwise_affine=True)
            (dropout): Dropout(p=0.1, inplace=False)
            (adapters): ModuleDict(
              (en): Adapter(
                (non_linearity): Activation_Function_Class(
                  (f): ReLU()
                )
                (adapter_down): Sequential(
                  (0): Linear(in_features=768, out_features=384, bias=True)
                  (1): Activation_Function_Class(
                    (f): ReLU()
                  )
                )
                (adapter_up): Linear(in_features=384, out_features=768, bias=True)
              )
              (tr): Adapter(
                (non_linearity): Activation_Function_Class(
                  (f): NewGELUActivation()
                )
                (adapter_down): Sequential(
                  (0): Linear(in_features=768, out_features=384, bias=True)
                  (1): Activation_Function_Class(
                    (f): NewGELUActivation()
                  )
                )
                (adapter_up): Linear(in_features=384, out_features=768, bias=True)
              )
              (disrpt): Adapter(
                (non_linearity): Activation_Function_Class(
                  (f): ReLU()
                )
                (adapter_down): Sequential(
                  (0): Linear(in_features=768, out_features=48, bias=True)
                  (1): Activation_Function_Class(
                    (f): ReLU()
                  )
                )
                (adapter_up): Linear(in_features=48, out_features=768, bias=True)
              )
            )
            (adapter_fusion_layer): ModuleDict()
          )
        )
        (1): BertLayer(
          (attention): BertAttention(
            (self): BertSelfAttention(
              (query): Linear(
                in_features=768, out_features=768, bias=True
                (loras): ModuleDict()
              )
              (key): Linear(
                in_features=768, out_features=768, bias=True
                (loras): ModuleDict()
              )
              (value): Linear(
                in_features=768, out_features=768, bias=True
                (loras): ModuleDict()
              )
              (dropout): Dropout(p=0.1, inplace=False)
              (prefix_tuning): PrefixTuningShim(
                (prefix_gates): ModuleDict()
                (pool): PrefixTuningPool(
                  (prefix_tunings): ModuleDict()
                )
              )
            )
            (output): BertSelfOutput(
              (dense): Linear(in_features=768, out_features=768, bias=True)
              (LayerNorm): LayerNorm((768,), eps=1e-12, elementwise_affine=True)
              (dropout): Dropout(p=0.1, inplace=False)
              (adapters): ModuleDict()
              (adapter_fusion_layer): ModuleDict()
            )
          )
          (intermediate): BertIntermediate(
            (dense): Linear(
              in_features=768, out_features=3072, bias=True
              (loras): ModuleDict()
            )
            (intermediate_act_fn): GELUActivation()
          )
          (output): BertOutput(
            (dense): Linear(
              in_features=3072, out_features=768, bias=True
              (loras): ModuleDict()
            )
            (LayerNorm): LayerNorm((768,), eps=1e-12, elementwise_affine=True)
            (dropout): Dropout(p=0.1, inplace=False)
            (adapters): ModuleDict(
              (en): Adapter(
                (non_linearity): Activation_Function_Class(
                  (f): ReLU()
                )
                (adapter_down): Sequential(
                  (0): Linear(in_features=768, out_features=384, bias=True)
                  (1): Activation_Function_Class(
                    (f): ReLU()
                  )
                )
                (adapter_up): Linear(in_features=384, out_features=768, bias=True)
              )
              (tr): Adapter(
                (non_linearity): Activation_Function_Class(
                  (f): NewGELUActivation()
                )
                (adapter_down): Sequential(
                  (0): Linear(in_features=768, out_features=384, bias=True)
                  (1): Activation_Function_Class(
                    (f): NewGELUActivation()
                  )
                )
                (adapter_up): Linear(in_features=384, out_features=768, bias=True)
              )
              (disrpt): Adapter(
                (non_linearity): Activation_Function_Class(
                  (f): ReLU()
                )
                (adapter_down): Sequential(
                  (0): Linear(in_features=768, out_features=48, bias=True)
                  (1): Activation_Function_Class(
                    (f): ReLU()
                  )
                )
                (adapter_up): Linear(in_features=48, out_features=768, bias=True)
              )
            )
            (adapter_fusion_layer): ModuleDict()
          )
        )
        (2): BertLayer(
          (attention): BertAttention(
            (self): BertSelfAttention(
              (query): Linear(
                in_features=768, out_features=768, bias=True
                (loras): ModuleDict()
              )
              (key): Linear(
                in_features=768, out_features=768, bias=True
                (loras): ModuleDict()
              )
              (value): Linear(
                in_features=768, out_features=768, bias=True
                (loras): ModuleDict()
              )
              (dropout): Dropout(p=0.1, inplace=False)
              (prefix_tuning): PrefixTuningShim(
                (prefix_gates): ModuleDict()
                (pool): PrefixTuningPool(
                  (prefix_tunings): ModuleDict()
                )
              )
            )
            (output): BertSelfOutput(
              (dense): Linear(in_features=768, out_features=768, bias=True)
              (LayerNorm): LayerNorm((768,), eps=1e-12, elementwise_affine=True)
              (dropout): Dropout(p=0.1, inplace=False)
              (adapters): ModuleDict()
              (adapter_fusion_layer): ModuleDict()
            )
          )
          (intermediate): BertIntermediate(
            (dense): Linear(
              in_features=768, out_features=3072, bias=True
              (loras): ModuleDict()
            )
            (intermediate_act_fn): GELUActivation()
          )
          (output): BertOutput(
            (dense): Linear(
              in_features=3072, out_features=768, bias=True
              (loras): ModuleDict()
            )
            (LayerNorm): LayerNorm((768,), eps=1e-12, elementwise_affine=True)
            (dropout): Dropout(p=0.1, inplace=False)
            (adapters): ModuleDict(
              (en): Adapter(
                (non_linearity): Activation_Function_Class(
                  (f): ReLU()
                )
                (adapter_down): Sequential(
                  (0): Linear(in_features=768, out_features=384, bias=True)
                  (1): Activation_Function_Class(
                    (f): ReLU()
                  )
                )
                (adapter_up): Linear(in_features=384, out_features=768, bias=True)
              )
              (tr): Adapter(
                (non_linearity): Activation_Function_Class(
                  (f): NewGELUActivation()
                )
                (adapter_down): Sequential(
                  (0): Linear(in_features=768, out_features=384, bias=True)
                  (1): Activation_Function_Class(
                    (f): NewGELUActivation()
                  )
                )
                (adapter_up): Linear(in_features=384, out_features=768, bias=True)
              )
              (disrpt): Adapter(
                (non_linearity): Activation_Function_Class(
                  (f): ReLU()
                )
                (adapter_down): Sequential(
                  (0): Linear(in_features=768, out_features=48, bias=True)
                  (1): Activation_Function_Class(
                    (f): ReLU()
                  )
                )
                (adapter_up): Linear(in_features=48, out_features=768, bias=True)
              )
            )
            (adapter_fusion_layer): ModuleDict()
          )
        )
        (3): BertLayer(
          (attention): BertAttention(
            (self): BertSelfAttention(
              (query): Linear(
                in_features=768, out_features=768, bias=True
                (loras): ModuleDict()
              )
              (key): Linear(
                in_features=768, out_features=768, bias=True
                (loras): ModuleDict()
              )
              (value): Linear(
                in_features=768, out_features=768, bias=True
                (loras): ModuleDict()
              )
              (dropout): Dropout(p=0.1, inplace=False)
              (prefix_tuning): PrefixTuningShim(
                (prefix_gates): ModuleDict()
                (pool): PrefixTuningPool(
                  (prefix_tunings): ModuleDict()
                )
              )
            )
            (output): BertSelfOutput(
              (dense): Linear(in_features=768, out_features=768, bias=True)
              (LayerNorm): LayerNorm((768,), eps=1e-12, elementwise_affine=True)
              (dropout): Dropout(p=0.1, inplace=False)
              (adapters): ModuleDict()
              (adapter_fusion_layer): ModuleDict()
            )
          )
          (intermediate): BertIntermediate(
            (dense): Linear(
              in_features=768, out_features=3072, bias=True
              (loras): ModuleDict()
            )
            (intermediate_act_fn): GELUActivation()
          )
          (output): BertOutput(
            (dense): Linear(
              in_features=3072, out_features=768, bias=True
              (loras): ModuleDict()
            )
            (LayerNorm): LayerNorm((768,), eps=1e-12, elementwise_affine=True)
            (dropout): Dropout(p=0.1, inplace=False)
            (adapters): ModuleDict(
              (en): Adapter(
                (non_linearity): Activation_Function_Class(
                  (f): ReLU()
                )
                (adapter_down): Sequential(
                  (0): Linear(in_features=768, out_features=384, bias=True)
                  (1): Activation_Function_Class(
                    (f): ReLU()
                  )
                )
                (adapter_up): Linear(in_features=384, out_features=768, bias=True)
              )
              (tr): Adapter(
                (non_linearity): Activation_Function_Class(
                  (f): NewGELUActivation()
                )
                (adapter_down): Sequential(
                  (0): Linear(in_features=768, out_features=384, bias=True)
                  (1): Activation_Function_Class(
                    (f): NewGELUActivation()
                  )
                )
                (adapter_up): Linear(in_features=384, out_features=768, bias=True)
              )
              (disrpt): Adapter(
                (non_linearity): Activation_Function_Class(
                  (f): ReLU()
                )
                (adapter_down): Sequential(
                  (0): Linear(in_features=768, out_features=48, bias=True)
                  (1): Activation_Function_Class(
                    (f): ReLU()
                  )
                )
                (adapter_up): Linear(in_features=48, out_features=768, bias=True)
              )
            )
            (adapter_fusion_layer): ModuleDict()
          )
        )
        (4): BertLayer(
          (attention): BertAttention(
            (self): BertSelfAttention(
              (query): Linear(
                in_features=768, out_features=768, bias=True
                (loras): ModuleDict()
              )
              (key): Linear(
                in_features=768, out_features=768, bias=True
                (loras): ModuleDict()
              )
              (value): Linear(
                in_features=768, out_features=768, bias=True
                (loras): ModuleDict()
              )
              (dropout): Dropout(p=0.1, inplace=False)
              (prefix_tuning): PrefixTuningShim(
                (prefix_gates): ModuleDict()
                (pool): PrefixTuningPool(
                  (prefix_tunings): ModuleDict()
                )
              )
            )
            (output): BertSelfOutput(
              (dense): Linear(in_features=768, out_features=768, bias=True)
              (LayerNorm): LayerNorm((768,), eps=1e-12, elementwise_affine=True)
              (dropout): Dropout(p=0.1, inplace=False)
              (adapters): ModuleDict()
              (adapter_fusion_layer): ModuleDict()
            )
          )
          (intermediate): BertIntermediate(
            (dense): Linear(
              in_features=768, out_features=3072, bias=True
              (loras): ModuleDict()
            )
            (intermediate_act_fn): GELUActivation()
          )
          (output): BertOutput(
            (dense): Linear(
              in_features=3072, out_features=768, bias=True
              (loras): ModuleDict()
            )
            (LayerNorm): LayerNorm((768,), eps=1e-12, elementwise_affine=True)
            (dropout): Dropout(p=0.1, inplace=False)
            (adapters): ModuleDict(
              (en): Adapter(
                (non_linearity): Activation_Function_Class(
                  (f): ReLU()
                )
                (adapter_down): Sequential(
                  (0): Linear(in_features=768, out_features=384, bias=True)
                  (1): Activation_Function_Class(
                    (f): ReLU()
                  )
                )
                (adapter_up): Linear(in_features=384, out_features=768, bias=True)
              )
              (tr): Adapter(
                (non_linearity): Activation_Function_Class(
                  (f): NewGELUActivation()
                )
                (adapter_down): Sequential(
                  (0): Linear(in_features=768, out_features=384, bias=True)
                  (1): Activation_Function_Class(
                    (f): NewGELUActivation()
                  )
                )
                (adapter_up): Linear(in_features=384, out_features=768, bias=True)
              )
              (disrpt): Adapter(
                (non_linearity): Activation_Function_Class(
                  (f): ReLU()
                )
                (adapter_down): Sequential(
                  (0): Linear(in_features=768, out_features=48, bias=True)
                  (1): Activation_Function_Class(
                    (f): ReLU()
                  )
                )
                (adapter_up): Linear(in_features=48, out_features=768, bias=True)
              )
            )
            (adapter_fusion_layer): ModuleDict()
          )
        )
        (5): BertLayer(
          (attention): BertAttention(
            (self): BertSelfAttention(
              (query): Linear(
                in_features=768, out_features=768, bias=True
                (loras): ModuleDict()
              )
              (key): Linear(
                in_features=768, out_features=768, bias=True
                (loras): ModuleDict()
              )
              (value): Linear(
                in_features=768, out_features=768, bias=True
                (loras): ModuleDict()
              )
              (dropout): Dropout(p=0.1, inplace=False)
              (prefix_tuning): PrefixTuningShim(
                (prefix_gates): ModuleDict()
                (pool): PrefixTuningPool(
                  (prefix_tunings): ModuleDict()
                )
              )
            )
            (output): BertSelfOutput(
              (dense): Linear(in_features=768, out_features=768, bias=True)
              (LayerNorm): LayerNorm((768,), eps=1e-12, elementwise_affine=True)
              (dropout): Dropout(p=0.1, inplace=False)
              (adapters): ModuleDict()
              (adapter_fusion_layer): ModuleDict()
            )
          )
          (intermediate): BertIntermediate(
            (dense): Linear(
              in_features=768, out_features=3072, bias=True
              (loras): ModuleDict()
            )
            (intermediate_act_fn): GELUActivation()
          )
          (output): BertOutput(
            (dense): Linear(
              in_features=3072, out_features=768, bias=True
              (loras): ModuleDict()
            )
            (LayerNorm): LayerNorm((768,), eps=1e-12, elementwise_affine=True)
            (dropout): Dropout(p=0.1, inplace=False)
            (adapters): ModuleDict(
              (en): Adapter(
                (non_linearity): Activation_Function_Class(
                  (f): ReLU()
                )
                (adapter_down): Sequential(
                  (0): Linear(in_features=768, out_features=384, bias=True)
                  (1): Activation_Function_Class(
                    (f): ReLU()
                  )
                )
                (adapter_up): Linear(in_features=384, out_features=768, bias=True)
              )
              (tr): Adapter(
                (non_linearity): Activation_Function_Class(
                  (f): NewGELUActivation()
                )
                (adapter_down): Sequential(
                  (0): Linear(in_features=768, out_features=384, bias=True)
                  (1): Activation_Function_Class(
                    (f): NewGELUActivation()
                  )
                )
                (adapter_up): Linear(in_features=384, out_features=768, bias=True)
              )
              (disrpt): Adapter(
                (non_linearity): Activation_Function_Class(
                  (f): ReLU()
                )
                (adapter_down): Sequential(
                  (0): Linear(in_features=768, out_features=48, bias=True)
                  (1): Activation_Function_Class(
                    (f): ReLU()
                  )
                )
                (adapter_up): Linear(in_features=48, out_features=768, bias=True)
              )
            )
            (adapter_fusion_layer): ModuleDict()
          )
        )
        (6): BertLayer(
          (attention): BertAttention(
            (self): BertSelfAttention(
              (query): Linear(
                in_features=768, out_features=768, bias=True
                (loras): ModuleDict()
              )
              (key): Linear(
                in_features=768, out_features=768, bias=True
                (loras): ModuleDict()
              )
              (value): Linear(
                in_features=768, out_features=768, bias=True
                (loras): ModuleDict()
              )
              (dropout): Dropout(p=0.1, inplace=False)
              (prefix_tuning): PrefixTuningShim(
                (prefix_gates): ModuleDict()
                (pool): PrefixTuningPool(
                  (prefix_tunings): ModuleDict()
                )
              )
            )
            (output): BertSelfOutput(
              (dense): Linear(in_features=768, out_features=768, bias=True)
              (LayerNorm): LayerNorm((768,), eps=1e-12, elementwise_affine=True)
              (dropout): Dropout(p=0.1, inplace=False)
              (adapters): ModuleDict()
              (adapter_fusion_layer): ModuleDict()
            )
          )
          (intermediate): BertIntermediate(
            (dense): Linear(
              in_features=768, out_features=3072, bias=True
              (loras): ModuleDict()
            )
            (intermediate_act_fn): GELUActivation()
          )
          (output): BertOutput(
            (dense): Linear(
              in_features=3072, out_features=768, bias=True
              (loras): ModuleDict()
            )
            (LayerNorm): LayerNorm((768,), eps=1e-12, elementwise_affine=True)
            (dropout): Dropout(p=0.1, inplace=False)
            (adapters): ModuleDict(
              (en): Adapter(
                (non_linearity): Activation_Function_Class(
                  (f): ReLU()
                )
                (adapter_down): Sequential(
                  (0): Linear(in_features=768, out_features=384, bias=True)
                  (1): Activation_Function_Class(
                    (f): ReLU()
                  )
                )
                (adapter_up): Linear(in_features=384, out_features=768, bias=True)
              )
              (tr): Adapter(
                (non_linearity): Activation_Function_Class(
                  (f): NewGELUActivation()
                )
                (adapter_down): Sequential(
                  (0): Linear(in_features=768, out_features=384, bias=True)
                  (1): Activation_Function_Class(
                    (f): NewGELUActivation()
                  )
                )
                (adapter_up): Linear(in_features=384, out_features=768, bias=True)
              )
              (disrpt): Adapter(
                (non_linearity): Activation_Function_Class(
                  (f): ReLU()
                )
                (adapter_down): Sequential(
                  (0): Linear(in_features=768, out_features=48, bias=True)
                  (1): Activation_Function_Class(
                    (f): ReLU()
                  )
                )
                (adapter_up): Linear(in_features=48, out_features=768, bias=True)
              )
            )
            (adapter_fusion_layer): ModuleDict()
          )
        )
        (7): BertLayer(
          (attention): BertAttention(
            (self): BertSelfAttention(
              (query): Linear(
                in_features=768, out_features=768, bias=True
                (loras): ModuleDict()
              )
              (key): Linear(
                in_features=768, out_features=768, bias=True
                (loras): ModuleDict()
              )
              (value): Linear(
                in_features=768, out_features=768, bias=True
                (loras): ModuleDict()
              )
              (dropout): Dropout(p=0.1, inplace=False)
              (prefix_tuning): PrefixTuningShim(
                (prefix_gates): ModuleDict()
                (pool): PrefixTuningPool(
                  (prefix_tunings): ModuleDict()
                )
              )
            )
            (output): BertSelfOutput(
              (dense): Linear(in_features=768, out_features=768, bias=True)
              (LayerNorm): LayerNorm((768,), eps=1e-12, elementwise_affine=True)
              (dropout): Dropout(p=0.1, inplace=False)
              (adapters): ModuleDict()
              (adapter_fusion_layer): ModuleDict()
            )
          )
          (intermediate): BertIntermediate(
            (dense): Linear(
              in_features=768, out_features=3072, bias=True
              (loras): ModuleDict()
            )
            (intermediate_act_fn): GELUActivation()
          )
          (output): BertOutput(
            (dense): Linear(
              in_features=3072, out_features=768, bias=True
              (loras): ModuleDict()
            )
            (LayerNorm): LayerNorm((768,), eps=1e-12, elementwise_affine=True)
            (dropout): Dropout(p=0.1, inplace=False)
            (adapters): ModuleDict(
              (en): Adapter(
                (non_linearity): Activation_Function_Class(
                  (f): ReLU()
                )
                (adapter_down): Sequential(
                  (0): Linear(in_features=768, out_features=384, bias=True)
                  (1): Activation_Function_Class(
                    (f): ReLU()
                  )
                )
                (adapter_up): Linear(in_features=384, out_features=768, bias=True)
              )
              (tr): Adapter(
                (non_linearity): Activation_Function_Class(
                  (f): NewGELUActivation()
                )
                (adapter_down): Sequential(
                  (0): Linear(in_features=768, out_features=384, bias=True)
                  (1): Activation_Function_Class(
                    (f): NewGELUActivation()
                  )
                )
                (adapter_up): Linear(in_features=384, out_features=768, bias=True)
              )
              (disrpt): Adapter(
                (non_linearity): Activation_Function_Class(
                  (f): ReLU()
                )
                (adapter_down): Sequential(
                  (0): Linear(in_features=768, out_features=48, bias=True)
                  (1): Activation_Function_Class(
                    (f): ReLU()
                  )
                )
                (adapter_up): Linear(in_features=48, out_features=768, bias=True)
              )
            )
            (adapter_fusion_layer): ModuleDict()
          )
        )
        (8): BertLayer(
          (attention): BertAttention(
            (self): BertSelfAttention(
              (query): Linear(
                in_features=768, out_features=768, bias=True
                (loras): ModuleDict()
              )
              (key): Linear(
                in_features=768, out_features=768, bias=True
                (loras): ModuleDict()
              )
              (value): Linear(
                in_features=768, out_features=768, bias=True
                (loras): ModuleDict()
              )
              (dropout): Dropout(p=0.1, inplace=False)
              (prefix_tuning): PrefixTuningShim(
                (prefix_gates): ModuleDict()
                (pool): PrefixTuningPool(
                  (prefix_tunings): ModuleDict()
                )
              )
            )
            (output): BertSelfOutput(
              (dense): Linear(in_features=768, out_features=768, bias=True)
              (LayerNorm): LayerNorm((768,), eps=1e-12, elementwise_affine=True)
              (dropout): Dropout(p=0.1, inplace=False)
              (adapters): ModuleDict()
              (adapter_fusion_layer): ModuleDict()
            )
          )
          (intermediate): BertIntermediate(
            (dense): Linear(
              in_features=768, out_features=3072, bias=True
              (loras): ModuleDict()
            )
            (intermediate_act_fn): GELUActivation()
          )
          (output): BertOutput(
            (dense): Linear(
              in_features=3072, out_features=768, bias=True
              (loras): ModuleDict()
            )
            (LayerNorm): LayerNorm((768,), eps=1e-12, elementwise_affine=True)
            (dropout): Dropout(p=0.1, inplace=False)
            (adapters): ModuleDict(
              (en): Adapter(
                (non_linearity): Activation_Function_Class(
                  (f): ReLU()
                )
                (adapter_down): Sequential(
                  (0): Linear(in_features=768, out_features=384, bias=True)
                  (1): Activation_Function_Class(
                    (f): ReLU()
                  )
                )
                (adapter_up): Linear(in_features=384, out_features=768, bias=True)
              )
              (tr): Adapter(
                (non_linearity): Activation_Function_Class(
                  (f): NewGELUActivation()
                )
                (adapter_down): Sequential(
                  (0): Linear(in_features=768, out_features=384, bias=True)
                  (1): Activation_Function_Class(
                    (f): NewGELUActivation()
                  )
                )
                (adapter_up): Linear(in_features=384, out_features=768, bias=True)
              )
              (disrpt): Adapter(
                (non_linearity): Activation_Function_Class(
                  (f): ReLU()
                )
                (adapter_down): Sequential(
                  (0): Linear(in_features=768, out_features=48, bias=True)
                  (1): Activation_Function_Class(
                    (f): ReLU()
                  )
                )
                (adapter_up): Linear(in_features=48, out_features=768, bias=True)
              )
            )
            (adapter_fusion_layer): ModuleDict()
          )
        )
        (9): BertLayer(
          (attention): BertAttention(
            (self): BertSelfAttention(
              (query): Linear(
                in_features=768, out_features=768, bias=True
                (loras): ModuleDict()
              )
              (key): Linear(
                in_features=768, out_features=768, bias=True
                (loras): ModuleDict()
              )
              (value): Linear(
                in_features=768, out_features=768, bias=True
                (loras): ModuleDict()
              )
              (dropout): Dropout(p=0.1, inplace=False)
              (prefix_tuning): PrefixTuningShim(
                (prefix_gates): ModuleDict()
                (pool): PrefixTuningPool(
                  (prefix_tunings): ModuleDict()
                )
              )
            )
            (output): BertSelfOutput(
              (dense): Linear(in_features=768, out_features=768, bias=True)
              (LayerNorm): LayerNorm((768,), eps=1e-12, elementwise_affine=True)
              (dropout): Dropout(p=0.1, inplace=False)
              (adapters): ModuleDict()
              (adapter_fusion_layer): ModuleDict()
            )
          )
          (intermediate): BertIntermediate(
            (dense): Linear(
              in_features=768, out_features=3072, bias=True
              (loras): ModuleDict()
            )
            (intermediate_act_fn): GELUActivation()
          )
          (output): BertOutput(
            (dense): Linear(
              in_features=3072, out_features=768, bias=True
              (loras): ModuleDict()
            )
            (LayerNorm): LayerNorm((768,), eps=1e-12, elementwise_affine=True)
            (dropout): Dropout(p=0.1, inplace=False)
            (adapters): ModuleDict(
              (en): Adapter(
                (non_linearity): Activation_Function_Class(
                  (f): ReLU()
                )
                (adapter_down): Sequential(
                  (0): Linear(in_features=768, out_features=384, bias=True)
                  (1): Activation_Function_Class(
                    (f): ReLU()
                  )
                )
                (adapter_up): Linear(in_features=384, out_features=768, bias=True)
              )
              (tr): Adapter(
                (non_linearity): Activation_Function_Class(
                  (f): NewGELUActivation()
                )
                (adapter_down): Sequential(
                  (0): Linear(in_features=768, out_features=384, bias=True)
                  (1): Activation_Function_Class(
                    (f): NewGELUActivation()
                  )
                )
                (adapter_up): Linear(in_features=384, out_features=768, bias=True)
              )
              (disrpt): Adapter(
                (non_linearity): Activation_Function_Class(
                  (f): ReLU()
                )
                (adapter_down): Sequential(
                  (0): Linear(in_features=768, out_features=48, bias=True)
                  (1): Activation_Function_Class(
                    (f): ReLU()
                  )
                )
                (adapter_up): Linear(in_features=48, out_features=768, bias=True)
              )
            )
            (adapter_fusion_layer): ModuleDict()
          )
        )
        (10): BertLayer(
          (attention): BertAttention(
            (self): BertSelfAttention(
              (query): Linear(
                in_features=768, out_features=768, bias=True
                (loras): ModuleDict()
              )
              (key): Linear(
                in_features=768, out_features=768, bias=True
                (loras): ModuleDict()
              )
              (value): Linear(
                in_features=768, out_features=768, bias=True
                (loras): ModuleDict()
              )
              (dropout): Dropout(p=0.1, inplace=False)
              (prefix_tuning): PrefixTuningShim(
                (prefix_gates): ModuleDict()
                (pool): PrefixTuningPool(
                  (prefix_tunings): ModuleDict()
                )
              )
            )
            (output): BertSelfOutput(
              (dense): Linear(in_features=768, out_features=768, bias=True)
              (LayerNorm): LayerNorm((768,), eps=1e-12, elementwise_affine=True)
              (dropout): Dropout(p=0.1, inplace=False)
              (adapters): ModuleDict()
              (adapter_fusion_layer): ModuleDict()
            )
          )
          (intermediate): BertIntermediate(
            (dense): Linear(
              in_features=768, out_features=3072, bias=True
              (loras): ModuleDict()
            )
            (intermediate_act_fn): GELUActivation()
          )
          (output): BertOutput(
            (dense): Linear(
              in_features=3072, out_features=768, bias=True
              (loras): ModuleDict()
            )
            (LayerNorm): LayerNorm((768,), eps=1e-12, elementwise_affine=True)
            (dropout): Dropout(p=0.1, inplace=False)
            (adapters): ModuleDict(
              (en): Adapter(
                (non_linearity): Activation_Function_Class(
                  (f): ReLU()
                )
                (adapter_down): Sequential(
                  (0): Linear(in_features=768, out_features=384, bias=True)
                  (1): Activation_Function_Class(
                    (f): ReLU()
                  )
                )
                (adapter_up): Linear(in_features=384, out_features=768, bias=True)
              )
              (tr): Adapter(
                (non_linearity): Activation_Function_Class(
                  (f): NewGELUActivation()
                )
                (adapter_down): Sequential(
                  (0): Linear(in_features=768, out_features=384, bias=True)
                  (1): Activation_Function_Class(
                    (f): NewGELUActivation()
                  )
                )
                (adapter_up): Linear(in_features=384, out_features=768, bias=True)
              )
              (disrpt): Adapter(
                (non_linearity): Activation_Function_Class(
                  (f): ReLU()
                )
                (adapter_down): Sequential(
                  (0): Linear(in_features=768, out_features=48, bias=True)
                  (1): Activation_Function_Class(
                    (f): ReLU()
                  )
                )
                (adapter_up): Linear(in_features=48, out_features=768, bias=True)
              )
            )
            (adapter_fusion_layer): ModuleDict()
          )
        )
        (11): BertLayer(
          (attention): BertAttention(
            (self): BertSelfAttention(
              (query): Linear(
                in_features=768, out_features=768, bias=True
                (loras): ModuleDict()
              )
              (key): Linear(
                in_features=768, out_features=768, bias=True
                (loras): ModuleDict()
              )
              (value): Linear(
                in_features=768, out_features=768, bias=True
                (loras): ModuleDict()
              )
              (dropout): Dropout(p=0.1, inplace=False)
              (prefix_tuning): PrefixTuningShim(
                (prefix_gates): ModuleDict()
                (pool): PrefixTuningPool(
                  (prefix_tunings): ModuleDict()
                )
              )
            )
            (output): BertSelfOutput(
              (dense): Linear(in_features=768, out_features=768, bias=True)
              (LayerNorm): LayerNorm((768,), eps=1e-12, elementwise_affine=True)
              (dropout): Dropout(p=0.1, inplace=False)
              (adapters): ModuleDict()
              (adapter_fusion_layer): ModuleDict()
            )
          )
          (intermediate): BertIntermediate(
            (dense): Linear(
              in_features=768, out_features=3072, bias=True
              (loras): ModuleDict()
            )
            (intermediate_act_fn): GELUActivation()
          )
          (output): BertOutput(
            (dense): Linear(
              in_features=3072, out_features=768, bias=True
              (loras): ModuleDict()
            )
            (LayerNorm): LayerNorm((768,), eps=1e-12, elementwise_affine=True)
            (dropout): Dropout(p=0.1, inplace=False)
            (adapters): ModuleDict(
              (en): Adapter(
                (non_linearity): Activation_Function_Class(
                  (f): ReLU()
                )
                (adapter_down): Sequential(
                  (0): Linear(in_features=768, out_features=384, bias=True)
                  (1): Activation_Function_Class(
                    (f): ReLU()
                  )
                )
                (adapter_up): Linear(in_features=384, out_features=768, bias=True)
              )
              (tr): Adapter(
                (non_linearity): Activation_Function_Class(
                  (f): NewGELUActivation()
                )
                (adapter_down): Sequential(
                  (0): Linear(in_features=768, out_features=384, bias=True)
                  (1): Activation_Function_Class(
                    (f): NewGELUActivation()
                  )
                )
                (adapter_up): Linear(in_features=384, out_features=768, bias=True)
              )
              (disrpt): Adapter(
                (non_linearity): Activation_Function_Class(
                  (f): ReLU()
                )
                (adapter_down): Sequential(
                  (0): Linear(in_features=768, out_features=48, bias=True)
                  (1): Activation_Function_Class(
                    (f): ReLU()
                  )
                )
                (adapter_up): Linear(in_features=48, out_features=768, bias=True)
              )
            )
            (adapter_fusion_layer): ModuleDict()
          )
        )
      )
    )
    (pooler): BertPooler(
      (dense): Linear(in_features=768, out_features=768, bias=True)
      (activation): Tanh()
    )
    (prefix_tuning): PrefixTuningPool(
      (prefix_tunings): ModuleDict()
    )
  )
  (heads): ModuleDict(
    (tr): BertStyleMaskedLMHead(
      (0): Linear(in_features=768, out_features=768, bias=True)
      (1): Activation_Function_Class(
        (f): GELUActivation()
      )
      (2): LayerNorm((768,), eps=1e-12, elementwise_affine=True)
      (3): Linear(in_features=768, out_features=119547, bias=True)
    )
    (disrpt): ClassificationHead(
      (0): Dropout(p=0.1, inplace=False)
      (1): Linear(in_features=768, out_features=768, bias=True)
      (2): Activation_Function_Class(
        (f): Tanh()
      )
      (3): Dropout(p=0.1, inplace=False)
      (4): Linear(in_features=768, out_features=46, bias=True)
    )
  )
)
{'train@eng.rst.gum_loss': 2.693632125854492, 'train@eng.rst.gum_accuracy@eng.rst.gum': 0.2255882564582284, 'train@eng.rst.gum_f1@eng.rst.gum': 0.022687877915346964, 'train@eng.rst.gum_precision@eng.rst.gum': 0.01712331846755093, 'train@eng.rst.gum_recall@eng.rst.gum': 0.04652931748503349, 'train@eng.rst.gum_loss@eng.rst.gum': 2.693631887435913, 'train@eng.rst.gum_runtime': 168.3188, 'train@eng.rst.gum_samples_per_second': 82.564, 'train@eng.rst.gum_steps_per_second': 2.584, 'epoch': 1.0}
…
Lang1:  eng.rst.rstdt    Lang2:  tur.pdtb.tdb
Saving run to:  runs/SingleEpochPass=v4_eng.rst.rstdt_tur.pdtb.tdb_lrfunc=Adafactor_lr=2e-05_plm=bert-base-multilingual-cased
Running with params: BERT_MODEL=bert-base-multilingual-cased lr=2e-05
read 16002 examples
read 1621 examples
read 2155 examples
read 2451 examples
read 312 examples
read 422 examples
Total prediction labels:  40
BertAdapterModel(
  (shared_parameters): ModuleDict()
  (bert): BertModel(
    (shared_parameters): ModuleDict()
    (invertible_adapters): ModuleDict(
      (en): NICECouplingBlock(
        (F): Sequential(
          (0): Linear(in_features=384, out_features=192, bias=True)
          (1): Activation_Function_Class(
            (f): ReLU()
          )
          (2): Linear(in_features=192, out_features=384, bias=True)
        )
        (G): Sequential(
          (0): Linear(in_features=384, out_features=192, bias=True)
          (1): Activation_Function_Class(
            (f): ReLU()
          )
          (2): Linear(in_features=192, out_features=384, bias=True)
        )
      )
      (tr): NICECouplingBlock(
        (F): Sequential(
          (0): Linear(in_features=384, out_features=192, bias=True)
          (1): Activation_Function_Class(
            (f): NewGELUActivation()
          )
          (2): Linear(in_features=192, out_features=384, bias=True)
        )
        (G): Sequential(
          (0): Linear(in_features=384, out_features=192, bias=True)
          (1): Activation_Function_Class(
            (f): NewGELUActivation()
          )
          (2): Linear(in_features=192, out_features=384, bias=True)
        )
      )
    )
    (embeddings): BertEmbeddings(
      (word_embeddings): Embedding(119547, 768, padding_idx=0)
      (position_embeddings): Embedding(512, 768)
      (token_type_embeddings): Embedding(2, 768)
      (LayerNorm): LayerNorm((768,), eps=1e-12, elementwise_affine=True)
      (dropout): Dropout(p=0.1, inplace=False)
    )
    (encoder): BertEncoder(
      (layer): ModuleList(
        (0): BertLayer(
          (attention): BertAttention(
            (self): BertSelfAttention(
              (query): Linear(
                in_features=768, out_features=768, bias=True
                (loras): ModuleDict()
              )
              (key): Linear(
                in_features=768, out_features=768, bias=True
                (loras): ModuleDict()
              )
              (value): Linear(
                in_features=768, out_features=768, bias=True
                (loras): ModuleDict()
              )
              (dropout): Dropout(p=0.1, inplace=False)
              (prefix_tuning): PrefixTuningShim(
                (prefix_gates): ModuleDict()
                (pool): PrefixTuningPool(
                  (prefix_tunings): ModuleDict()
                )
              )
            )
            (output): BertSelfOutput(
              (dense): Linear(in_features=768, out_features=768, bias=True)
              (LayerNorm): LayerNorm((768,), eps=1e-12, elementwise_affine=True)
              (dropout): Dropout(p=0.1, inplace=False)
              (adapters): ModuleDict()
              (adapter_fusion_layer): ModuleDict()
            )
          )
          (intermediate): BertIntermediate(
            (dense): Linear(
              in_features=768, out_features=3072, bias=True
              (loras): ModuleDict()
            )
            (intermediate_act_fn): GELUActivation()
          )
          (output): BertOutput(
            (dense): Linear(
              in_features=3072, out_features=768, bias=True
              (loras): ModuleDict()
            )
            (LayerNorm): LayerNorm((768,), eps=1e-12, elementwise_affine=True)
            (dropout): Dropout(p=0.1, inplace=False)
            (adapters): ModuleDict(
              (en): Adapter(
                (non_linearity): Activation_Function_Class(
                  (f): ReLU()
                )
                (adapter_down): Sequential(
                  (0): Linear(in_features=768, out_features=384, bias=True)
                  (1): Activation_Function_Class(
                    (f): ReLU()
                  )
                )
                (adapter_up): Linear(in_features=384, out_features=768, bias=True)
              )
              (tr): Adapter(
                (non_linearity): Activation_Function_Class(
                  (f): NewGELUActivation()
                )
                (adapter_down): Sequential(
                  (0): Linear(in_features=768, out_features=384, bias=True)
                  (1): Activation_Function_Class(
                    (f): NewGELUActivation()
                  )
                )
                (adapter_up): Linear(in_features=384, out_features=768, bias=True)
              )
              (disrpt): Adapter(
                (non_linearity): Activation_Function_Class(
                  (f): ReLU()
                )
                (adapter_down): Sequential(
                  (0): Linear(in_features=768, out_features=48, bias=True)
                  (1): Activation_Function_Class(
                    (f): ReLU()
                  )
                )
                (adapter_up): Linear(in_features=48, out_features=768, bias=True)
              )
            )
            (adapter_fusion_layer): ModuleDict()
          )
        )
        (1): BertLayer(
          (attention): BertAttention(
            (self): BertSelfAttention(
              (query): Linear(
                in_features=768, out_features=768, bias=True
                (loras): ModuleDict()
              )
              (key): Linear(
                in_features=768, out_features=768, bias=True
                (loras): ModuleDict()
              )
              (value): Linear(
                in_features=768, out_features=768, bias=True
                (loras): ModuleDict()
              )
              (dropout): Dropout(p=0.1, inplace=False)
              (prefix_tuning): PrefixTuningShim(
                (prefix_gates): ModuleDict()
                (pool): PrefixTuningPool(
                  (prefix_tunings): ModuleDict()
                )
              )
            )
            (output): BertSelfOutput(
              (dense): Linear(in_features=768, out_features=768, bias=True)
              (LayerNorm): LayerNorm((768,), eps=1e-12, elementwise_affine=True)
              (dropout): Dropout(p=0.1, inplace=False)
              (adapters): ModuleDict()
              (adapter_fusion_layer): ModuleDict()
            )
          )
          (intermediate): BertIntermediate(
            (dense): Linear(
              in_features=768, out_features=3072, bias=True
              (loras): ModuleDict()
            )
            (intermediate_act_fn): GELUActivation()
          )
          (output): BertOutput(
            (dense): Linear(
              in_features=3072, out_features=768, bias=True
              (loras): ModuleDict()
            )
            (LayerNorm): LayerNorm((768,), eps=1e-12, elementwise_affine=True)
            (dropout): Dropout(p=0.1, inplace=False)
            (adapters): ModuleDict(
              (en): Adapter(
                (non_linearity): Activation_Function_Class(
                  (f): ReLU()
                )
                (adapter_down): Sequential(
                  (0): Linear(in_features=768, out_features=384, bias=True)
                  (1): Activation_Function_Class(
                    (f): ReLU()
                  )
                )
                (adapter_up): Linear(in_features=384, out_features=768, bias=True)
              )
              (tr): Adapter(
                (non_linearity): Activation_Function_Class(
                  (f): NewGELUActivation()
                )
                (adapter_down): Sequential(
                  (0): Linear(in_features=768, out_features=384, bias=True)
                  (1): Activation_Function_Class(
                    (f): NewGELUActivation()
                  )
                )
                (adapter_up): Linear(in_features=384, out_features=768, bias=True)
              )
              (disrpt): Adapter(
                (non_linearity): Activation_Function_Class(
                  (f): ReLU()
                )
                (adapter_down): Sequential(
                  (0): Linear(in_features=768, out_features=48, bias=True)
                  (1): Activation_Function_Class(
                    (f): ReLU()
                  )
                )
                (adapter_up): Linear(in_features=48, out_features=768, bias=True)
              )
            )
            (adapter_fusion_layer): ModuleDict()
          )
        )
        (2): BertLayer(
          (attention): BertAttention(
            (self): BertSelfAttention(
              (query): Linear(
                in_features=768, out_features=768, bias=True
                (loras): ModuleDict()
              )
              (key): Linear(
                in_features=768, out_features=768, bias=True
                (loras): ModuleDict()
              )
              (value): Linear(
                in_features=768, out_features=768, bias=True
                (loras): ModuleDict()
              )
              (dropout): Dropout(p=0.1, inplace=False)
              (prefix_tuning): PrefixTuningShim(
                (prefix_gates): ModuleDict()
                (pool): PrefixTuningPool(
                  (prefix_tunings): ModuleDict()
                )
              )
            )
            (output): BertSelfOutput(
              (dense): Linear(in_features=768, out_features=768, bias=True)
              (LayerNorm): LayerNorm((768,), eps=1e-12, elementwise_affine=True)
              (dropout): Dropout(p=0.1, inplace=False)
              (adapters): ModuleDict()
              (adapter_fusion_layer): ModuleDict()
            )
          )
          (intermediate): BertIntermediate(
            (dense): Linear(
              in_features=768, out_features=3072, bias=True
              (loras): ModuleDict()
            )
            (intermediate_act_fn): GELUActivation()
          )
          (output): BertOutput(
            (dense): Linear(
              in_features=3072, out_features=768, bias=True
              (loras): ModuleDict()
            )
            (LayerNorm): LayerNorm((768,), eps=1e-12, elementwise_affine=True)
            (dropout): Dropout(p=0.1, inplace=False)
            (adapters): ModuleDict(
              (en): Adapter(
                (non_linearity): Activation_Function_Class(
                  (f): ReLU()
                )
                (adapter_down): Sequential(
                  (0): Linear(in_features=768, out_features=384, bias=True)
                  (1): Activation_Function_Class(
                    (f): ReLU()
                  )
                )
                (adapter_up): Linear(in_features=384, out_features=768, bias=True)
              )
              (tr): Adapter(
                (non_linearity): Activation_Function_Class(
                  (f): NewGELUActivation()
                )
                (adapter_down): Sequential(
                  (0): Linear(in_features=768, out_features=384, bias=True)
                  (1): Activation_Function_Class(
                    (f): NewGELUActivation()
                  )
                )
                (adapter_up): Linear(in_features=384, out_features=768, bias=True)
              )
              (disrpt): Adapter(
                (non_linearity): Activation_Function_Class(
                  (f): ReLU()
                )
                (adapter_down): Sequential(
                  (0): Linear(in_features=768, out_features=48, bias=True)
                  (1): Activation_Function_Class(
                    (f): ReLU()
                  )
                )
                (adapter_up): Linear(in_features=48, out_features=768, bias=True)
              )
            )
            (adapter_fusion_layer): ModuleDict()
          )
        )
        (3): BertLayer(
          (attention): BertAttention(
            (self): BertSelfAttention(
              (query): Linear(
                in_features=768, out_features=768, bias=True
                (loras): ModuleDict()
              )
              (key): Linear(
                in_features=768, out_features=768, bias=True
                (loras): ModuleDict()
              )
              (value): Linear(
                in_features=768, out_features=768, bias=True
                (loras): ModuleDict()
              )
              (dropout): Dropout(p=0.1, inplace=False)
              (prefix_tuning): PrefixTuningShim(
                (prefix_gates): ModuleDict()
                (pool): PrefixTuningPool(
                  (prefix_tunings): ModuleDict()
                )
              )
            )
            (output): BertSelfOutput(
              (dense): Linear(in_features=768, out_features=768, bias=True)
              (LayerNorm): LayerNorm((768,), eps=1e-12, elementwise_affine=True)
              (dropout): Dropout(p=0.1, inplace=False)
              (adapters): ModuleDict()
              (adapter_fusion_layer): ModuleDict()
            )
          )
          (intermediate): BertIntermediate(
            (dense): Linear(
              in_features=768, out_features=3072, bias=True
              (loras): ModuleDict()
            )
            (intermediate_act_fn): GELUActivation()
          )
          (output): BertOutput(
            (dense): Linear(
              in_features=3072, out_features=768, bias=True
              (loras): ModuleDict()
            )
            (LayerNorm): LayerNorm((768,), eps=1e-12, elementwise_affine=True)
            (dropout): Dropout(p=0.1, inplace=False)
            (adapters): ModuleDict(
              (en): Adapter(
                (non_linearity): Activation_Function_Class(
                  (f): ReLU()
                )
                (adapter_down): Sequential(
                  (0): Linear(in_features=768, out_features=384, bias=True)
                  (1): Activation_Function_Class(
                    (f): ReLU()
                  )
                )
                (adapter_up): Linear(in_features=384, out_features=768, bias=True)
              )
              (tr): Adapter(
                (non_linearity): Activation_Function_Class(
                  (f): NewGELUActivation()
                )
                (adapter_down): Sequential(
                  (0): Linear(in_features=768, out_features=384, bias=True)
                  (1): Activation_Function_Class(
                    (f): NewGELUActivation()
                  )
                )
                (adapter_up): Linear(in_features=384, out_features=768, bias=True)
              )
              (disrpt): Adapter(
                (non_linearity): Activation_Function_Class(
                  (f): ReLU()
                )
                (adapter_down): Sequential(
                  (0): Linear(in_features=768, out_features=48, bias=True)
                  (1): Activation_Function_Class(
                    (f): ReLU()
                  )
                )
                (adapter_up): Linear(in_features=48, out_features=768, bias=True)
              )
            )
            (adapter_fusion_layer): ModuleDict()
          )
        )
        (4): BertLayer(
          (attention): BertAttention(
            (self): BertSelfAttention(
              (query): Linear(
                in_features=768, out_features=768, bias=True
                (loras): ModuleDict()
              )
              (key): Linear(
                in_features=768, out_features=768, bias=True
                (loras): ModuleDict()
              )
              (value): Linear(
                in_features=768, out_features=768, bias=True
                (loras): ModuleDict()
              )
              (dropout): Dropout(p=0.1, inplace=False)
              (prefix_tuning): PrefixTuningShim(
                (prefix_gates): ModuleDict()
                (pool): PrefixTuningPool(
                  (prefix_tunings): ModuleDict()
                )
              )
            )
            (output): BertSelfOutput(
              (dense): Linear(in_features=768, out_features=768, bias=True)
              (LayerNorm): LayerNorm((768,), eps=1e-12, elementwise_affine=True)
              (dropout): Dropout(p=0.1, inplace=False)
              (adapters): ModuleDict()
              (adapter_fusion_layer): ModuleDict()
            )
          )
          (intermediate): BertIntermediate(
            (dense): Linear(
              in_features=768, out_features=3072, bias=True
              (loras): ModuleDict()
            )
            (intermediate_act_fn): GELUActivation()
          )
          (output): BertOutput(
            (dense): Linear(
              in_features=3072, out_features=768, bias=True
              (loras): ModuleDict()
            )
            (LayerNorm): LayerNorm((768,), eps=1e-12, elementwise_affine=True)
            (dropout): Dropout(p=0.1, inplace=False)
            (adapters): ModuleDict(
              (en): Adapter(
                (non_linearity): Activation_Function_Class(
                  (f): ReLU()
                )
                (adapter_down): Sequential(
                  (0): Linear(in_features=768, out_features=384, bias=True)
                  (1): Activation_Function_Class(
                    (f): ReLU()
                  )
                )
                (adapter_up): Linear(in_features=384, out_features=768, bias=True)
              )
              (tr): Adapter(
                (non_linearity): Activation_Function_Class(
                  (f): NewGELUActivation()
                )
                (adapter_down): Sequential(
                  (0): Linear(in_features=768, out_features=384, bias=True)
                  (1): Activation_Function_Class(
                    (f): NewGELUActivation()
                  )
                )
                (adapter_up): Linear(in_features=384, out_features=768, bias=True)
              )
              (disrpt): Adapter(
                (non_linearity): Activation_Function_Class(
                  (f): ReLU()
                )
                (adapter_down): Sequential(
                  (0): Linear(in_features=768, out_features=48, bias=True)
                  (1): Activation_Function_Class(
                    (f): ReLU()
                  )
                )
                (adapter_up): Linear(in_features=48, out_features=768, bias=True)
              )
            )
            (adapter_fusion_layer): ModuleDict()
          )
        )
        (5): BertLayer(
          (attention): BertAttention(
            (self): BertSelfAttention(
              (query): Linear(
                in_features=768, out_features=768, bias=True
                (loras): ModuleDict()
              )
              (key): Linear(
                in_features=768, out_features=768, bias=True
                (loras): ModuleDict()
              )
              (value): Linear(
                in_features=768, out_features=768, bias=True
                (loras): ModuleDict()
              )
              (dropout): Dropout(p=0.1, inplace=False)
              (prefix_tuning): PrefixTuningShim(
                (prefix_gates): ModuleDict()
                (pool): PrefixTuningPool(
                  (prefix_tunings): ModuleDict()
                )
              )
            )
            (output): BertSelfOutput(
              (dense): Linear(in_features=768, out_features=768, bias=True)
              (LayerNorm): LayerNorm((768,), eps=1e-12, elementwise_affine=True)
              (dropout): Dropout(p=0.1, inplace=False)
              (adapters): ModuleDict()
              (adapter_fusion_layer): ModuleDict()
            )
          )
          (intermediate): BertIntermediate(
            (dense): Linear(
              in_features=768, out_features=3072, bias=True
              (loras): ModuleDict()
            )
…
            (dropout): Dropout(p=0.1, inplace=False)
            (adapters): ModuleDict(
              (es): Adapter(
                (non_linearity): Activation_Function_Class(
                  (f): NewGELUActivation()
                )
                (adapter_down): Sequential(
                  (0): Linear(in_features=768, out_features=384, bias=True)
                  (1): Activation_Function_Class(
                    (f): NewGELUActivation()
                  )
                )
                (adapter_up): Linear(in_features=384, out_features=768, bias=True)
              )
              (tr): Adapter(
                (non_linearity): Activation_Function_Class(
                  (f): NewGELUActivation()
                )
                (adapter_down): Sequential(
                  (0): Linear(in_features=768, out_features=384, bias=True)
                  (1): Activation_Function_Class(
                    (f): NewGELUActivation()
                  )
                )
                (adapter_up): Linear(in_features=384, out_features=768, bias=True)
              )
              (disrpt): Adapter(
                (non_linearity): Activation_Function_Class(
                  (f): ReLU()
                )
                (adapter_down): Sequential(
                  (0): Linear(in_features=768, out_features=48, bias=True)
                  (1): Activation_Function_Class(
                    (f): ReLU()
                  )
                )
                (adapter_up): Linear(in_features=48, out_features=768, bias=True)
              )
            )
            (adapter_fusion_layer): ModuleDict()
          )
        )
        (11): BertLayer(
          (attention): BertAttention(
            (self): BertSelfAttention(
              (query): Linear(
                in_features=768, out_features=768, bias=True
                (loras): ModuleDict()
              )
              (key): Linear(
                in_features=768, out_features=768, bias=True
                (loras): ModuleDict()
              )
              (value): Linear(
                in_features=768, out_features=768, bias=True
                (loras): ModuleDict()
              )
              (dropout): Dropout(p=0.1, inplace=False)
              (prefix_tuning): PrefixTuningShim(
                (prefix_gates): ModuleDict()
                (pool): PrefixTuningPool(
                  (prefix_tunings): ModuleDict()
                )
              )
            )
            (output): BertSelfOutput(
              (dense): Linear(in_features=768, out_features=768, bias=True)
              (LayerNorm): LayerNorm((768,), eps=1e-12, elementwise_affine=True)
              (dropout): Dropout(p=0.1, inplace=False)
              (adapters): ModuleDict()
              (adapter_fusion_layer): ModuleDict()
            )
          )
          (intermediate): BertIntermediate(
            (dense): Linear(
              in_features=768, out_features=3072, bias=True
              (loras): ModuleDict()
            )
            (intermediate_act_fn): GELUActivation()
          )
          (output): BertOutput(
            (dense): Linear(
              in_features=3072, out_features=768, bias=True
              (loras): ModuleDict()
            )
            (LayerNorm): LayerNorm((768,), eps=1e-12, elementwise_affine=True)
            (dropout): Dropout(p=0.1, inplace=False)
            (adapters): ModuleDict(
              (es): Adapter(
                (non_linearity): Activation_Function_Class(
                  (f): NewGELUActivation()
                )
                (adapter_down): Sequential(
                  (0): Linear(in_features=768, out_features=384, bias=True)
                  (1): Activation_Function_Class(
                    (f): NewGELUActivation()
                  )
                )
                (adapter_up): Linear(in_features=384, out_features=768, bias=True)
              )
              (tr): Adapter(
                (non_linearity): Activation_Function_Class(
                  (f): NewGELUActivation()
                )
                (adapter_down): Sequential(
                  (0): Linear(in_features=768, out_features=384, bias=True)
                  (1): Activation_Function_Class(
                    (f): NewGELUActivation()
                  )
                )
                (adapter_up): Linear(in_features=384, out_features=768, bias=True)
              )
              (disrpt): Adapter(
                (non_linearity): Activation_Function_Class(
                  (f): ReLU()
                )
                (adapter_down): Sequential(
                  (0): Linear(in_features=768, out_features=48, bias=True)
                  (1): Activation_Function_Class(
                    (f): ReLU()
                  )
                )
                (adapter_up): Linear(in_features=48, out_features=768, bias=True)
              )
            )
            (adapter_fusion_layer): ModuleDict()
          )
        )
      )
    )
    (pooler): BertPooler(
      (dense): Linear(in_features=768, out_features=768, bias=True)
      (activation): Tanh()
    )
    (prefix_tuning): PrefixTuningPool(
      (prefix_tunings): ModuleDict()
    )
  )
  (heads): ModuleDict(
    (tr): BertStyleMaskedLMHead(
      (0): Linear(in_features=768, out_features=768, bias=True)
      (1): Activation_Function_Class(
        (f): GELUActivation()
      )
      (2): LayerNorm((768,), eps=1e-12, elementwise_affine=True)
      (3): Linear(in_features=768, out_features=119547, bias=True)
    )
    (disrpt): ClassificationHead(
      (0): Dropout(p=0.1, inplace=False)
      (1): Linear(in_features=768, out_features=768, bias=True)
      (2): Activation_Function_Class(
        (f): Tanh()
      )
      (3): Dropout(p=0.1, inplace=False)
      (4): Linear(in_features=768, out_features=52, bias=True)
    )
  )
)
{'train@spa.rst.rststb_loss': 3.4214649200439453, 'train@spa.rst.rststb_accuracy@spa.rst.rststb': 0.23169642857142858, 'train@spa.rst.rststb_f1@spa.rst.rststb': 0.029356768138950225, 'train@spa.rst.rststb_precision@spa.rst.rststb': 0.06144246234728307, 'train@spa.rst.rststb_recall@spa.rst.rststb': 0.046066431430697434, 'train@spa.rst.rststb_loss@spa.rst.rststb': 3.4214651584625244, 'train@spa.rst.rststb_runtime': 28.0066, 'train@spa.rst.rststb_samples_per_second': 79.981, 'train@spa.rst.rststb_steps_per_second': 2.499, 'epoch': 1.0}
…
-------------------------------------------------------------------
Lang1:  spa.rst.sctb    Lang2:  tur.pdtb.tdb
Saving run to:  runs/SingleEpochPass=v4_spa.rst.sctb_tur.pdtb.tdb_lrfunc=Adafactor_lr=2e-05_plm=bert-base-multilingual-cased
Running with params: BERT_MODEL=bert-base-multilingual-cased lr=2e-05
read 439 examples
read 94 examples
read 159 examples
read 2451 examples
read 312 examples
read 422 examples
Total prediction labels:  48
BertAdapterModel(
  (shared_parameters): ModuleDict()
  (bert): BertModel(
    (shared_parameters): ModuleDict()
    (invertible_adapters): ModuleDict(
      (es): NICECouplingBlock(
        (F): Sequential(
          (0): Linear(in_features=384, out_features=192, bias=True)
          (1): Activation_Function_Class(
            (f): NewGELUActivation()
          )
          (2): Linear(in_features=192, out_features=384, bias=True)
        )
        (G): Sequential(
          (0): Linear(in_features=384, out_features=192, bias=True)
          (1): Activation_Function_Class(
            (f): NewGELUActivation()
          )
          (2): Linear(in_features=192, out_features=384, bias=True)
        )
      )
      (tr): NICECouplingBlock(
        (F): Sequential(
          (0): Linear(in_features=384, out_features=192, bias=True)
          (1): Activation_Function_Class(
            (f): NewGELUActivation()
          )
          (2): Linear(in_features=192, out_features=384, bias=True)
        )
        (G): Sequential(
          (0): Linear(in_features=384, out_features=192, bias=True)
          (1): Activation_Function_Class(
            (f): NewGELUActivation()
          )
          (2): Linear(in_features=192, out_features=384, bias=True)
        )
      )
    )
    (embeddings): BertEmbeddings(
      (word_embeddings): Embedding(119547, 768, padding_idx=0)
      (position_embeddings): Embedding(512, 768)
      (token_type_embeddings): Embedding(2, 768)
      (LayerNorm): LayerNorm((768,), eps=1e-12, elementwise_affine=True)
      (dropout): Dropout(p=0.1, inplace=False)
    )
    (encoder): BertEncoder(
      (layer): ModuleList(
        (0): BertLayer(
          (attention): BertAttention(
            (self): BertSelfAttention(
              (query): Linear(
                in_features=768, out_features=768, bias=True
                (loras): ModuleDict()
              )
              (key): Linear(
                in_features=768, out_features=768, bias=True
                (loras): ModuleDict()
              )
              (value): Linear(
                in_features=768, out_features=768, bias=True
                (loras): ModuleDict()
              )
              (dropout): Dropout(p=0.1, inplace=False)
              (prefix_tuning): PrefixTuningShim(
                (prefix_gates): ModuleDict()
                (pool): PrefixTuningPool(
                  (prefix_tunings): ModuleDict()
                )
              )
            )
            (output): BertSelfOutput(
              (dense): Linear(in_features=768, out_features=768, bias=True)
              (LayerNorm): LayerNorm((768,), eps=1e-12, elementwise_affine=True)
              (dropout): Dropout(p=0.1, inplace=False)
              (adapters): ModuleDict()
              (adapter_fusion_layer): ModuleDict()
            )
          )
          (intermediate): BertIntermediate(
            (dense): Linear(
              in_features=768, out_features=3072, bias=True
              (loras): ModuleDict()
            )
            (intermediate_act_fn): GELUActivation()
          )
          (output): BertOutput(
            (dense): Linear(
              in_features=3072, out_features=768, bias=True
              (loras): ModuleDict()
            )
            (LayerNorm): LayerNorm((768,), eps=1e-12, elementwise_affine=True)
            (dropout): Dropout(p=0.1, inplace=False)
            (adapters): ModuleDict(
              (es): Adapter(
                (non_linearity): Activation_Function_Class(
                  (f): NewGELUActivation()
                )
                (adapter_down): Sequential(
                  (0): Linear(in_features=768, out_features=384, bias=True)
                  (1): Activation_Function_Class(
                    (f): NewGELUActivation()
                  )
                )
                (adapter_up): Linear(in_features=384, out_features=768, bias=True)
              )
              (tr): Adapter(
                (non_linearity): Activation_Function_Class(
                  (f): NewGELUActivation()
                )
                (adapter_down): Sequential(
                  (0): Linear(in_features=768, out_features=384, bias=True)
                  (1): Activation_Function_Class(
                    (f): NewGELUActivation()
                  )
                )
                (adapter_up): Linear(in_features=384, out_features=768, bias=True)
              )
              (disrpt): Adapter(
                (non_linearity): Activation_Function_Class(
                  (f): ReLU()
                )
                (adapter_down): Sequential(
                  (0): Linear(in_features=768, out_features=48, bias=True)
                  (1): Activation_Function_Class(
                    (f): ReLU()
                  )
                )
                (adapter_up): Linear(in_features=48, out_features=768, bias=True)
              )
            )
            (adapter_fusion_layer): ModuleDict()
          )
        )
        (1): BertLayer(
          (attention): BertAttention(
            (self): BertSelfAttention(
              (query): Linear(
                in_features=768, out_features=768, bias=True
                (loras): ModuleDict()
              )
              (key): Linear(
                in_features=768, out_features=768, bias=True
                (loras): ModuleDict()
              )
              (value): Linear(
                in_features=768, out_features=768, bias=True
                (loras): ModuleDict()
              )
              (dropout): Dropout(p=0.1, inplace=False)
              (prefix_tuning): PrefixTuningShim(
                (prefix_gates): ModuleDict()
                (pool): PrefixTuningPool(
                  (prefix_tunings): ModuleDict()
                )
              )
            )
            (output): BertSelfOutput(
              (dense): Linear(in_features=768, out_features=768, bias=True)
              (LayerNorm): LayerNorm((768,), eps=1e-12, elementwise_affine=True)
              (dropout): Dropout(p=0.1, inplace=False)
              (adapters): ModuleDict()
              (adapter_fusion_layer): ModuleDict()
            )
          )
          (intermediate): BertIntermediate(
            (dense): Linear(
              in_features=768, out_features=3072, bias=True
              (loras): ModuleDict()
            )
            (intermediate_act_fn): GELUActivation()
          )
          (output): BertOutput(
            (dense): Linear(
              in_features=3072, out_features=768, bias=True
              (loras): ModuleDict()
            )
            (LayerNorm): LayerNorm((768,), eps=1e-12, elementwise_affine=True)
            (dropout): Dropout(p=0.1, inplace=False)
            (adapters): ModuleDict(
              (es): Adapter(
                (non_linearity): Activation_Function_Class(
                  (f): NewGELUActivation()
                )
                (adapter_down): Sequential(
                  (0): Linear(in_features=768, out_features=384, bias=True)
                  (1): Activation_Function_Class(
                    (f): NewGELUActivation()
                  )
                )
                (adapter_up): Linear(in_features=384, out_features=768, bias=True)
              )
              (tr): Adapter(
                (non_linearity): Activation_Function_Class(
                  (f): NewGELUActivation()
                )
                (adapter_down): Sequential(
                  (0): Linear(in_features=768, out_features=384, bias=True)
                  (1): Activation_Function_Class(
                    (f): NewGELUActivation()
                  )
                )
                (adapter_up): Linear(in_features=384, out_features=768, bias=True)
              )
              (disrpt): Adapter(
                (non_linearity): Activation_Function_Class(
                  (f): ReLU()
                )
                (adapter_down): Sequential(
                  (0): Linear(in_features=768, out_features=48, bias=True)
                  (1): Activation_Function_Class(
                    (f): ReLU()
                  )
                )
                (adapter_up): Linear(in_features=48, out_features=768, bias=True)
              )
            )
            (adapter_fusion_layer): ModuleDict()
          )
        )
        (2): BertLayer(
          (attention): BertAttention(
            (self): BertSelfAttention(
              (query): Linear(
                in_features=768, out_features=768, bias=True
                (loras): ModuleDict()
              )
              (key): Linear(
                in_features=768, out_features=768, bias=True
                (loras): ModuleDict()
              )
              (value): Linear(
                in_features=768, out_features=768, bias=True
                (loras): ModuleDict()
              )
              (dropout): Dropout(p=0.1, inplace=False)
              (prefix_tuning): PrefixTuningShim(
                (prefix_gates): ModuleDict()
                (pool): PrefixTuningPool(
                  (prefix_tunings): ModuleDict()
                )
              )
            )
            (output): BertSelfOutput(
              (dense): Linear(in_features=768, out_features=768, bias=True)
              (LayerNorm): LayerNorm((768,), eps=1e-12, elementwise_affine=True)
              (dropout): Dropout(p=0.1, inplace=False)
              (adapters): ModuleDict()
              (adapter_fusion_layer): ModuleDict()
            )
          )
          (intermediate): BertIntermediate(
            (dense): Linear(
              in_features=768, out_features=3072, bias=True
              (loras): ModuleDict()
            )
            (intermediate_act_fn): GELUActivation()
          )
          (output): BertOutput(
            (dense): Linear(
              in_features=3072, out_features=768, bias=True
              (loras): ModuleDict()
            )
            (LayerNorm): LayerNorm((768,), eps=1e-12, elementwise_affine=True)
            (dropout): Dropout(p=0.1, inplace=False)
            (adapters): ModuleDict(
              (es): Adapter(
                (non_linearity): Activation_Function_Class(
                  (f): NewGELUActivation()
                )
                (adapter_down): Sequential(
                  (0): Linear(in_features=768, out_features=384, bias=True)
                  (1): Activation_Function_Class(
                    (f): NewGELUActivation()
                  )
                )
                (adapter_up): Linear(in_features=384, out_features=768, bias=True)
              )
              (tr): Adapter(
                (non_linearity): Activation_Function_Class(
                  (f): NewGELUActivation()
                )
                (adapter_down): Sequential(
                  (0): Linear(in_features=768, out_features=384, bias=True)
                  (1): Activation_Function_Class(
                    (f): NewGELUActivation()
                  )
                )
                (adapter_up): Linear(in_features=384, out_features=768, bias=True)
              )
              (disrpt): Adapter(
                (non_linearity): Activation_Function_Class(
                  (f): ReLU()
                )
                (adapter_down): Sequential(
                  (0): Linear(in_features=768, out_features=48, bias=True)
                  (1): Activation_Function_Class(
                    (f): ReLU()
                  )
                )
                (adapter_up): Linear(in_features=48, out_features=768, bias=True)
              )
            )
            (adapter_fusion_layer): ModuleDict()
          )
        )
        (3): BertLayer(
          (attention): BertAttention(
            (self): BertSelfAttention(
              (query): Linear(
                in_features=768, out_features=768, bias=True
                (loras): ModuleDict()
              )
              (key): Linear(
                in_features=768, out_features=768, bias=True
                (loras): ModuleDict()
              )
              (value): Linear(
                in_features=768, out_features=768, bias=True
                (loras): ModuleDict()
              )
              (dropout): Dropout(p=0.1, inplace=False)
              (prefix_tuning): PrefixTuningShim(
                (prefix_gates): ModuleDict()
                (pool): PrefixTuningPool(
                  (prefix_tunings): ModuleDict()
                )
              )
            )
            (output): BertSelfOutput(
              (dense): Linear(in_features=768, out_features=768, bias=True)
              (LayerNorm): LayerNorm((768,), eps=1e-12, elementwise_affine=True)
              (dropout): Dropout(p=0.1, inplace=False)
              (adapters): ModuleDict()
              (adapter_fusion_layer): ModuleDict()
            )
          )
          (intermediate): BertIntermediate(
            (dense): Linear(
              in_features=768, out_features=3072, bias=True
              (loras): ModuleDict()
            )
            (intermediate_act_fn): GELUActivation()
          )
          (output): BertOutput(
            (dense): Linear(
              in_features=3072, out_features=768, bias=True
              (loras): ModuleDict()
            )
            (LayerNorm): LayerNorm((768,), eps=1e-12, elementwise_affine=True)
            (dropout): Dropout(p=0.1, inplace=False)
            (adapters): ModuleDict(
              (es): Adapter(
                (non_linearity): Activation_Function_Class(
                  (f): NewGELUActivation()
                )
                (adapter_down): Sequential(
                  (0): Linear(in_features=768, out_features=384, bias=True)
                  (1): Activation_Function_Class(
                    (f): NewGELUActivation()
                  )
                )
                (adapter_up): Linear(in_features=384, out_features=768, bias=True)
              )
              (tr): Adapter(
                (non_linearity): Activation_Function_Class(
                  (f): NewGELUActivation()
                )
                (adapter_down): Sequential(
                  (0): Linear(in_features=768, out_features=384, bias=True)
                  (1): Activation_Function_Class(
                    (f): NewGELUActivation()
                  )
                )
                (adapter_up): Linear(in_features=384, out_features=768, bias=True)
              )
              (disrpt): Adapter(
                (non_linearity): Activation_Function_Class(
                  (f): ReLU()
                )
                (adapter_down): Sequential(
                  (0): Linear(in_features=768, out_features=48, bias=True)
                  (1): Activation_Function_Class(
                    (f): ReLU()
                  )
                )
                (adapter_up): Linear(in_features=48, out_features=768, bias=True)
              )
            )
            (adapter_fusion_layer): ModuleDict()
          )
        )
        (4): BertLayer(
          (attention): BertAttention(
            (self): BertSelfAttention(
              (query): Linear(
                in_features=768, out_features=768, bias=True
                (loras): ModuleDict()
              )
              (key): Linear(
                in_features=768, out_features=768, bias=True
                (loras): ModuleDict()
              )
              (value): Linear(
                in_features=768, out_features=768, bias=True
                (loras): ModuleDict()
              )
              (dropout): Dropout(p=0.1, inplace=False)
              (prefix_tuning): PrefixTuningShim(
                (prefix_gates): ModuleDict()
                (pool): PrefixTuningPool(
                  (prefix_tunings): ModuleDict()
                )
              )
            )
            (output): BertSelfOutput(
              (dense): Linear(in_features=768, out_features=768, bias=True)
              (LayerNorm): LayerNorm((768,), eps=1e-12, elementwise_affine=True)
              (dropout): Dropout(p=0.1, inplace=False)
              (adapters): ModuleDict()
              (adapter_fusion_layer): ModuleDict()
            )
          )
          (intermediate): BertIntermediate(
            (dense): Linear(
              in_features=768, out_features=3072, bias=True
              (loras): ModuleDict()
            )
            (intermediate_act_fn): GELUActivation()
          )
          (output): BertOutput(
            (dense): Linear(
              in_features=3072, out_features=768, bias=True
              (loras): ModuleDict()
            )
            (LayerNorm): LayerNorm((768,), eps=1e-12, elementwise_affine=True)
            (dropout): Dropout(p=0.1, inplace=False)
            (adapters): ModuleDict(
              (es): Adapter(
                (non_linearity): Activation_Function_Class(
                  (f): NewGELUActivation()
                )
                (adapter_down): Sequential(
                  (0): Linear(in_features=768, out_features=384, bias=True)
                  (1): Activation_Function_Class(
                    (f): NewGELUActivation()
                  )
                )
                (adapter_up): Linear(in_features=384, out_features=768, bias=True)
              )
              (tr): Adapter(
                (non_linearity): Activation_Function_Class(
                  (f): NewGELUActivation()
                )
                (adapter_down): Sequential(
                  (0): Linear(in_features=768, out_features=384, bias=True)
                  (1): Activation_Function_Class(
                    (f): NewGELUActivation()
                  )
                )
                (adapter_up): Linear(in_features=384, out_features=768, bias=True)
              )
              (disrpt): Adapter(
                (non_linearity): Activation_Function_Class(
                  (f): ReLU()
                )
                (adapter_down): Sequential(
                  (0): Linear(in_features=768, out_features=48, bias=True)
                  (1): Activation_Function_Class(
                    (f): ReLU()
                  )
                )
                (adapter_up): Linear(in_features=48, out_features=768, bias=True)
              )
            )
            (adapter_fusion_layer): ModuleDict()
          )
        )
        (5): BertLayer(
          (attention): BertAttention(
            (self): BertSelfAttention(
              (query): Linear(
                in_features=768, out_features=768, bias=True
                (loras): ModuleDict()
              )
              (key): Linear(
                in_features=768, out_features=768, bias=True
                (loras): ModuleDict()
              )
              (value): Linear(
                in_features=768, out_features=768, bias=True
                (loras): ModuleDict()
              )
              (dropout): Dropout(p=0.1, inplace=False)
              (prefix_tuning): PrefixTuningShim(
                (prefix_gates): ModuleDict()
                (pool): PrefixTuningPool(
                  (prefix_tunings): ModuleDict()
                )
              )
            )
            (output): BertSelfOutput(
              (dense): Linear(in_features=768, out_features=768, bias=True)
              (LayerNorm): LayerNorm((768,), eps=1e-12, elementwise_affine=True)
              (dropout): Dropout(p=0.1, inplace=False)
              (adapters): ModuleDict()
              (adapter_fusion_layer): ModuleDict()
            )
          )
          (intermediate): BertIntermediate(
            (dense): Linear(
              in_features=768, out_features=3072, bias=True
              (loras): ModuleDict()
            )
            (intermediate_act_fn): GELUActivation()
          )
          (output): BertOutput(
            (dense): Linear(
              in_features=3072, out_features=768, bias=True
              (loras): ModuleDict()
            )
            (LayerNorm): LayerNorm((768,), eps=1e-12, elementwise_affine=True)
            (dropout): Dropout(p=0.1, inplace=False)
            (adapters): ModuleDict(
              (es): Adapter(
                (non_linearity): Activation_Function_Class(
                  (f): NewGELUActivation()
                )
                (adapter_down): Sequential(
                  (0): Linear(in_features=768, out_features=384, bias=True)
                  (1): Activation_Function_Class(
                    (f): NewGELUActivation()
                  )
                )
                (adapter_up): Linear(in_features=384, out_features=768, bias=True)
              )
              (tr): Adapter(
                (non_linearity): Activation_Function_Class(
                  (f): NewGELUActivation()
                )
                (adapter_down): Sequential(
                  (0): Linear(in_features=768, out_features=384, bias=True)
                  (1): Activation_Function_Class(
                    (f): NewGELUActivation()
                  )
                )
                (adapter_up): Linear(in_features=384, out_features=768, bias=True)
              )
              (disrpt): Adapter(
                (non_linearity): Activation_Function_Class(
                  (f): ReLU()
                )
                (adapter_down): Sequential(
                  (0): Linear(in_features=768, out_features=48, bias=True)
                  (1): Activation_Function_Class(
                    (f): ReLU()
                  )
                )
                (adapter_up): Linear(in_features=48, out_features=768, bias=True)
              )
            )
            (adapter_fusion_layer): ModuleDict()
          )
        )
        (6): BertLayer(
          (attention): BertAttention(
            (self): BertSelfAttention(
              (query): Linear(
                in_features=768, out_features=768, bias=True
                (loras): ModuleDict()
              )
              (key): Linear(
                in_features=768, out_features=768, bias=True
                (loras): ModuleDict()
              )
              (value): Linear(
                in_features=768, out_features=768, bias=True
                (loras): ModuleDict()
              )
              (dropout): Dropout(p=0.1, inplace=False)
              (prefix_tuning): PrefixTuningShim(
                (prefix_gates): ModuleDict()
                (pool): PrefixTuningPool(
                  (prefix_tunings): ModuleDict()
                )
              )
            )
            (output): BertSelfOutput(
              (dense): Linear(in_features=768, out_features=768, bias=True)
              (LayerNorm): LayerNorm((768,), eps=1e-12, elementwise_affine=True)
              (dropout): Dropout(p=0.1, inplace=False)
              (adapters): ModuleDict()
              (adapter_fusion_layer): ModuleDict()
            )
          )
          (intermediate): BertIntermediate(
            (dense): Linear(
              in_features=768, out_features=3072, bias=True
              (loras): ModuleDict()
            )
            (intermediate_act_fn): GELUActivation()
          )
          (output): BertOutput(
            (dense): Linear(
              in_features=3072, out_features=768, bias=True
              (loras): ModuleDict()
            )
            (LayerNorm): LayerNorm((768,), eps=1e-12, elementwise_affine=True)
            (dropout): Dropout(p=0.1, inplace=False)
            (adapters): ModuleDict(
              (es): Adapter(
                (non_linearity): Activation_Function_Class(
                  (f): NewGELUActivation()
                )
                (adapter_down): Sequential(
                  (0): Linear(in_features=768, out_features=384, bias=True)
                  (1): Activation_Function_Class(
                    (f): NewGELUActivation()
                  )
                )
                (adapter_up): Linear(in_features=384, out_features=768, bias=True)
              )
              (tr): Adapter(
                (non_linearity): Activation_Function_Class(
                  (f): NewGELUActivation()
                )
                (adapter_down): Sequential(
                  (0): Linear(in_features=768, out_features=384, bias=True)
                  (1): Activation_Function_Class(
                    (f): NewGELUActivation()
                  )
                )
                (adapter_up): Linear(in_features=384, out_features=768, bias=True)
              )
              (disrpt): Adapter(
                (non_linearity): Activation_Function_Class(
                  (f): ReLU()
                )
                (adapter_down): Sequential(
                  (0): Linear(in_features=768, out_features=48, bias=True)
                  (1): Activation_Function_Class(
                    (f): ReLU()
                  )
                )
                (adapter_up): Linear(in_features=48, out_features=768, bias=True)
              )
            )
            (adapter_fusion_layer): ModuleDict()
          )
        )
        (7): BertLayer(
          (attention): BertAttention(
            (self): BertSelfAttention(
              (query): Linear(
                in_features=768, out_features=768, bias=True
                (loras): ModuleDict()
              )
              (key): Linear(
                in_features=768, out_features=768, bias=True
                (loras): ModuleDict()
              )
              (value): Linear(
                in_features=768, out_features=768, bias=True
                (loras): ModuleDict()
              )
              (dropout): Dropout(p=0.1, inplace=False)
              (prefix_tuning): PrefixTuningShim(
                (prefix_gates): ModuleDict()
                (pool): PrefixTuningPool(
                  (prefix_tunings): ModuleDict()
                )
              )
            )
            (output): BertSelfOutput(
              (dense): Linear(in_features=768, out_features=768, bias=True)
              (LayerNorm): LayerNorm((768,), eps=1e-12, elementwise_affine=True)
              (dropout): Dropout(p=0.1, inplace=False)
              (adapters): ModuleDict()
              (adapter_fusion_layer): ModuleDict()
            )
          )
          (intermediate): BertIntermediate(
            (dense): Linear(
              in_features=768, out_features=3072, bias=True
              (loras): ModuleDict()
            )
            (intermediate_act_fn): GELUActivation()
          )
          (output): BertOutput(
            (dense): Linear(
              in_features=3072, out_features=768, bias=True
              (loras): ModuleDict()
            )
            (LayerNorm): LayerNorm((768,), eps=1e-12, elementwise_affine=True)
            (dropout): Dropout(p=0.1, inplace=False)
            (adapters): ModuleDict(
              (es): Adapter(
                (non_linearity): Activation_Function_Class(
                  (f): NewGELUActivation()
                )
                (adapter_down): Sequential(
                  (0): Linear(in_features=768, out_features=384, bias=True)
                  (1): Activation_Function_Class(
                    (f): NewGELUActivation()
                  )
                )
                (adapter_up): Linear(in_features=384, out_features=768, bias=True)
              )
              (tr): Adapter(
                (non_linearity): Activation_Function_Class(
                  (f): NewGELUActivation()
                )
                (adapter_down): Sequential(
                  (0): Linear(in_features=768, out_features=384, bias=True)
                  (1): Activation_Function_Class(
                    (f): NewGELUActivation()
                  )
                )
                (adapter_up): Linear(in_features=384, out_features=768, bias=True)
              )
              (disrpt): Adapter(
                (non_linearity): Activation_Function_Class(
                  (f): ReLU()
                )
                (adapter_down): Sequential(
                  (0): Linear(in_features=768, out_features=48, bias=True)
                  (1): Activation_Function_Class(
                    (f): ReLU()
                  )
                )
                (adapter_up): Linear(in_features=48, out_features=768, bias=True)
              )
            )
            (adapter_fusion_layer): ModuleDict()
          )
        )
        (8): BertLayer(
          (attention): BertAttention(
            (self): BertSelfAttention(
              (query): Linear(
                in_features=768, out_features=768, bias=True
                (loras): ModuleDict()
              )
              (key): Linear(
                in_features=768, out_features=768, bias=True
                (loras): ModuleDict()
              )
              (value): Linear(
                in_features=768, out_features=768, bias=True
                (loras): ModuleDict()
              )
              (dropout): Dropout(p=0.1, inplace=False)
              (prefix_tuning): PrefixTuningShim(
                (prefix_gates): ModuleDict()
                (pool): PrefixTuningPool(
                  (prefix_tunings): ModuleDict()
                )
              )
            )
            (output): BertSelfOutput(
              (dense): Linear(in_features=768, out_features=768, bias=True)
              (LayerNorm): LayerNorm((768,), eps=1e-12, elementwise_affine=True)
              (dropout): Dropout(p=0.1, inplace=False)
              (adapters): ModuleDict()
              (adapter_fusion_layer): ModuleDict()
            )
          )
          (intermediate): BertIntermediate(
            (dense): Linear(
              in_features=768, out_features=3072, bias=True
              (loras): ModuleDict()
            )
            (intermediate_act_fn): GELUActivation()
          )
          (output): BertOutput(
            (dense): Linear(
              in_features=3072, out_features=768, bias=True
              (loras): ModuleDict()
            )
            (LayerNorm): LayerNorm((768,), eps=1e-12, elementwise_affine=True)
            (dropout): Dropout(p=0.1, inplace=False)
            (adapters): ModuleDict(
              (es): Adapter(
                (non_linearity): Activation_Function_Class(
                  (f): NewGELUActivation()
                )
                (adapter_down): Sequential(
                  (0): Linear(in_features=768, out_features=384, bias=True)
                  (1): Activation_Function_Class(
                    (f): NewGELUActivation()
                  )
                )
                (adapter_up): Linear(in_features=384, out_features=768, bias=True)
              )
              (tr): Adapter(
                (non_linearity): Activation_Function_Class(
                  (f): NewGELUActivation()
                )
                (adapter_down): Sequential(
                  (0): Linear(in_features=768, out_features=384, bias=True)
                  (1): Activation_Function_Class(
                    (f): NewGELUActivation()
                  )
                )
                (adapter_up): Linear(in_features=384, out_features=768, bias=True)
              )
              (disrpt): Adapter(
                (non_linearity): Activation_Function_Class(
                  (f): ReLU()
                )
                (adapter_down): Sequential(
                  (0): Linear(in_features=768, out_features=48, bias=True)
                  (1): Activation_Function_Class(
                    (f): ReLU()
                  )
                )
                (adapter_up): Linear(in_features=48, out_features=768, bias=True)
              )
            )
            (adapter_fusion_layer): ModuleDict()
          )
        )
        (9): BertLayer(
          (attention): BertAttention(
            (self): BertSelfAttention(
              (query): Linear(
                in_features=768, out_features=768, bias=True
                (loras): ModuleDict()
              )
              (key): Linear(
                in_features=768, out_features=768, bias=True
                (loras): ModuleDict()
              )
              (value): Linear(
                in_features=768, out_features=768, bias=True
                (loras): ModuleDict()
              )
              (dropout): Dropout(p=0.1, inplace=False)
              (prefix_tuning): PrefixTuningShim(
                (prefix_gates): ModuleDict()
                (pool): PrefixTuningPool(
                  (prefix_tunings): ModuleDict()
                )
              )
            )
            (output): BertSelfOutput(
              (dense): Linear(in_features=768, out_features=768, bias=True)
              (LayerNorm): LayerNorm((768,), eps=1e-12, elementwise_affine=True)
              (dropout): Dropout(p=0.1, inplace=False)
              (adapters): ModuleDict()
              (adapter_fusion_layer): ModuleDict()
            )
          )
          (intermediate): BertIntermediate(
            (dense): Linear(
              in_features=768, out_features=3072, bias=True
              (loras): ModuleDict()
            )
            (intermediate_act_fn): GELUActivation()
          )
          (output): BertOutput(
            (dense): Linear(
              in_features=3072, out_features=768, bias=True
              (loras): ModuleDict()
            )
            (LayerNorm): LayerNorm((768,), eps=1e-12, elementwise_affine=True)
            (dropout): Dropout(p=0.1, inplace=False)
            (adapters): ModuleDict(
              (es): Adapter(
                (non_linearity): Activation_Function_Class(
                  (f): NewGELUActivation()
                )
                (adapter_down): Sequential(
                  (0): Linear(in_features=768, out_features=384, bias=True)
                  (1): Activation_Function_Class(
                    (f): NewGELUActivation()
                  )
                )
                (adapter_up): Linear(in_features=384, out_features=768, bias=True)
              )
              (tr): Adapter(
                (non_linearity): Activation_Function_Class(
                  (f): NewGELUActivation()
                )
                (adapter_down): Sequential(
                  (0): Linear(in_features=768, out_features=384, bias=True)
                  (1): Activation_Function_Class(
                    (f): NewGELUActivation()
                  )
                )
                (adapter_up): Linear(in_features=384, out_features=768, bias=True)
              )
              (disrpt): Adapter(
                (non_linearity): Activation_Function_Class(
                  (f): ReLU()
                )
                (adapter_down): Sequential(
                  (0): Linear(in_features=768, out_features=48, bias=True)
                  (1): Activation_Function_Class(
                    (f): ReLU()
                  )
                )
                (adapter_up): Linear(in_features=48, out_features=768, bias=True)
              )
            )
            (adapter_fusion_layer): ModuleDict()
          )
        )
        (10): BertLayer(
          (attention): BertAttention(
            (self): BertSelfAttention(
              (query): Linear(
                in_features=768, out_features=768, bias=True
                (loras): ModuleDict()
              )
              (key): Linear(
                in_features=768, out_features=768, bias=True
                (loras): ModuleDict()
              )
              (value): Linear(
                in_features=768, out_features=768, bias=True
                (loras): ModuleDict()
              )
              (dropout): Dropout(p=0.1, inplace=False)
              (prefix_tuning): PrefixTuningShim(
                (prefix_gates): ModuleDict()
                (pool): PrefixTuningPool(
                  (prefix_tunings): ModuleDict()
                )
              )
            )
            (output): BertSelfOutput(
              (dense): Linear(in_features=768, out_features=768, bias=True)
              (LayerNorm): LayerNorm((768,), eps=1e-12, elementwise_affine=True)
              (dropout): Dropout(p=0.1, inplace=False)
              (adapters): ModuleDict()
              (adapter_fusion_layer): ModuleDict()
            )
          )
          (intermediate): BertIntermediate(
            (dense): Linear(
              in_features=768, out_features=3072, bias=True
              (loras): ModuleDict()
            )
            (intermediate_act_fn): GELUActivation()
          )
          (output): BertOutput(
            (dense): Linear(
              in_features=3072, out_features=768, bias=True
              (loras): ModuleDict()
            )
            (LayerNorm): LayerNorm((768,), eps=1e-12, elementwise_affine=True)
            (dropout): Dropout(p=0.1, inplace=False)
            (adapters): ModuleDict(
              (es): Adapter(
                (non_linearity): Activation_Function_Class(
                  (f): NewGELUActivation()
                )
                (adapter_down): Sequential(
                  (0): Linear(in_features=768, out_features=384, bias=True)
                  (1): Activation_Function_Class(
                    (f): NewGELUActivation()
                  )
                )
                (adapter_up): Linear(in_features=384, out_features=768, bias=True)
              )
              (tr): Adapter(
                (non_linearity): Activation_Function_Class(
                  (f): NewGELUActivation()
                )
                (adapter_down): Sequential(
                  (0): Linear(in_features=768, out_features=384, bias=True)
                  (1): Activation_Function_Class(
                    (f): NewGELUActivation()
                  )
                )
                (adapter_up): Linear(in_features=384, out_features=768, bias=True)
              )
              (disrpt): Adapter(
                (non_linearity): Activation_Function_Class(
                  (f): ReLU()
                )
                (adapter_down): Sequential(
                  (0): Linear(in_features=768, out_features=48, bias=True)
                  (1): Activation_Function_Class(
                    (f): ReLU()
                  )
                )
                (adapter_up): Linear(in_features=48, out_features=768, bias=True)
              )
            )
            (adapter_fusion_layer): ModuleDict()
          )
        )
        (11): BertLayer(
          (attention): BertAttention(
            (self): BertSelfAttention(
              (query): Linear(
                in_features=768, out_features=768, bias=True
                (loras): ModuleDict()
              )
              (key): Linear(
                in_features=768, out_features=768, bias=True
                (loras): ModuleDict()
              )
              (value): Linear(
                in_features=768, out_features=768, bias=True
                (loras): ModuleDict()
              )
              (dropout): Dropout(p=0.1, inplace=False)
              (prefix_tuning): PrefixTuningShim(
                (prefix_gates): ModuleDict()
                (pool): PrefixTuningPool(
                  (prefix_tunings): ModuleDict()
                )
              )
            )
            (output): BertSelfOutput(
              (dense): Linear(in_features=768, out_features=768, bias=True)
              (LayerNorm): LayerNorm((768,), eps=1e-12, elementwise_affine=True)
              (dropout): Dropout(p=0.1, inplace=False)
              (adapters): ModuleDict()
              (adapter_fusion_layer): ModuleDict()
            )
          )
          (intermediate): BertIntermediate(
            (dense): Linear(
              in_features=768, out_features=3072, bias=True
              (loras): ModuleDict()
            )
            (intermediate_act_fn): GELUActivation()
          )
          (output): BertOutput(
            (dense): Linear(
              in_features=3072, out_features=768, bias=True
              (loras): ModuleDict()
            )
            (LayerNorm): LayerNorm((768,), eps=1e-12, elementwise_affine=True)
            (dropout): Dropout(p=0.1, inplace=False)
            (adapters): ModuleDict(
              (es): Adapter(
                (non_linearity): Activation_Function_Class(
                  (f): NewGELUActivation()
                )
                (adapter_down): Sequential(
                  (0): Linear(in_features=768, out_features=384, bias=True)
                  (1): Activation_Function_Class(
                    (f): NewGELUActivation()
                  )
                )
                (adapter_up): Linear(in_features=384, out_features=768, bias=True)
              )
              (tr): Adapter(
                (non_linearity): Activation_Function_Class(
                  (f): NewGELUActivation()
                )
                (adapter_down): Sequential(
                  (0): Linear(in_features=768, out_features=384, bias=True)
                  (1): Activation_Function_Class(
                    (f): NewGELUActivation()
                  )
                )
                (adapter_up): Linear(in_features=384, out_features=768, bias=True)
              )
              (disrpt): Adapter(
                (non_linearity): Activation_Function_Class(
                  (f): ReLU()
                )
                (adapter_down): Sequential(
                  (0): Linear(in_features=768, out_features=48, bias=True)
                  (1): Activation_Function_Class(
                    (f): ReLU()
                  )
                )
                (adapter_up): Linear(in_features=48, out_features=768, bias=True)
              )
            )
            (adapter_fusion_layer): ModuleDict()
          )
        )
      )
    )
    (pooler): BertPooler(
      (dense): Linear(in_features=768, out_features=768, bias=True)
      (activation): Tanh()
    )
    (prefix_tuning): PrefixTuningPool(
      (prefix_tunings): ModuleDict()
    )
  )
  (heads): ModuleDict(
    (tr): BertStyleMaskedLMHead(
      (0): Linear(in_features=768, out_features=768, bias=True)
      (1): Activation_Function_Class(
        (f): GELUActivation()
      )
      (2): LayerNorm((768,), eps=1e-12, elementwise_affine=True)
      (3): Linear(in_features=768, out_features=119547, bias=True)
    )
    (disrpt): ClassificationHead(
      (0): Dropout(p=0.1, inplace=False)
      (1): Linear(in_features=768, out_features=768, bias=True)
      (2): Activation_Function_Class(
        (f): Tanh()
      )
      (3): Dropout(p=0.1, inplace=False)
      (4): Linear(in_features=768, out_features=48, bias=True)
    )
  )
)
{'train@spa.rst.sctb_loss': 3.7515156269073486, 'train@spa.rst.sctb_accuracy@spa.rst.sctb': 0.08200455580865604, 'train@spa.rst.sctb_f1@spa.rst.sctb': 0.012903044830466222, 'train@spa.rst.sctb_precision@spa.rst.sctb': 0.0306212710711037, 'train@spa.rst.sctb_recall@spa.rst.sctb': 0.0104900649125415, 'train@spa.rst.sctb_loss@spa.rst.sctb': 3.7515153884887695, 'train@spa.rst.sctb_runtime': 5.854, 'train@spa.rst.sctb_samples_per_second': 74.991, 'train@spa.rst.sctb_steps_per_second': 2.392, 'epoch': 1.0}
…
