…
Lang1:  deu.rst.pcc    Lang2:  spa.rst.rststb
Saving run to:  runs/SingleEpochPass=v4_deu.rst.pcc_spa.rst.rststb_lrfunc=Adafactor_lr=2e-05_plm=bert-base-multilingual-cased
Running with params: BERT_MODEL=bert-base-multilingual-cased lr=2e-05
read 2164 examples
read 241 examples
read 260 examples
read 2240 examples
read 383 examples
read 426 examples
Total prediction labels:  33
BertAdapterModel(
  (shared_parameters): ModuleDict()
  (bert): BertModel(
    (shared_parameters): ModuleDict()
    (invertible_adapters): ModuleDict(
      (de): NICECouplingBlock(
        (F): Sequential(
          (0): Linear(in_features=384, out_features=192, bias=True)
          (1): Activation_Function_Class(
            (f): NewGELUActivation()
          )
          (2): Linear(in_features=192, out_features=384, bias=True)
        )
        (G): Sequential(
          (0): Linear(in_features=384, out_features=192, bias=True)
          (1): Activation_Function_Class(
            (f): NewGELUActivation()
          )
          (2): Linear(in_features=192, out_features=384, bias=True)
        )
      )
      (es): NICECouplingBlock(
        (F): Sequential(
          (0): Linear(in_features=384, out_features=192, bias=True)
          (1): Activation_Function_Class(
            (f): NewGELUActivation()
          )
          (2): Linear(in_features=192, out_features=384, bias=True)
        )
        (G): Sequential(
          (0): Linear(in_features=384, out_features=192, bias=True)
          (1): Activation_Function_Class(
            (f): NewGELUActivation()
          )
          (2): Linear(in_features=192, out_features=384, bias=True)
        )
      )
    )
    (embeddings): BertEmbeddings(
      (word_embeddings): Embedding(119547, 768, padding_idx=0)
      (position_embeddings): Embedding(512, 768)
      (token_type_embeddings): Embedding(2, 768)
      (LayerNorm): LayerNorm((768,), eps=1e-12, elementwise_affine=True)
      (dropout): Dropout(p=0.1, inplace=False)
    )
    (encoder): BertEncoder(
      (layer): ModuleList(
        (0): BertLayer(
          (attention): BertAttention(
            (self): BertSelfAttention(
              (query): Linear(
                in_features=768, out_features=768, bias=True
                (loras): ModuleDict()
              )
              (key): Linear(
                in_features=768, out_features=768, bias=True
                (loras): ModuleDict()
              )
              (value): Linear(
                in_features=768, out_features=768, bias=True
                (loras): ModuleDict()
              )
              (dropout): Dropout(p=0.1, inplace=False)
              (prefix_tuning): PrefixTuningShim(
                (prefix_gates): ModuleDict()
                (pool): PrefixTuningPool(
                  (prefix_tunings): ModuleDict()
                )
              )
            )
            (output): BertSelfOutput(
              (dense): Linear(in_features=768, out_features=768, bias=True)
              (LayerNorm): LayerNorm((768,), eps=1e-12, elementwise_affine=True)
              (dropout): Dropout(p=0.1, inplace=False)
              (adapters): ModuleDict()
              (adapter_fusion_layer): ModuleDict()
            )
          )
          (intermediate): BertIntermediate(
            (dense): Linear(
              in_features=768, out_features=3072, bias=True
              (loras): ModuleDict()
            )
            (intermediate_act_fn): GELUActivation()
          )
          (output): BertOutput(
            (dense): Linear(
              in_features=3072, out_features=768, bias=True
              (loras): ModuleDict()
            )
            (LayerNorm): LayerNorm((768,), eps=1e-12, elementwise_affine=True)
            (dropout): Dropout(p=0.1, inplace=False)
            (adapters): ModuleDict(
              (de): Adapter(
                (non_linearity): Activation_Function_Class(
                  (f): NewGELUActivation()
                )
                (adapter_down): Sequential(
                  (0): Linear(in_features=768, out_features=384, bias=True)
                  (1): Activation_Function_Class(
                    (f): NewGELUActivation()
                  )
                )
                (adapter_up): Linear(in_features=384, out_features=768, bias=True)
              )
              (es): Adapter(
                (non_linearity): Activation_Function_Class(
                  (f): NewGELUActivation()
                )
                (adapter_down): Sequential(
                  (0): Linear(in_features=768, out_features=384, bias=True)
                  (1): Activation_Function_Class(
                    (f): NewGELUActivation()
                  )
                )
                (adapter_up): Linear(in_features=384, out_features=768, bias=True)
              )
              (disrpt): Adapter(
                (non_linearity): Activation_Function_Class(
                  (f): ReLU()
                )
                (adapter_down): Sequential(
                  (0): Linear(in_features=768, out_features=48, bias=True)
                  (1): Activation_Function_Class(
                    (f): ReLU()
                  )
                )
                (adapter_up): Linear(in_features=48, out_features=768, bias=True)
              )
            )
            (adapter_fusion_layer): ModuleDict()
          )
        )
        (1): BertLayer(
          (attention): BertAttention(
            (self): BertSelfAttention(
              (query): Linear(
                in_features=768, out_features=768, bias=True
                (loras): ModuleDict()
              )
              (key): Linear(
                in_features=768, out_features=768, bias=True
                (loras): ModuleDict()
              )
              (value): Linear(
                in_features=768, out_features=768, bias=True
                (loras): ModuleDict()
              )
              (dropout): Dropout(p=0.1, inplace=False)
              (prefix_tuning): PrefixTuningShim(
                (prefix_gates): ModuleDict()
                (pool): PrefixTuningPool(
                  (prefix_tunings): ModuleDict()
                )
              )
            )
            (output): BertSelfOutput(
              (dense): Linear(in_features=768, out_features=768, bias=True)
              (LayerNorm): LayerNorm((768,), eps=1e-12, elementwise_affine=True)
              (dropout): Dropout(p=0.1, inplace=False)
              (adapters): ModuleDict()
              (adapter_fusion_layer): ModuleDict()
            )
          )
          (intermediate): BertIntermediate(
            (dense): Linear(
              in_features=768, out_features=3072, bias=True
              (loras): ModuleDict()
            )
            (intermediate_act_fn): GELUActivation()
          )
          (output): BertOutput(
            (dense): Linear(
              in_features=3072, out_features=768, bias=True
              (loras): ModuleDict()
            )
            (LayerNorm): LayerNorm((768,), eps=1e-12, elementwise_affine=True)
            (dropout): Dropout(p=0.1, inplace=False)
            (adapters): ModuleDict(
              (de): Adapter(
                (non_linearity): Activation_Function_Class(
                  (f): NewGELUActivation()
                )
                (adapter_down): Sequential(
                  (0): Linear(in_features=768, out_features=384, bias=True)
                  (1): Activation_Function_Class(
                    (f): NewGELUActivation()
                  )
                )
                (adapter_up): Linear(in_features=384, out_features=768, bias=True)
              )
              (es): Adapter(
                (non_linearity): Activation_Function_Class(
                  (f): NewGELUActivation()
                )
                (adapter_down): Sequential(
                  (0): Linear(in_features=768, out_features=384, bias=True)
                  (1): Activation_Function_Class(
                    (f): NewGELUActivation()
                  )
                )
                (adapter_up): Linear(in_features=384, out_features=768, bias=True)
              )
              (disrpt): Adapter(
                (non_linearity): Activation_Function_Class(
                  (f): ReLU()
                )
                (adapter_down): Sequential(
                  (0): Linear(in_features=768, out_features=48, bias=True)
                  (1): Activation_Function_Class(
                    (f): ReLU()
                  )
                )
                (adapter_up): Linear(in_features=48, out_features=768, bias=True)
              )
            )
            (adapter_fusion_layer): ModuleDict()
          )
        )
        (2): BertLayer(
          (attention): BertAttention(
            (self): BertSelfAttention(
              (query): Linear(
                in_features=768, out_features=768, bias=True
                (loras): ModuleDict()
              )
              (key): Linear(
                in_features=768, out_features=768, bias=True
                (loras): ModuleDict()
              )
              (value): Linear(
                in_features=768, out_features=768, bias=True
                (loras): ModuleDict()
              )
              (dropout): Dropout(p=0.1, inplace=False)
              (prefix_tuning): PrefixTuningShim(
                (prefix_gates): ModuleDict()
                (pool): PrefixTuningPool(
                  (prefix_tunings): ModuleDict()
                )
              )
            )
            (output): BertSelfOutput(
              (dense): Linear(in_features=768, out_features=768, bias=True)
              (LayerNorm): LayerNorm((768,), eps=1e-12, elementwise_affine=True)
              (dropout): Dropout(p=0.1, inplace=False)
              (adapters): ModuleDict()
              (adapter_fusion_layer): ModuleDict()
            )
          )
          (intermediate): BertIntermediate(
            (dense): Linear(
              in_features=768, out_features=3072, bias=True
              (loras): ModuleDict()
            )
            (intermediate_act_fn): GELUActivation()
          )
          (output): BertOutput(
            (dense): Linear(
              in_features=3072, out_features=768, bias=True
              (loras): ModuleDict()
            )
            (LayerNorm): LayerNorm((768,), eps=1e-12, elementwise_affine=True)
            (dropout): Dropout(p=0.1, inplace=False)
            (adapters): ModuleDict(
              (de): Adapter(
                (non_linearity): Activation_Function_Class(
                  (f): NewGELUActivation()
                )
                (adapter_down): Sequential(
                  (0): Linear(in_features=768, out_features=384, bias=True)
                  (1): Activation_Function_Class(
                    (f): NewGELUActivation()
                  )
                )
                (adapter_up): Linear(in_features=384, out_features=768, bias=True)
              )
              (es): Adapter(
                (non_linearity): Activation_Function_Class(
                  (f): NewGELUActivation()
                )
                (adapter_down): Sequential(
                  (0): Linear(in_features=768, out_features=384, bias=True)
                  (1): Activation_Function_Class(
                    (f): NewGELUActivation()
                  )
                )
                (adapter_up): Linear(in_features=384, out_features=768, bias=True)
              )
              (disrpt): Adapter(
                (non_linearity): Activation_Function_Class(
                  (f): ReLU()
                )
                (adapter_down): Sequential(
                  (0): Linear(in_features=768, out_features=48, bias=True)
                  (1): Activation_Function_Class(
                    (f): ReLU()
                  )
                )
                (adapter_up): Linear(in_features=48, out_features=768, bias=True)
              )
            )
            (adapter_fusion_layer): ModuleDict()
          )
        )
        (3): BertLayer(
          (attention): BertAttention(
            (self): BertSelfAttention(
              (query): Linear(
                in_features=768, out_features=768, bias=True
                (loras): ModuleDict()
              )
              (key): Linear(
                in_features=768, out_features=768, bias=True
                (loras): ModuleDict()
              )
              (value): Linear(
                in_features=768, out_features=768, bias=True
                (loras): ModuleDict()
              )
              (dropout): Dropout(p=0.1, inplace=False)
              (prefix_tuning): PrefixTuningShim(
                (prefix_gates): ModuleDict()
                (pool): PrefixTuningPool(
                  (prefix_tunings): ModuleDict()
                )
              )
            )
            (output): BertSelfOutput(
              (dense): Linear(in_features=768, out_features=768, bias=True)
              (LayerNorm): LayerNorm((768,), eps=1e-12, elementwise_affine=True)
              (dropout): Dropout(p=0.1, inplace=False)
              (adapters): ModuleDict()
              (adapter_fusion_layer): ModuleDict()
            )
          )
          (intermediate): BertIntermediate(
            (dense): Linear(
              in_features=768, out_features=3072, bias=True
              (loras): ModuleDict()
            )
            (intermediate_act_fn): GELUActivation()
          )
          (output): BertOutput(
            (dense): Linear(
              in_features=3072, out_features=768, bias=True
              (loras): ModuleDict()
            )
            (LayerNorm): LayerNorm((768,), eps=1e-12, elementwise_affine=True)
            (dropout): Dropout(p=0.1, inplace=False)
            (adapters): ModuleDict(
              (de): Adapter(
                (non_linearity): Activation_Function_Class(
                  (f): NewGELUActivation()
                )
                (adapter_down): Sequential(
                  (0): Linear(in_features=768, out_features=384, bias=True)
                  (1): Activation_Function_Class(
                    (f): NewGELUActivation()
                  )
                )
                (adapter_up): Linear(in_features=384, out_features=768, bias=True)
              )
              (es): Adapter(
                (non_linearity): Activation_Function_Class(
                  (f): NewGELUActivation()
                )
                (adapter_down): Sequential(
                  (0): Linear(in_features=768, out_features=384, bias=True)
                  (1): Activation_Function_Class(
                    (f): NewGELUActivation()
                  )
                )
                (adapter_up): Linear(in_features=384, out_features=768, bias=True)
              )
              (disrpt): Adapter(
                (non_linearity): Activation_Function_Class(
                  (f): ReLU()
                )
                (adapter_down): Sequential(
                  (0): Linear(in_features=768, out_features=48, bias=True)
                  (1): Activation_Function_Class(
                    (f): ReLU()
                  )
                )
                (adapter_up): Linear(in_features=48, out_features=768, bias=True)
              )
            )
            (adapter_fusion_layer): ModuleDict()
          )
        )
        (4): BertLayer(
          (attention): BertAttention(
            (self): BertSelfAttention(
              (query): Linear(
                in_features=768, out_features=768, bias=True
                (loras): ModuleDict()
              )
              (key): Linear(
                in_features=768, out_features=768, bias=True
                (loras): ModuleDict()
              )
              (value): Linear(
                in_features=768, out_features=768, bias=True
                (loras): ModuleDict()
              )
              (dropout): Dropout(p=0.1, inplace=False)
              (prefix_tuning): PrefixTuningShim(
                (prefix_gates): ModuleDict()
                (pool): PrefixTuningPool(
                  (prefix_tunings): ModuleDict()
                )
              )
            )
            (output): BertSelfOutput(
              (dense): Linear(in_features=768, out_features=768, bias=True)
              (LayerNorm): LayerNorm((768,), eps=1e-12, elementwise_affine=True)
              (dropout): Dropout(p=0.1, inplace=False)
              (adapters): ModuleDict()
              (adapter_fusion_layer): ModuleDict()
            )
          )
          (intermediate): BertIntermediate(
            (dense): Linear(
              in_features=768, out_features=3072, bias=True
              (loras): ModuleDict()
            )
            (intermediate_act_fn): GELUActivation()
          )
          (output): BertOutput(
            (dense): Linear(
              in_features=3072, out_features=768, bias=True
              (loras): ModuleDict()
            )
            (LayerNorm): LayerNorm((768,), eps=1e-12, elementwise_affine=True)
            (dropout): Dropout(p=0.1, inplace=False)
            (adapters): ModuleDict(
              (de): Adapter(
                (non_linearity): Activation_Function_Class(
                  (f): NewGELUActivation()
                )
                (adapter_down): Sequential(
                  (0): Linear(in_features=768, out_features=384, bias=True)
                  (1): Activation_Function_Class(
                    (f): NewGELUActivation()
                  )
                )
                (adapter_up): Linear(in_features=384, out_features=768, bias=True)
              )
              (es): Adapter(
                (non_linearity): Activation_Function_Class(
                  (f): NewGELUActivation()
                )
                (adapter_down): Sequential(
                  (0): Linear(in_features=768, out_features=384, bias=True)
                  (1): Activation_Function_Class(
                    (f): NewGELUActivation()
                  )
                )
                (adapter_up): Linear(in_features=384, out_features=768, bias=True)
              )
              (disrpt): Adapter(
                (non_linearity): Activation_Function_Class(
                  (f): ReLU()
                )
                (adapter_down): Sequential(
                  (0): Linear(in_features=768, out_features=48, bias=True)
                  (1): Activation_Function_Class(
                    (f): ReLU()
                  )
                )
                (adapter_up): Linear(in_features=48, out_features=768, bias=True)
              )
            )
            (adapter_fusion_layer): ModuleDict()
          )
        )
        (5): BertLayer(
          (attention): BertAttention(
            (self): BertSelfAttention(
              (query): Linear(
                in_features=768, out_features=768, bias=True
                (loras): ModuleDict()
              )
              (key): Linear(
                in_features=768, out_features=768, bias=True
                (loras): ModuleDict()
              )
              (value): Linear(
                in_features=768, out_features=768, bias=True
                (loras): ModuleDict()
              )
              (dropout): Dropout(p=0.1, inplace=False)
              (prefix_tuning): PrefixTuningShim(
                (prefix_gates): ModuleDict()
                (pool): PrefixTuningPool(
                  (prefix_tunings): ModuleDict()
                )
              )
            )
            (output): BertSelfOutput(
              (dense): Linear(in_features=768, out_features=768, bias=True)
              (LayerNorm): LayerNorm((768,), eps=1e-12, elementwise_affine=True)
              (dropout): Dropout(p=0.1, inplace=False)
              (adapters): ModuleDict()
              (adapter_fusion_layer): ModuleDict()
            )
          )
          (intermediate): BertIntermediate(
            (dense): Linear(
              in_features=768, out_features=3072, bias=True
              (loras): ModuleDict()
            )
            (intermediate_act_fn): GELUActivation()
          )
          (output): BertOutput(
            (dense): Linear(
              in_features=3072, out_features=768, bias=True
              (loras): ModuleDict()
            )
            (LayerNorm): LayerNorm((768,), eps=1e-12, elementwise_affine=True)
            (dropout): Dropout(p=0.1, inplace=False)
            (adapters): ModuleDict(
              (de): Adapter(
                (non_linearity): Activation_Function_Class(
                  (f): NewGELUActivation()
                )
                (adapter_down): Sequential(
                  (0): Linear(in_features=768, out_features=384, bias=True)
                  (1): Activation_Function_Class(
                    (f): NewGELUActivation()
                  )
                )
                (adapter_up): Linear(in_features=384, out_features=768, bias=True)
              )
              (es): Adapter(
                (non_linearity): Activation_Function_Class(
                  (f): NewGELUActivation()
                )
                (adapter_down): Sequential(
                  (0): Linear(in_features=768, out_features=384, bias=True)
                  (1): Activation_Function_Class(
                    (f): NewGELUActivation()
                  )
                )
                (adapter_up): Linear(in_features=384, out_features=768, bias=True)
              )
              (disrpt): Adapter(
                (non_linearity): Activation_Function_Class(
                  (f): ReLU()
                )
                (adapter_down): Sequential(
                  (0): Linear(in_features=768, out_features=48, bias=True)
                  (1): Activation_Function_Class(
                    (f): ReLU()
                  )
                )
                (adapter_up): Linear(in_features=48, out_features=768, bias=True)
              )
            )
            (adapter_fusion_layer): ModuleDict()
          )
        )
        (6): BertLayer(
          (attention): BertAttention(
            (self): BertSelfAttention(
              (query): Linear(
                in_features=768, out_features=768, bias=True
                (loras): ModuleDict()
              )
              (key): Linear(
                in_features=768, out_features=768, bias=True
                (loras): ModuleDict()
              )
              (value): Linear(
                in_features=768, out_features=768, bias=True
                (loras): ModuleDict()
              )
              (dropout): Dropout(p=0.1, inplace=False)
              (prefix_tuning): PrefixTuningShim(
                (prefix_gates): ModuleDict()
                (pool): PrefixTuningPool(
                  (prefix_tunings): ModuleDict()
                )
              )
            )
            (output): BertSelfOutput(
              (dense): Linear(in_features=768, out_features=768, bias=True)
              (LayerNorm): LayerNorm((768,), eps=1e-12, elementwise_affine=True)
              (dropout): Dropout(p=0.1, inplace=False)
              (adapters): ModuleDict()
              (adapter_fusion_layer): ModuleDict()
            )
          )
          (intermediate): BertIntermediate(
            (dense): Linear(
              in_features=768, out_features=3072, bias=True
              (loras): ModuleDict()
            )
            (intermediate_act_fn): GELUActivation()
          )
          (output): BertOutput(
            (dense): Linear(
              in_features=3072, out_features=768, bias=True
              (loras): ModuleDict()
            )
            (LayerNorm): LayerNorm((768,), eps=1e-12, elementwise_affine=True)
            (dropout): Dropout(p=0.1, inplace=False)
            (adapters): ModuleDict(
              (de): Adapter(
                (non_linearity): Activation_Function_Class(
                  (f): NewGELUActivation()
                )
                (adapter_down): Sequential(
                  (0): Linear(in_features=768, out_features=384, bias=True)
                  (1): Activation_Function_Class(
                    (f): NewGELUActivation()
                  )
                )
                (adapter_up): Linear(in_features=384, out_features=768, bias=True)
              )
              (es): Adapter(
                (non_linearity): Activation_Function_Class(
                  (f): NewGELUActivation()
                )
                (adapter_down): Sequential(
                  (0): Linear(in_features=768, out_features=384, bias=True)
                  (1): Activation_Function_Class(
                    (f): NewGELUActivation()
                  )
                )
                (adapter_up): Linear(in_features=384, out_features=768, bias=True)
              )
              (disrpt): Adapter(
                (non_linearity): Activation_Function_Class(
                  (f): ReLU()
                )
                (adapter_down): Sequential(
                  (0): Linear(in_features=768, out_features=48, bias=True)
                  (1): Activation_Function_Class(
                    (f): ReLU()
                  )
                )
                (adapter_up): Linear(in_features=48, out_features=768, bias=True)
              )
            )
            (adapter_fusion_layer): ModuleDict()
          )
        )
        (7): BertLayer(
          (attention): BertAttention(
            (self): BertSelfAttention(
              (query): Linear(
                in_features=768, out_features=768, bias=True
                (loras): ModuleDict()
              )
              (key): Linear(
                in_features=768, out_features=768, bias=True
                (loras): ModuleDict()
              )
              (value): Linear(
                in_features=768, out_features=768, bias=True
                (loras): ModuleDict()
              )
              (dropout): Dropout(p=0.1, inplace=False)
              (prefix_tuning): PrefixTuningShim(
                (prefix_gates): ModuleDict()
                (pool): PrefixTuningPool(
                  (prefix_tunings): ModuleDict()
                )
              )
            )
            (output): BertSelfOutput(
              (dense): Linear(in_features=768, out_features=768, bias=True)
              (LayerNorm): LayerNorm((768,), eps=1e-12, elementwise_affine=True)
              (dropout): Dropout(p=0.1, inplace=False)
              (adapters): ModuleDict()
              (adapter_fusion_layer): ModuleDict()
            )
          )
          (intermediate): BertIntermediate(
            (dense): Linear(
              in_features=768, out_features=3072, bias=True
              (loras): ModuleDict()
            )
            (intermediate_act_fn): GELUActivation()
          )
          (output): BertOutput(
            (dense): Linear(
              in_features=3072, out_features=768, bias=True
              (loras): ModuleDict()
            )
            (LayerNorm): LayerNorm((768,), eps=1e-12, elementwise_affine=True)
            (dropout): Dropout(p=0.1, inplace=False)
            (adapters): ModuleDict(
              (de): Adapter(
                (non_linearity): Activation_Function_Class(
                  (f): NewGELUActivation()
                )
                (adapter_down): Sequential(
                  (0): Linear(in_features=768, out_features=384, bias=True)
                  (1): Activation_Function_Class(
                    (f): NewGELUActivation()
                  )
                )
                (adapter_up): Linear(in_features=384, out_features=768, bias=True)
              )
              (es): Adapter(
                (non_linearity): Activation_Function_Class(
                  (f): NewGELUActivation()
                )
                (adapter_down): Sequential(
                  (0): Linear(in_features=768, out_features=384, bias=True)
                  (1): Activation_Function_Class(
                    (f): NewGELUActivation()
                  )
                )
                (adapter_up): Linear(in_features=384, out_features=768, bias=True)
              )
              (disrpt): Adapter(
                (non_linearity): Activation_Function_Class(
                  (f): ReLU()
                )
                (adapter_down): Sequential(
                  (0): Linear(in_features=768, out_features=48, bias=True)
                  (1): Activation_Function_Class(
                    (f): ReLU()
                  )
                )
                (adapter_up): Linear(in_features=48, out_features=768, bias=True)
              )
            )
            (adapter_fusion_layer): ModuleDict()
          )
        )
        (8): BertLayer(
          (attention): BertAttention(
            (self): BertSelfAttention(
              (query): Linear(
                in_features=768, out_features=768, bias=True
                (loras): ModuleDict()
              )
              (key): Linear(
                in_features=768, out_features=768, bias=True
                (loras): ModuleDict()
              )
              (value): Linear(
                in_features=768, out_features=768, bias=True
                (loras): ModuleDict()
              )
              (dropout): Dropout(p=0.1, inplace=False)
              (prefix_tuning): PrefixTuningShim(
                (prefix_gates): ModuleDict()
                (pool): PrefixTuningPool(
                  (prefix_tunings): ModuleDict()
                )
              )
            )
            (output): BertSelfOutput(
              (dense): Linear(in_features=768, out_features=768, bias=True)
              (LayerNorm): LayerNorm((768,), eps=1e-12, elementwise_affine=True)
              (dropout): Dropout(p=0.1, inplace=False)
              (adapters): ModuleDict()
              (adapter_fusion_layer): ModuleDict()
            )
          )
          (intermediate): BertIntermediate(
            (dense): Linear(
              in_features=768, out_features=3072, bias=True
              (loras): ModuleDict()
            )
            (intermediate_act_fn): GELUActivation()
          )
          (output): BertOutput(
            (dense): Linear(
              in_features=3072, out_features=768, bias=True
              (loras): ModuleDict()
            )
            (LayerNorm): LayerNorm((768,), eps=1e-12, elementwise_affine=True)
            (dropout): Dropout(p=0.1, inplace=False)
            (adapters): ModuleDict(
              (de): Adapter(
                (non_linearity): Activation_Function_Class(
                  (f): NewGELUActivation()
                )
                (adapter_down): Sequential(
                  (0): Linear(in_features=768, out_features=384, bias=True)
                  (1): Activation_Function_Class(
                    (f): NewGELUActivation()
                  )
                )
                (adapter_up): Linear(in_features=384, out_features=768, bias=True)
              )
              (es): Adapter(
                (non_linearity): Activation_Function_Class(
                  (f): NewGELUActivation()
                )
                (adapter_down): Sequential(
                  (0): Linear(in_features=768, out_features=384, bias=True)
                  (1): Activation_Function_Class(
                    (f): NewGELUActivation()
                  )
                )
                (adapter_up): Linear(in_features=384, out_features=768, bias=True)
              )
              (disrpt): Adapter(
                (non_linearity): Activation_Function_Class(
                  (f): ReLU()
                )
                (adapter_down): Sequential(
                  (0): Linear(in_features=768, out_features=48, bias=True)
                  (1): Activation_Function_Class(
                    (f): ReLU()
                  )
                )
                (adapter_up): Linear(in_features=48, out_features=768, bias=True)
              )
            )
            (adapter_fusion_layer): ModuleDict()
          )
        )
        (9): BertLayer(
          (attention): BertAttention(
            (self): BertSelfAttention(
              (query): Linear(
                in_features=768, out_features=768, bias=True
                (loras): ModuleDict()
              )
              (key): Linear(
                in_features=768, out_features=768, bias=True
                (loras): ModuleDict()
              )
              (value): Linear(
                in_features=768, out_features=768, bias=True
                (loras): ModuleDict()
              )
              (dropout): Dropout(p=0.1, inplace=False)
              (prefix_tuning): PrefixTuningShim(
                (prefix_gates): ModuleDict()
                (pool): PrefixTuningPool(
                  (prefix_tunings): ModuleDict()
                )
              )
            )
            (output): BertSelfOutput(
              (dense): Linear(in_features=768, out_features=768, bias=True)
              (LayerNorm): LayerNorm((768,), eps=1e-12, elementwise_affine=True)
              (dropout): Dropout(p=0.1, inplace=False)
              (adapters): ModuleDict()
              (adapter_fusion_layer): ModuleDict()
            )
          )
          (intermediate): BertIntermediate(
            (dense): Linear(
              in_features=768, out_features=3072, bias=True
              (loras): ModuleDict()
            )
            (intermediate_act_fn): GELUActivation()
          )
          (output): BertOutput(
            (dense): Linear(
              in_features=3072, out_features=768, bias=True
              (loras): ModuleDict()
            )
            (LayerNorm): LayerNorm((768,), eps=1e-12, elementwise_affine=True)
            (dropout): Dropout(p=0.1, inplace=False)
            (adapters): ModuleDict(
              (de): Adapter(
                (non_linearity): Activation_Function_Class(
                  (f): NewGELUActivation()
                )
                (adapter_down): Sequential(
                  (0): Linear(in_features=768, out_features=384, bias=True)
                  (1): Activation_Function_Class(
                    (f): NewGELUActivation()
                  )
                )
                (adapter_up): Linear(in_features=384, out_features=768, bias=True)
              )
              (es): Adapter(
                (non_linearity): Activation_Function_Class(
                  (f): NewGELUActivation()
                )
                (adapter_down): Sequential(
                  (0): Linear(in_features=768, out_features=384, bias=True)
                  (1): Activation_Function_Class(
                    (f): NewGELUActivation()
                  )
                )
                (adapter_up): Linear(in_features=384, out_features=768, bias=True)
              )
              (disrpt): Adapter(
                (non_linearity): Activation_Function_Class(
                  (f): ReLU()
                )
                (adapter_down): Sequential(
                  (0): Linear(in_features=768, out_features=48, bias=True)
                  (1): Activation_Function_Class(
                    (f): ReLU()
                  )
                )
                (adapter_up): Linear(in_features=48, out_features=768, bias=True)
              )
            )
            (adapter_fusion_layer): ModuleDict()
          )
        )
        (10): BertLayer(
          (attention): BertAttention(
            (self): BertSelfAttention(
              (query): Linear(
                in_features=768, out_features=768, bias=True
                (loras): ModuleDict()
              )
              (key): Linear(
                in_features=768, out_features=768, bias=True
                (loras): ModuleDict()
              )
              (value): Linear(
                in_features=768, out_features=768, bias=True
                (loras): ModuleDict()
              )
              (dropout): Dropout(p=0.1, inplace=False)
              (prefix_tuning): PrefixTuningShim(
                (prefix_gates): ModuleDict()
                (pool): PrefixTuningPool(
                  (prefix_tunings): ModuleDict()
                )
              )
            )
            (output): BertSelfOutput(
              (dense): Linear(in_features=768, out_features=768, bias=True)
              (LayerNorm): LayerNorm((768,), eps=1e-12, elementwise_affine=True)
              (dropout): Dropout(p=0.1, inplace=False)
              (adapters): ModuleDict()
              (adapter_fusion_layer): ModuleDict()
            )
          )
          (intermediate): BertIntermediate(
            (dense): Linear(
              in_features=768, out_features=3072, bias=True
              (loras): ModuleDict()
            )
            (intermediate_act_fn): GELUActivation()
          )
          (output): BertOutput(
            (dense): Linear(
              in_features=3072, out_features=768, bias=True
              (loras): ModuleDict()
            )
            (LayerNorm): LayerNorm((768,), eps=1e-12, elementwise_affine=True)
            (dropout): Dropout(p=0.1, inplace=False)
            (adapters): ModuleDict(
              (de): Adapter(
                (non_linearity): Activation_Function_Class(
                  (f): NewGELUActivation()
                )
                (adapter_down): Sequential(
                  (0): Linear(in_features=768, out_features=384, bias=True)
                  (1): Activation_Function_Class(
                    (f): NewGELUActivation()
                  )
                )
                (adapter_up): Linear(in_features=384, out_features=768, bias=True)
              )
              (es): Adapter(
                (non_linearity): Activation_Function_Class(
                  (f): NewGELUActivation()
                )
                (adapter_down): Sequential(
                  (0): Linear(in_features=768, out_features=384, bias=True)
                  (1): Activation_Function_Class(
                    (f): NewGELUActivation()
                  )
                )
                (adapter_up): Linear(in_features=384, out_features=768, bias=True)
              )
              (disrpt): Adapter(
                (non_linearity): Activation_Function_Class(
                  (f): ReLU()
                )
                (adapter_down): Sequential(
                  (0): Linear(in_features=768, out_features=48, bias=True)
                  (1): Activation_Function_Class(
                    (f): ReLU()
                  )
                )
                (adapter_up): Linear(in_features=48, out_features=768, bias=True)
              )
            )
            (adapter_fusion_layer): ModuleDict()
          )
        )
        (11): BertLayer(
          (attention): BertAttention(
            (self): BertSelfAttention(
              (query): Linear(
                in_features=768, out_features=768, bias=True
                (loras): ModuleDict()
              )
              (key): Linear(
                in_features=768, out_features=768, bias=True
                (loras): ModuleDict()
              )
              (value): Linear(
                in_features=768, out_features=768, bias=True
                (loras): ModuleDict()
              )
              (dropout): Dropout(p=0.1, inplace=False)
              (prefix_tuning): PrefixTuningShim(
                (prefix_gates): ModuleDict()
                (pool): PrefixTuningPool(
                  (prefix_tunings): ModuleDict()
                )
              )
            )
            (output): BertSelfOutput(
              (dense): Linear(in_features=768, out_features=768, bias=True)
              (LayerNorm): LayerNorm((768,), eps=1e-12, elementwise_affine=True)
              (dropout): Dropout(p=0.1, inplace=False)
              (adapters): ModuleDict()
              (adapter_fusion_layer): ModuleDict()
            )
          )
          (intermediate): BertIntermediate(
            (dense): Linear(
              in_features=768, out_features=3072, bias=True
              (loras): ModuleDict()
            )
            (intermediate_act_fn): GELUActivation()
          )
          (output): BertOutput(
            (dense): Linear(
              in_features=3072, out_features=768, bias=True
              (loras): ModuleDict()
            )
            (LayerNorm): LayerNorm((768,), eps=1e-12, elementwise_affine=True)
            (dropout): Dropout(p=0.1, inplace=False)
            (adapters): ModuleDict(
              (de): Adapter(
                (non_linearity): Activation_Function_Class(
                  (f): NewGELUActivation()
                )
                (adapter_down): Sequential(
                  (0): Linear(in_features=768, out_features=384, bias=True)
                  (1): Activation_Function_Class(
                    (f): NewGELUActivation()
                  )
                )
                (adapter_up): Linear(in_features=384, out_features=768, bias=True)
              )
              (es): Adapter(
                (non_linearity): Activation_Function_Class(
                  (f): NewGELUActivation()
                )
                (adapter_down): Sequential(
                  (0): Linear(in_features=768, out_features=384, bias=True)
                  (1): Activation_Function_Class(
                    (f): NewGELUActivation()
                  )
                )
                (adapter_up): Linear(in_features=384, out_features=768, bias=True)
              )
              (disrpt): Adapter(
                (non_linearity): Activation_Function_Class(
                  (f): ReLU()
                )
                (adapter_down): Sequential(
                  (0): Linear(in_features=768, out_features=48, bias=True)
                  (1): Activation_Function_Class(
                    (f): ReLU()
                  )
                )
                (adapter_up): Linear(in_features=48, out_features=768, bias=True)
              )
            )
            (adapter_fusion_layer): ModuleDict()
          )
        )
      )
    )
    (pooler): BertPooler(
      (dense): Linear(in_features=768, out_features=768, bias=True)
      (activation): Tanh()
    )
    (prefix_tuning): PrefixTuningPool(
      (prefix_tunings): ModuleDict()
    )
  )
  (heads): ModuleDict(
    (disrpt): ClassificationHead(
      (0): Dropout(p=0.1, inplace=False)
      (1): Linear(in_features=768, out_features=768, bias=True)
      (2): Activation_Function_Class(
        (f): Tanh()
      )
      (3): Dropout(p=0.1, inplace=False)
      (4): Linear(in_features=768, out_features=33, bias=True)
    )
  )
)
{'train@deu.rst.pcc_loss': 3.2683496475219727, 'train@deu.rst.pcc_accuracy@deu.rst.pcc': 0.09796672828096119, 'train@deu.rst.pcc_f1@deu.rst.pcc': 0.020606256365995262, 'train@deu.rst.pcc_precision@deu.rst.pcc': 0.046477072717807495, 'train@deu.rst.pcc_recall@deu.rst.pcc': 0.04051937806747407, 'train@deu.rst.pcc_loss@deu.rst.pcc': 3.2683496475219727, 'train@deu.rst.pcc_runtime': 26.7017, 'train@deu.rst.pcc_samples_per_second': 81.043, 'train@deu.rst.pcc_steps_per_second': 2.547, 'epoch': 1.0}
…
Lang1:  eng.pdtb.pdtb    Lang2:  spa.rst.rststb
Saving run to:  runs/SingleEpochPass=v4_eng.pdtb.pdtb_spa.rst.rststb_lrfunc=Adafactor_lr=2e-05_plm=bert-base-multilingual-cased
Running with params: BERT_MODEL=bert-base-multilingual-cased lr=2e-05
read 43920 examples
read 1674 examples
read 2257 examples
read 2240 examples
read 383 examples
read 426 examples
Total prediction labels:  52
BertAdapterModel(
  (shared_parameters): ModuleDict()
  (bert): BertModel(
    (shared_parameters): ModuleDict()
    (invertible_adapters): ModuleDict(
      (en): NICECouplingBlock(
        (F): Sequential(
          (0): Linear(in_features=384, out_features=192, bias=True)
          (1): Activation_Function_Class(
            (f): ReLU()
          )
          (2): Linear(in_features=192, out_features=384, bias=True)
        )
        (G): Sequential(
          (0): Linear(in_features=384, out_features=192, bias=True)
          (1): Activation_Function_Class(
            (f): ReLU()
          )
          (2): Linear(in_features=192, out_features=384, bias=True)
        )
      )
      (es): NICECouplingBlock(
        (F): Sequential(
          (0): Linear(in_features=384, out_features=192, bias=True)
          (1): Activation_Function_Class(
            (f): NewGELUActivation()
          )
          (2): Linear(in_features=192, out_features=384, bias=True)
        )
        (G): Sequential(
          (0): Linear(in_features=384, out_features=192, bias=True)
          (1): Activation_Function_Class(
            (f): NewGELUActivation()
          )
          (2): Linear(in_features=192, out_features=384, bias=True)
        )
      )
    )
    (embeddings): BertEmbeddings(
      (word_embeddings): Embedding(119547, 768, padding_idx=0)
      (position_embeddings): Embedding(512, 768)
      (token_type_embeddings): Embedding(2, 768)
      (LayerNorm): LayerNorm((768,), eps=1e-12, elementwise_affine=True)
      (dropout): Dropout(p=0.1, inplace=False)
    )
    (encoder): BertEncoder(
      (layer): ModuleList(
        (0): BertLayer(
          (attention): BertAttention(
            (self): BertSelfAttention(
              (query): Linear(
                in_features=768, out_features=768, bias=True
                (loras): ModuleDict()
              )
              (key): Linear(
                in_features=768, out_features=768, bias=True
                (loras): ModuleDict()
              )
              (value): Linear(
                in_features=768, out_features=768, bias=True
                (loras): ModuleDict()
              )
              (dropout): Dropout(p=0.1, inplace=False)
              (prefix_tuning): PrefixTuningShim(
                (prefix_gates): ModuleDict()
                (pool): PrefixTuningPool(
                  (prefix_tunings): ModuleDict()
                )
              )
            )
            (output): BertSelfOutput(
              (dense): Linear(in_features=768, out_features=768, bias=True)
              (LayerNorm): LayerNorm((768,), eps=1e-12, elementwise_affine=True)
              (dropout): Dropout(p=0.1, inplace=False)
              (adapters): ModuleDict()
              (adapter_fusion_layer): ModuleDict()
            )
          )
          (intermediate): BertIntermediate(
            (dense): Linear(
              in_features=768, out_features=3072, bias=True
              (loras): ModuleDict()
            )
            (intermediate_act_fn): GELUActivation()
          )
          (output): BertOutput(
            (dense): Linear(
              in_features=3072, out_features=768, bias=True
              (loras): ModuleDict()
            )
            (LayerNorm): LayerNorm((768,), eps=1e-12, elementwise_affine=True)
            (dropout): Dropout(p=0.1, inplace=False)
            (adapters): ModuleDict(
              (en): Adapter(
                (non_linearity): Activation_Function_Class(
                  (f): ReLU()
                )
                (adapter_down): Sequential(
                  (0): Linear(in_features=768, out_features=384, bias=True)
                  (1): Activation_Function_Class(
                    (f): ReLU()
                  )
                )
                (adapter_up): Linear(in_features=384, out_features=768, bias=True)
              )
              (es): Adapter(
                (non_linearity): Activation_Function_Class(
                  (f): NewGELUActivation()
                )
                (adapter_down): Sequential(
                  (0): Linear(in_features=768, out_features=384, bias=True)
                  (1): Activation_Function_Class(
                    (f): NewGELUActivation()
                  )
                )
                (adapter_up): Linear(in_features=384, out_features=768, bias=True)
              )
              (disrpt): Adapter(
                (non_linearity): Activation_Function_Class(
                  (f): ReLU()
                )
                (adapter_down): Sequential(
                  (0): Linear(in_features=768, out_features=48, bias=True)
                  (1): Activation_Function_Class(
                    (f): ReLU()
                  )
                )
                (adapter_up): Linear(in_features=48, out_features=768, bias=True)
              )
            )
            (adapter_fusion_layer): ModuleDict()
          )
        )
        (1): BertLayer(
          (attention): BertAttention(
            (self): BertSelfAttention(
              (query): Linear(
                in_features=768, out_features=768, bias=True
                (loras): ModuleDict()
              )
              (key): Linear(
                in_features=768, out_features=768, bias=True
                (loras): ModuleDict()
              )
              (value): Linear(
                in_features=768, out_features=768, bias=True
                (loras): ModuleDict()
              )
              (dropout): Dropout(p=0.1, inplace=False)
              (prefix_tuning): PrefixTuningShim(
                (prefix_gates): ModuleDict()
                (pool): PrefixTuningPool(
                  (prefix_tunings): ModuleDict()
                )
              )
            )
            (output): BertSelfOutput(
              (dense): Linear(in_features=768, out_features=768, bias=True)
              (LayerNorm): LayerNorm((768,), eps=1e-12, elementwise_affine=True)
              (dropout): Dropout(p=0.1, inplace=False)
              (adapters): ModuleDict()
              (adapter_fusion_layer): ModuleDict()
            )
          )
          (intermediate): BertIntermediate(
            (dense): Linear(
              in_features=768, out_features=3072, bias=True
              (loras): ModuleDict()
            )
            (intermediate_act_fn): GELUActivation()
          )
          (output): BertOutput(
            (dense): Linear(
              in_features=3072, out_features=768, bias=True
              (loras): ModuleDict()
            )
            (LayerNorm): LayerNorm((768,), eps=1e-12, elementwise_affine=True)
            (dropout): Dropout(p=0.1, inplace=False)
            (adapters): ModuleDict(
              (en): Adapter(
                (non_linearity): Activation_Function_Class(
                  (f): ReLU()
                )
                (adapter_down): Sequential(
                  (0): Linear(in_features=768, out_features=384, bias=True)
                  (1): Activation_Function_Class(
                    (f): ReLU()
                  )
                )
                (adapter_up): Linear(in_features=384, out_features=768, bias=True)
              )
              (es): Adapter(
                (non_linearity): Activation_Function_Class(
                  (f): NewGELUActivation()
                )
                (adapter_down): Sequential(
                  (0): Linear(in_features=768, out_features=384, bias=True)
                  (1): Activation_Function_Class(
                    (f): NewGELUActivation()
                  )
                )
                (adapter_up): Linear(in_features=384, out_features=768, bias=True)
              )
              (disrpt): Adapter(
                (non_linearity): Activation_Function_Class(
                  (f): ReLU()
                )
                (adapter_down): Sequential(
                  (0): Linear(in_features=768, out_features=48, bias=True)
                  (1): Activation_Function_Class(
                    (f): ReLU()
                  )
                )
                (adapter_up): Linear(in_features=48, out_features=768, bias=True)
              )
            )
            (adapter_fusion_layer): ModuleDict()
          )
        )
        (2): BertLayer(
          (attention): BertAttention(
            (self): BertSelfAttention(
              (query): Linear(
                in_features=768, out_features=768, bias=True
                (loras): ModuleDict()
              )
              (key): Linear(
                in_features=768, out_features=768, bias=True
                (loras): ModuleDict()
              )
              (value): Linear(
                in_features=768, out_features=768, bias=True
                (loras): ModuleDict()
              )
              (dropout): Dropout(p=0.1, inplace=False)
              (prefix_tuning): PrefixTuningShim(
                (prefix_gates): ModuleDict()
                (pool): PrefixTuningPool(
                  (prefix_tunings): ModuleDict()
                )
              )
            )
            (output): BertSelfOutput(
              (dense): Linear(in_features=768, out_features=768, bias=True)
              (LayerNorm): LayerNorm((768,), eps=1e-12, elementwise_affine=True)
              (dropout): Dropout(p=0.1, inplace=False)
              (adapters): ModuleDict()
              (adapter_fusion_layer): ModuleDict()
            )
          )
          (intermediate): BertIntermediate(
            (dense): Linear(
              in_features=768, out_features=3072, bias=True
              (loras): ModuleDict()
            )
            (intermediate_act_fn): GELUActivation()
          )
          (output): BertOutput(
            (dense): Linear(
              in_features=3072, out_features=768, bias=True
              (loras): ModuleDict()
            )
            (LayerNorm): LayerNorm((768,), eps=1e-12, elementwise_affine=True)
            (dropout): Dropout(p=0.1, inplace=False)
            (adapters): ModuleDict(
              (en): Adapter(
                (non_linearity): Activation_Function_Class(
                  (f): ReLU()
                )
                (adapter_down): Sequential(
                  (0): Linear(in_features=768, out_features=384, bias=True)
                  (1): Activation_Function_Class(
                    (f): ReLU()
                  )
                )
                (adapter_up): Linear(in_features=384, out_features=768, bias=True)
              )
              (es): Adapter(
                (non_linearity): Activation_Function_Class(
                  (f): NewGELUActivation()
                )
                (adapter_down): Sequential(
                  (0): Linear(in_features=768, out_features=384, bias=True)
                  (1): Activation_Function_Class(
                    (f): NewGELUActivation()
                  )
                )
                (adapter_up): Linear(in_features=384, out_features=768, bias=True)
              )
              (disrpt): Adapter(
                (non_linearity): Activation_Function_Class(
                  (f): ReLU()
                )
                (adapter_down): Sequential(
                  (0): Linear(in_features=768, out_features=48, bias=True)
                  (1): Activation_Function_Class(
                    (f): ReLU()
                  )
                )
                (adapter_up): Linear(in_features=48, out_features=768, bias=True)
              )
            )
            (adapter_fusion_layer): ModuleDict()
          )
        )
        (3): BertLayer(
          (attention): BertAttention(
            (self): BertSelfAttention(
              (query): Linear(
                in_features=768, out_features=768, bias=True
                (loras): ModuleDict()
              )
              (key): Linear(
                in_features=768, out_features=768, bias=True
                (loras): ModuleDict()
              )
              (value): Linear(
                in_features=768, out_features=768, bias=True
                (loras): ModuleDict()
              )
              (dropout): Dropout(p=0.1, inplace=False)
              (prefix_tuning): PrefixTuningShim(
                (prefix_gates): ModuleDict()
                (pool): PrefixTuningPool(
                  (prefix_tunings): ModuleDict()
                )
              )
            )
            (output): BertSelfOutput(
              (dense): Linear(in_features=768, out_features=768, bias=True)
              (LayerNorm): LayerNorm((768,), eps=1e-12, elementwise_affine=True)
              (dropout): Dropout(p=0.1, inplace=False)
              (adapters): ModuleDict()
              (adapter_fusion_layer): ModuleDict()
            )
          )
          (intermediate): BertIntermediate(
            (dense): Linear(
              in_features=768, out_features=3072, bias=True
              (loras): ModuleDict()
            )
            (intermediate_act_fn): GELUActivation()
          )
          (output): BertOutput(
            (dense): Linear(
              in_features=3072, out_features=768, bias=True
              (loras): ModuleDict()
            )
            (LayerNorm): LayerNorm((768,), eps=1e-12, elementwise_affine=True)
            (dropout): Dropout(p=0.1, inplace=False)
            (adapters): ModuleDict(
              (en): Adapter(
                (non_linearity): Activation_Function_Class(
                  (f): ReLU()
                )
                (adapter_down): Sequential(
                  (0): Linear(in_features=768, out_features=384, bias=True)
                  (1): Activation_Function_Class(
                    (f): ReLU()
                  )
                )
                (adapter_up): Linear(in_features=384, out_features=768, bias=True)
              )
              (es): Adapter(
                (non_linearity): Activation_Function_Class(
                  (f): NewGELUActivation()
                )
                (adapter_down): Sequential(
                  (0): Linear(in_features=768, out_features=384, bias=True)
                  (1): Activation_Function_Class(
                    (f): NewGELUActivation()
                  )
                )
                (adapter_up): Linear(in_features=384, out_features=768, bias=True)
              )
              (disrpt): Adapter(
                (non_linearity): Activation_Function_Class(
                  (f): ReLU()
                )
                (adapter_down): Sequential(
                  (0): Linear(in_features=768, out_features=48, bias=True)
                  (1): Activation_Function_Class(
                    (f): ReLU()
                  )
                )
                (adapter_up): Linear(in_features=48, out_features=768, bias=True)
              )
            )
            (adapter_fusion_layer): ModuleDict()
          )
        )
        (4): BertLayer(
          (attention): BertAttention(
            (self): BertSelfAttention(
              (query): Linear(
                in_features=768, out_features=768, bias=True
                (loras): ModuleDict()
              )
              (key): Linear(
                in_features=768, out_features=768, bias=True
                (loras): ModuleDict()
              )
              (value): Linear(
                in_features=768, out_features=768, bias=True
                (loras): ModuleDict()
              )
              (dropout): Dropout(p=0.1, inplace=False)
              (prefix_tuning): PrefixTuningShim(
                (prefix_gates): ModuleDict()
                (pool): PrefixTuningPool(
                  (prefix_tunings): ModuleDict()
                )
              )
            )
            (output): BertSelfOutput(
              (dense): Linear(in_features=768, out_features=768, bias=True)
              (LayerNorm): LayerNorm((768,), eps=1e-12, elementwise_affine=True)
              (dropout): Dropout(p=0.1, inplace=False)
              (adapters): ModuleDict()
              (adapter_fusion_layer): ModuleDict()
            )
          )
          (intermediate): BertIntermediate(
            (dense): Linear(
              in_features=768, out_features=3072, bias=True
              (loras): ModuleDict()
            )
            (intermediate_act_fn): GELUActivation()
          )
          (output): BertOutput(
            (dense): Linear(
              in_features=3072, out_features=768, bias=True
              (loras): ModuleDict()
            )
            (LayerNorm): LayerNorm((768,), eps=1e-12, elementwise_affine=True)
            (dropout): Dropout(p=0.1, inplace=False)
            (adapters): ModuleDict(
              (en): Adapter(
                (non_linearity): Activation_Function_Class(
                  (f): ReLU()
                )
                (adapter_down): Sequential(
                  (0): Linear(in_features=768, out_features=384, bias=True)
                  (1): Activation_Function_Class(
                    (f): ReLU()
                  )
                )
                (adapter_up): Linear(in_features=384, out_features=768, bias=True)
              )
              (es): Adapter(
                (non_linearity): Activation_Function_Class(
                  (f): NewGELUActivation()
                )
                (adapter_down): Sequential(
                  (0): Linear(in_features=768, out_features=384, bias=True)
                  (1): Activation_Function_Class(
                    (f): NewGELUActivation()
                  )
                )
                (adapter_up): Linear(in_features=384, out_features=768, bias=True)
              )
              (disrpt): Adapter(
                (non_linearity): Activation_Function_Class(
                  (f): ReLU()
                )
                (adapter_down): Sequential(
                  (0): Linear(in_features=768, out_features=48, bias=True)
                  (1): Activation_Function_Class(
                    (f): ReLU()
                  )
                )
                (adapter_up): Linear(in_features=48, out_features=768, bias=True)
              )
            )
            (adapter_fusion_layer): ModuleDict()
          )
        )
        (5): BertLayer(
          (attention): BertAttention(
            (self): BertSelfAttention(
              (query): Linear(
                in_features=768, out_features=768, bias=True
                (loras): ModuleDict()
              )
              (key): Linear(
                in_features=768, out_features=768, bias=True
                (loras): ModuleDict()
              )
              (value): Linear(
                in_features=768, out_features=768, bias=True
                (loras): ModuleDict()
              )
              (dropout): Dropout(p=0.1, inplace=False)
              (prefix_tuning): PrefixTuningShim(
                (prefix_gates): ModuleDict()
                (pool): PrefixTuningPool(
                  (prefix_tunings): ModuleDict()
                )
              )
            )
            (output): BertSelfOutput(
              (dense): Linear(in_features=768, out_features=768, bias=True)
              (LayerNorm): LayerNorm((768,), eps=1e-12, elementwise_affine=True)
              (dropout): Dropout(p=0.1, inplace=False)
              (adapters): ModuleDict()
              (adapter_fusion_layer): ModuleDict()
            )
          )
          (intermediate): BertIntermediate(
            (dense): Linear(
              in_features=768, out_features=3072, bias=True
              (loras): ModuleDict()
            )
            (intermediate_act_fn): GELUActivation()
          )
          (output): BertOutput(
            (dense): Linear(
              in_features=3072, out_features=768, bias=True
              (loras): ModuleDict()
            )
            (LayerNorm): LayerNorm((768,), eps=1e-12, elementwise_affine=True)
            (dropout): Dropout(p=0.1, inplace=False)
            (adapters): ModuleDict(
              (en): Adapter(
                (non_linearity): Activation_Function_Class(
                  (f): ReLU()
                )
                (adapter_down): Sequential(
                  (0): Linear(in_features=768, out_features=384, bias=True)
                  (1): Activation_Function_Class(
                    (f): ReLU()
                  )
                )
                (adapter_up): Linear(in_features=384, out_features=768, bias=True)
              )
              (es): Adapter(
                (non_linearity): Activation_Function_Class(
                  (f): NewGELUActivation()
                )
                (adapter_down): Sequential(
                  (0): Linear(in_features=768, out_features=384, bias=True)
                  (1): Activation_Function_Class(
                    (f): NewGELUActivation()
                  )
                )
                (adapter_up): Linear(in_features=384, out_features=768, bias=True)
              )
              (disrpt): Adapter(
                (non_linearity): Activation_Function_Class(
                  (f): ReLU()
                )
                (adapter_down): Sequential(
                  (0): Linear(in_features=768, out_features=48, bias=True)
                  (1): Activation_Function_Class(
                    (f): ReLU()
                  )
                )
                (adapter_up): Linear(in_features=48, out_features=768, bias=True)
              )
            )
            (adapter_fusion_layer): ModuleDict()
          )
        )
        (6): BertLayer(
          (attention): BertAttention(
            (self): BertSelfAttention(
              (query): Linear(
                in_features=768, out_features=768, bias=True
                (loras): ModuleDict()
              )
              (key): Linear(
                in_features=768, out_features=768, bias=True
                (loras): ModuleDict()
              )
              (value): Linear(
                in_features=768, out_features=768, bias=True
                (loras): ModuleDict()
              )
              (dropout): Dropout(p=0.1, inplace=False)
              (prefix_tuning): PrefixTuningShim(
                (prefix_gates): ModuleDict()
                (pool): PrefixTuningPool(
                  (prefix_tunings): ModuleDict()
                )
              )
            )
            (output): BertSelfOutput(
              (dense): Linear(in_features=768, out_features=768, bias=True)
              (LayerNorm): LayerNorm((768,), eps=1e-12, elementwise_affine=True)
              (dropout): Dropout(p=0.1, inplace=False)
              (adapters): ModuleDict()
              (adapter_fusion_layer): ModuleDict()
            )
          )
          (intermediate): BertIntermediate(
            (dense): Linear(
              in_features=768, out_features=3072, bias=True
              (loras): ModuleDict()
            )
            (intermediate_act_fn): GELUActivation()
          )
          (output): BertOutput(
            (dense): Linear(
              in_features=3072, out_features=768, bias=True
              (loras): ModuleDict()
            )
            (LayerNorm): LayerNorm((768,), eps=1e-12, elementwise_affine=True)
            (dropout): Dropout(p=0.1, inplace=False)
            (adapters): ModuleDict(
              (en): Adapter(
                (non_linearity): Activation_Function_Class(
                  (f): ReLU()
                )
                (adapter_down): Sequential(
                  (0): Linear(in_features=768, out_features=384, bias=True)
                  (1): Activation_Function_Class(
                    (f): ReLU()
                  )
                )
                (adapter_up): Linear(in_features=384, out_features=768, bias=True)
              )
              (es): Adapter(
                (non_linearity): Activation_Function_Class(
                  (f): NewGELUActivation()
                )
                (adapter_down): Sequential(
                  (0): Linear(in_features=768, out_features=384, bias=True)
                  (1): Activation_Function_Class(
                    (f): NewGELUActivation()
                  )
                )
                (adapter_up): Linear(in_features=384, out_features=768, bias=True)
              )
              (disrpt): Adapter(
                (non_linearity): Activation_Function_Class(
                  (f): ReLU()
                )
                (adapter_down): Sequential(
                  (0): Linear(in_features=768, out_features=48, bias=True)
                  (1): Activation_Function_Class(
                    (f): ReLU()
                  )
                )
                (adapter_up): Linear(in_features=48, out_features=768, bias=True)
              )
            )
            (adapter_fusion_layer): ModuleDict()
          )
        )
        (7): BertLayer(
          (attention): BertAttention(
            (self): BertSelfAttention(
              (query): Linear(
                in_features=768, out_features=768, bias=True
                (loras): ModuleDict()
              )
              (key): Linear(
                in_features=768, out_features=768, bias=True
                (loras): ModuleDict()
              )
              (value): Linear(
                in_features=768, out_features=768, bias=True
                (loras): ModuleDict()
              )
              (dropout): Dropout(p=0.1, inplace=False)
              (prefix_tuning): PrefixTuningShim(
                (prefix_gates): ModuleDict()
                (pool): PrefixTuningPool(
                  (prefix_tunings): ModuleDict()
                )
              )
            )
            (output): BertSelfOutput(
              (dense): Linear(in_features=768, out_features=768, bias=True)
              (LayerNorm): LayerNorm((768,), eps=1e-12, elementwise_affine=True)
              (dropout): Dropout(p=0.1, inplace=False)
              (adapters): ModuleDict()
              (adapter_fusion_layer): ModuleDict()
            )
          )
          (intermediate): BertIntermediate(
            (dense): Linear(
              in_features=768, out_features=3072, bias=True
              (loras): ModuleDict()
            )
            (intermediate_act_fn): GELUActivation()
          )
          (output): BertOutput(
            (dense): Linear(
              in_features=3072, out_features=768, bias=True
              (loras): ModuleDict()
            )
            (LayerNorm): LayerNorm((768,), eps=1e-12, elementwise_affine=True)
            (dropout): Dropout(p=0.1, inplace=False)
            (adapters): ModuleDict(
              (en): Adapter(
                (non_linearity): Activation_Function_Class(
                  (f): ReLU()
                )
                (adapter_down): Sequential(
                  (0): Linear(in_features=768, out_features=384, bias=True)
                  (1): Activation_Function_Class(
                    (f): ReLU()
                  )
                )
                (adapter_up): Linear(in_features=384, out_features=768, bias=True)
              )
              (es): Adapter(
                (non_linearity): Activation_Function_Class(
                  (f): NewGELUActivation()
                )
                (adapter_down): Sequential(
                  (0): Linear(in_features=768, out_features=384, bias=True)
                  (1): Activation_Function_Class(
                    (f): NewGELUActivation()
                  )
                )
                (adapter_up): Linear(in_features=384, out_features=768, bias=True)
              )
              (disrpt): Adapter(
                (non_linearity): Activation_Function_Class(
                  (f): ReLU()
                )
                (adapter_down): Sequential(
                  (0): Linear(in_features=768, out_features=48, bias=True)
                  (1): Activation_Function_Class(
                    (f): ReLU()
                  )
                )
                (adapter_up): Linear(in_features=48, out_features=768, bias=True)
              )
            )
            (adapter_fusion_layer): ModuleDict()
          )
        )
        (8): BertLayer(
          (attention): BertAttention(
            (self): BertSelfAttention(
              (query): Linear(
                in_features=768, out_features=768, bias=True
                (loras): ModuleDict()
              )
              (key): Linear(
                in_features=768, out_features=768, bias=True
                (loras): ModuleDict()
              )
              (value): Linear(
                in_features=768, out_features=768, bias=True
                (loras): ModuleDict()
              )
              (dropout): Dropout(p=0.1, inplace=False)
              (prefix_tuning): PrefixTuningShim(
                (prefix_gates): ModuleDict()
                (pool): PrefixTuningPool(
                  (prefix_tunings): ModuleDict()
                )
              )
            )
            (output): BertSelfOutput(
              (dense): Linear(in_features=768, out_features=768, bias=True)
              (LayerNorm): LayerNorm((768,), eps=1e-12, elementwise_affine=True)
              (dropout): Dropout(p=0.1, inplace=False)
              (adapters): ModuleDict()
              (adapter_fusion_layer): ModuleDict()
            )
          )
          (intermediate): BertIntermediate(
            (dense): Linear(
              in_features=768, out_features=3072, bias=True
              (loras): ModuleDict()
            )
            (intermediate_act_fn): GELUActivation()
          )
          (output): BertOutput(
            (dense): Linear(
              in_features=3072, out_features=768, bias=True
              (loras): ModuleDict()
            )
            (LayerNorm): LayerNorm((768,), eps=1e-12, elementwise_affine=True)
            (dropout): Dropout(p=0.1, inplace=False)
            (adapters): ModuleDict(
              (en): Adapter(
                (non_linearity): Activation_Function_Class(
                  (f): ReLU()
                )
                (adapter_down): Sequential(
                  (0): Linear(in_features=768, out_features=384, bias=True)
                  (1): Activation_Function_Class(
                    (f): ReLU()
                  )
                )
                (adapter_up): Linear(in_features=384, out_features=768, bias=True)
              )
              (es): Adapter(
                (non_linearity): Activation_Function_Class(
                  (f): NewGELUActivation()
                )
                (adapter_down): Sequential(
                  (0): Linear(in_features=768, out_features=384, bias=True)
                  (1): Activation_Function_Class(
                    (f): NewGELUActivation()
                  )
                )
                (adapter_up): Linear(in_features=384, out_features=768, bias=True)
              )
              (disrpt): Adapter(
                (non_linearity): Activation_Function_Class(
                  (f): ReLU()
                )
                (adapter_down): Sequential(
                  (0): Linear(in_features=768, out_features=48, bias=True)
                  (1): Activation_Function_Class(
                    (f): ReLU()
                  )
                )
                (adapter_up): Linear(in_features=48, out_features=768, bias=True)
              )
            )
            (adapter_fusion_layer): ModuleDict()
          )
        )
        (9): BertLayer(
          (attention): BertAttention(
            (self): BertSelfAttention(
              (query): Linear(
                in_features=768, out_features=768, bias=True
                (loras): ModuleDict()
              )
              (key): Linear(
                in_features=768, out_features=768, bias=True
                (loras): ModuleDict()
              )
              (value): Linear(
                in_features=768, out_features=768, bias=True
                (loras): ModuleDict()
              )
              (dropout): Dropout(p=0.1, inplace=False)
              (prefix_tuning): PrefixTuningShim(
                (prefix_gates): ModuleDict()
                (pool): PrefixTuningPool(
                  (prefix_tunings): ModuleDict()
                )
              )
            )
            (output): BertSelfOutput(
              (dense): Linear(in_features=768, out_features=768, bias=True)
              (LayerNorm): LayerNorm((768,), eps=1e-12, elementwise_affine=True)
              (dropout): Dropout(p=0.1, inplace=False)
              (adapters): ModuleDict()
              (adapter_fusion_layer): ModuleDict()
            )
          )
          (intermediate): BertIntermediate(
            (dense): Linear(
              in_features=768, out_features=3072, bias=True
              (loras): ModuleDict()
            )
            (intermediate_act_fn): GELUActivation()
          )
          (output): BertOutput(
            (dense): Linear(
              in_features=3072, out_features=768, bias=True
              (loras): ModuleDict()
            )
            (LayerNorm): LayerNorm((768,), eps=1e-12, elementwise_affine=True)
            (dropout): Dropout(p=0.1, inplace=False)
            (adapters): ModuleDict(
              (en): Adapter(
                (non_linearity): Activation_Function_Class(
                  (f): ReLU()
                )
                (adapter_down): Sequential(
                  (0): Linear(in_features=768, out_features=384, bias=True)
                  (1): Activation_Function_Class(
                    (f): ReLU()
                  )
                )
                (adapter_up): Linear(in_features=384, out_features=768, bias=True)
              )
              (es): Adapter(
                (non_linearity): Activation_Function_Class(
                  (f): NewGELUActivation()
                )
                (adapter_down): Sequential(
                  (0): Linear(in_features=768, out_features=384, bias=True)
                  (1): Activation_Function_Class(
                    (f): NewGELUActivation()
                  )
                )
                (adapter_up): Linear(in_features=384, out_features=768, bias=True)
              )
              (disrpt): Adapter(
                (non_linearity): Activation_Function_Class(
                  (f): ReLU()
                )
                (adapter_down): Sequential(
                  (0): Linear(in_features=768, out_features=48, bias=True)
                  (1): Activation_Function_Class(
                    (f): ReLU()
                  )
                )
                (adapter_up): Linear(in_features=48, out_features=768, bias=True)
              )
            )
            (adapter_fusion_layer): ModuleDict()
          )
        )
        (10): BertLayer(
          (attention): BertAttention(
            (self): BertSelfAttention(
              (query): Linear(
                in_features=768, out_features=768, bias=True
                (loras): ModuleDict()
              )
              (key): Linear(
                in_features=768, out_features=768, bias=True
                (loras): ModuleDict()
              )
              (value): Linear(
                in_features=768, out_features=768, bias=True
                (loras): ModuleDict()
              )
              (dropout): Dropout(p=0.1, inplace=False)
              (prefix_tuning): PrefixTuningShim(
                (prefix_gates): ModuleDict()
                (pool): PrefixTuningPool(
                  (prefix_tunings): ModuleDict()
                )
              )
            )
            (output): BertSelfOutput(
              (dense): Linear(in_features=768, out_features=768, bias=True)
              (LayerNorm): LayerNorm((768,), eps=1e-12, elementwise_affine=True)
              (dropout): Dropout(p=0.1, inplace=False)
              (adapters): ModuleDict()
              (adapter_fusion_layer): ModuleDict()
            )
          )
          (intermediate): BertIntermediate(
            (dense): Linear(
              in_features=768, out_features=3072, bias=True
              (loras): ModuleDict()
            )
            (intermediate_act_fn): GELUActivation()
          )
          (output): BertOutput(
            (dense): Linear(
              in_features=3072, out_features=768, bias=True
              (loras): ModuleDict()
            )
            (LayerNorm): LayerNorm((768,), eps=1e-12, elementwise_affine=True)
            (dropout): Dropout(p=0.1, inplace=False)
            (adapters): ModuleDict(
              (en): Adapter(
                (non_linearity): Activation_Function_Class(
                  (f): ReLU()
                )
                (adapter_down): Sequential(
                  (0): Linear(in_features=768, out_features=384, bias=True)
                  (1): Activation_Function_Class(
                    (f): ReLU()
                  )
                )
                (adapter_up): Linear(in_features=384, out_features=768, bias=True)
              )
              (es): Adapter(
                (non_linearity): Activation_Function_Class(
                  (f): NewGELUActivation()
                )
                (adapter_down): Sequential(
                  (0): Linear(in_features=768, out_features=384, bias=True)
                  (1): Activation_Function_Class(
                    (f): NewGELUActivation()
                  )
                )
                (adapter_up): Linear(in_features=384, out_features=768, bias=True)
              )
              (disrpt): Adapter(
                (non_linearity): Activation_Function_Class(
                  (f): ReLU()
                )
                (adapter_down): Sequential(
                  (0): Linear(in_features=768, out_features=48, bias=True)
                  (1): Activation_Function_Class(
                    (f): ReLU()
                  )
                )
                (adapter_up): Linear(in_features=48, out_features=768, bias=True)
              )
            )
            (adapter_fusion_layer): ModuleDict()
          )
        )
        (11): BertLayer(
          (attention): BertAttention(
            (self): BertSelfAttention(
              (query): Linear(
                in_features=768, out_features=768, bias=True
                (loras): ModuleDict()
              )
              (key): Linear(
                in_features=768, out_features=768, bias=True
                (loras): ModuleDict()
              )
              (value): Linear(
                in_features=768, out_features=768, bias=True
                (loras): ModuleDict()
              )
              (dropout): Dropout(p=0.1, inplace=False)
              (prefix_tuning): PrefixTuningShim(
                (prefix_gates): ModuleDict()
                (pool): PrefixTuningPool(
                  (prefix_tunings): ModuleDict()
                )
              )
            )
            (output): BertSelfOutput(
              (dense): Linear(in_features=768, out_features=768, bias=True)
              (LayerNorm): LayerNorm((768,), eps=1e-12, elementwise_affine=True)
              (dropout): Dropout(p=0.1, inplace=False)
              (adapters): ModuleDict()
              (adapter_fusion_layer): ModuleDict()
            )
          )
          (intermediate): BertIntermediate(
            (dense): Linear(
              in_features=768, out_features=3072, bias=True
              (loras): ModuleDict()
            )
            (intermediate_act_fn): GELUActivation()
          )
          (output): BertOutput(
            (dense): Linear(
              in_features=3072, out_features=768, bias=True
              (loras): ModuleDict()
            )
            (LayerNorm): LayerNorm((768,), eps=1e-12, elementwise_affine=True)
            (dropout): Dropout(p=0.1, inplace=False)
            (adapters): ModuleDict(
              (en): Adapter(
                (non_linearity): Activation_Function_Class(
                  (f): ReLU()
                )
                (adapter_down): Sequential(
                  (0): Linear(in_features=768, out_features=384, bias=True)
                  (1): Activation_Function_Class(
                    (f): ReLU()
                  )
                )
                (adapter_up): Linear(in_features=384, out_features=768, bias=True)
              )
              (es): Adapter(
                (non_linearity): Activation_Function_Class(
                  (f): NewGELUActivation()
                )
                (adapter_down): Sequential(
                  (0): Linear(in_features=768, out_features=384, bias=True)
                  (1): Activation_Function_Class(
                    (f): NewGELUActivation()
                  )
                )
                (adapter_up): Linear(in_features=384, out_features=768, bias=True)
              )
              (disrpt): Adapter(
                (non_linearity): Activation_Function_Class(
                  (f): ReLU()
                )
                (adapter_down): Sequential(
                  (0): Linear(in_features=768, out_features=48, bias=True)
                  (1): Activation_Function_Class(
                    (f): ReLU()
                  )
                )
                (adapter_up): Linear(in_features=48, out_features=768, bias=True)
              )
            )
            (adapter_fusion_layer): ModuleDict()
          )
        )
      )
    )
    (pooler): BertPooler(
      (dense): Linear(in_features=768, out_features=768, bias=True)
      (activation): Tanh()
    )
    (prefix_tuning): PrefixTuningPool(
      (prefix_tunings): ModuleDict()
    )
  )
  (heads): ModuleDict(
    (disrpt): ClassificationHead(
      (0): Dropout(p=0.1, inplace=False)
      (1): Linear(in_features=768, out_features=768, bias=True)
      (2): Activation_Function_Class(
        (f): Tanh()
      )
      (3): Dropout(p=0.1, inplace=False)
      (4): Linear(in_features=768, out_features=52, bias=True)
    )
  )
)
{'train@eng.pdtb.pdtb_loss': 1.7185649871826172, 'train@eng.pdtb.pdtb_accuracy@eng.pdtb.pdtb': 0.4877959927140255, 'train@eng.pdtb.pdtb_f1@eng.pdtb.pdtb': 0.14006219006472512, 'train@eng.pdtb.pdtb_precision@eng.pdtb.pdtb': 0.19049957199256393, 'train@eng.pdtb.pdtb_recall@eng.pdtb.pdtb': 0.15616036879738043, 'train@eng.pdtb.pdtb_loss@eng.pdtb.pdtb': 1.7185652256011963, 'train@eng.pdtb.pdtb_runtime': 523.852, 'train@eng.pdtb.pdtb_samples_per_second': 83.84, 'train@eng.pdtb.pdtb_steps_per_second': 2.621, 'epoch': 1.0}
…
Lang1:  eng.rst.gum    Lang2:  spa.rst.rststb
Saving run to:  runs/SingleEpochPass=v4_eng.rst.gum_spa.rst.rststb_lrfunc=Adafactor_lr=2e-05_plm=bert-base-multilingual-cased
Running with params: BERT_MODEL=bert-base-multilingual-cased lr=2e-05
read 13897 examples
read 2149 examples
read 2091 examples
read 2240 examples
read 383 examples
read 426 examples
Total prediction labels:  32
BertAdapterModel(
  (shared_parameters): ModuleDict()
  (bert): BertModel(
    (shared_parameters): ModuleDict()
    (invertible_adapters): ModuleDict(
      (en): NICECouplingBlock(
        (F): Sequential(
          (0): Linear(in_features=384, out_features=192, bias=True)
          (1): Activation_Function_Class(
            (f): ReLU()
          )
          (2): Linear(in_features=192, out_features=384, bias=True)
        )
        (G): Sequential(
          (0): Linear(in_features=384, out_features=192, bias=True)
          (1): Activation_Function_Class(
            (f): ReLU()
          )
          (2): Linear(in_features=192, out_features=384, bias=True)
        )
      )
      (es): NICECouplingBlock(
        (F): Sequential(
          (0): Linear(in_features=384, out_features=192, bias=True)
          (1): Activation_Function_Class(
            (f): NewGELUActivation()
          )
          (2): Linear(in_features=192, out_features=384, bias=True)
        )
        (G): Sequential(
          (0): Linear(in_features=384, out_features=192, bias=True)
          (1): Activation_Function_Class(
            (f): NewGELUActivation()
          )
          (2): Linear(in_features=192, out_features=384, bias=True)
        )
      )
    )
    (embeddings): BertEmbeddings(
      (word_embeddings): Embedding(119547, 768, padding_idx=0)
      (position_embeddings): Embedding(512, 768)
      (token_type_embeddings): Embedding(2, 768)
      (LayerNorm): LayerNorm((768,), eps=1e-12, elementwise_affine=True)
      (dropout): Dropout(p=0.1, inplace=False)
    )
    (encoder): BertEncoder(
      (layer): ModuleList(
        (0): BertLayer(
          (attention): BertAttention(
            (self): BertSelfAttention(
              (query): Linear(
                in_features=768, out_features=768, bias=True
                (loras): ModuleDict()
              )
              (key): Linear(
                in_features=768, out_features=768, bias=True
                (loras): ModuleDict()
              )
              (value): Linear(
                in_features=768, out_features=768, bias=True
                (loras): ModuleDict()
              )
              (dropout): Dropout(p=0.1, inplace=False)
              (prefix_tuning): PrefixTuningShim(
                (prefix_gates): ModuleDict()
                (pool): PrefixTuningPool(
                  (prefix_tunings): ModuleDict()
                )
              )
            )
            (output): BertSelfOutput(
              (dense): Linear(in_features=768, out_features=768, bias=True)
              (LayerNorm): LayerNorm((768,), eps=1e-12, elementwise_affine=True)
              (dropout): Dropout(p=0.1, inplace=False)
              (adapters): ModuleDict()
              (adapter_fusion_layer): ModuleDict()
            )
          )
          (intermediate): BertIntermediate(
            (dense): Linear(
              in_features=768, out_features=3072, bias=True
              (loras): ModuleDict()
            )
            (intermediate_act_fn): GELUActivation()
          )
          (output): BertOutput(
            (dense): Linear(
              in_features=3072, out_features=768, bias=True
              (loras): ModuleDict()
            )
            (LayerNorm): LayerNorm((768,), eps=1e-12, elementwise_affine=True)
            (dropout): Dropout(p=0.1, inplace=False)
            (adapters): ModuleDict(
              (en): Adapter(
                (non_linearity): Activation_Function_Class(
                  (f): ReLU()
                )
                (adapter_down): Sequential(
                  (0): Linear(in_features=768, out_features=384, bias=True)
                  (1): Activation_Function_Class(
                    (f): ReLU()
                  )
                )
                (adapter_up): Linear(in_features=384, out_features=768, bias=True)
              )
              (es): Adapter(
                (non_linearity): Activation_Function_Class(
                  (f): NewGELUActivation()
                )
                (adapter_down): Sequential(
                  (0): Linear(in_features=768, out_features=384, bias=True)
                  (1): Activation_Function_Class(
                    (f): NewGELUActivation()
                  )
                )
                (adapter_up): Linear(in_features=384, out_features=768, bias=True)
              )
              (disrpt): Adapter(
                (non_linearity): Activation_Function_Class(
                  (f): ReLU()
                )
                (adapter_down): Sequential(
                  (0): Linear(in_features=768, out_features=48, bias=True)
                  (1): Activation_Function_Class(
                    (f): ReLU()
                  )
                )
                (adapter_up): Linear(in_features=48, out_features=768, bias=True)
              )
            )
            (adapter_fusion_layer): ModuleDict()
          )
        )
        (1): BertLayer(
          (attention): BertAttention(
            (self): BertSelfAttention(
              (query): Linear(
                in_features=768, out_features=768, bias=True
                (loras): ModuleDict()
              )
              (key): Linear(
                in_features=768, out_features=768, bias=True
                (loras): ModuleDict()
              )
              (value): Linear(
                in_features=768, out_features=768, bias=True
                (loras): ModuleDict()
              )
              (dropout): Dropout(p=0.1, inplace=False)
              (prefix_tuning): PrefixTuningShim(
                (prefix_gates): ModuleDict()
                (pool): PrefixTuningPool(
                  (prefix_tunings): ModuleDict()
                )
              )
            )
            (output): BertSelfOutput(
              (dense): Linear(in_features=768, out_features=768, bias=True)
              (LayerNorm): LayerNorm((768,), eps=1e-12, elementwise_affine=True)
              (dropout): Dropout(p=0.1, inplace=False)
              (adapters): ModuleDict()
              (adapter_fusion_layer): ModuleDict()
            )
          )
          (intermediate): BertIntermediate(
            (dense): Linear(
              in_features=768, out_features=3072, bias=True
              (loras): ModuleDict()
            )
            (intermediate_act_fn): GELUActivation()
          )
          (output): BertOutput(
            (dense): Linear(
              in_features=3072, out_features=768, bias=True
              (loras): ModuleDict()
            )
            (LayerNorm): LayerNorm((768,), eps=1e-12, elementwise_affine=True)
            (dropout): Dropout(p=0.1, inplace=False)
            (adapters): ModuleDict(
              (en): Adapter(
                (non_linearity): Activation_Function_Class(
                  (f): ReLU()
                )
                (adapter_down): Sequential(
                  (0): Linear(in_features=768, out_features=384, bias=True)
                  (1): Activation_Function_Class(
                    (f): ReLU()
                  )
                )
                (adapter_up): Linear(in_features=384, out_features=768, bias=True)
              )
              (es): Adapter(
                (non_linearity): Activation_Function_Class(
                  (f): NewGELUActivation()
                )
                (adapter_down): Sequential(
                  (0): Linear(in_features=768, out_features=384, bias=True)
                  (1): Activation_Function_Class(
                    (f): NewGELUActivation()
                  )
                )
                (adapter_up): Linear(in_features=384, out_features=768, bias=True)
              )
              (disrpt): Adapter(
                (non_linearity): Activation_Function_Class(
                  (f): ReLU()
                )
                (adapter_down): Sequential(
                  (0): Linear(in_features=768, out_features=48, bias=True)
                  (1): Activation_Function_Class(
                    (f): ReLU()
                  )
                )
                (adapter_up): Linear(in_features=48, out_features=768, bias=True)
              )
            )
            (adapter_fusion_layer): ModuleDict()
          )
        )
        (2): BertLayer(
          (attention): BertAttention(
            (self): BertSelfAttention(
              (query): Linear(
                in_features=768, out_features=768, bias=True
                (loras): ModuleDict()
              )
              (key): Linear(
                in_features=768, out_features=768, bias=True
                (loras): ModuleDict()
              )
              (value): Linear(
                in_features=768, out_features=768, bias=True
                (loras): ModuleDict()
              )
              (dropout): Dropout(p=0.1, inplace=False)
              (prefix_tuning): PrefixTuningShim(
                (prefix_gates): ModuleDict()
                (pool): PrefixTuningPool(
                  (prefix_tunings): ModuleDict()
                )
              )
            )
            (output): BertSelfOutput(
              (dense): Linear(in_features=768, out_features=768, bias=True)
              (LayerNorm): LayerNorm((768,), eps=1e-12, elementwise_affine=True)
              (dropout): Dropout(p=0.1, inplace=False)
              (adapters): ModuleDict()
              (adapter_fusion_layer): ModuleDict()
            )
          )
          (intermediate): BertIntermediate(
            (dense): Linear(
              in_features=768, out_features=3072, bias=True
              (loras): ModuleDict()
            )
            (intermediate_act_fn): GELUActivation()
          )
          (output): BertOutput(
            (dense): Linear(
              in_features=3072, out_features=768, bias=True
              (loras): ModuleDict()
            )
            (LayerNorm): LayerNorm((768,), eps=1e-12, elementwise_affine=True)
            (dropout): Dropout(p=0.1, inplace=False)
            (adapters): ModuleDict(
              (en): Adapter(
                (non_linearity): Activation_Function_Class(
                  (f): ReLU()
                )
                (adapter_down): Sequential(
                  (0): Linear(in_features=768, out_features=384, bias=True)
                  (1): Activation_Function_Class(
                    (f): ReLU()
                  )
                )
                (adapter_up): Linear(in_features=384, out_features=768, bias=True)
              )
              (es): Adapter(
                (non_linearity): Activation_Function_Class(
                  (f): NewGELUActivation()
                )
                (adapter_down): Sequential(
                  (0): Linear(in_features=768, out_features=384, bias=True)
                  (1): Activation_Function_Class(
                    (f): NewGELUActivation()
                  )
                )
                (adapter_up): Linear(in_features=384, out_features=768, bias=True)
              )
              (disrpt): Adapter(
                (non_linearity): Activation_Function_Class(
                  (f): ReLU()
                )
                (adapter_down): Sequential(
                  (0): Linear(in_features=768, out_features=48, bias=True)
                  (1): Activation_Function_Class(
                    (f): ReLU()
                  )
                )
                (adapter_up): Linear(in_features=48, out_features=768, bias=True)
              )
            )
            (adapter_fusion_layer): ModuleDict()
          )
        )
        (3): BertLayer(
          (attention): BertAttention(
            (self): BertSelfAttention(
              (query): Linear(
                in_features=768, out_features=768, bias=True
                (loras): ModuleDict()
              )
              (key): Linear(
                in_features=768, out_features=768, bias=True
                (loras): ModuleDict()
              )
              (value): Linear(
                in_features=768, out_features=768, bias=True
                (loras): ModuleDict()
              )
              (dropout): Dropout(p=0.1, inplace=False)
              (prefix_tuning): PrefixTuningShim(
                (prefix_gates): ModuleDict()
                (pool): PrefixTuningPool(
                  (prefix_tunings): ModuleDict()
                )
              )
            )
            (output): BertSelfOutput(
              (dense): Linear(in_features=768, out_features=768, bias=True)
              (LayerNorm): LayerNorm((768,), eps=1e-12, elementwise_affine=True)
              (dropout): Dropout(p=0.1, inplace=False)
              (adapters): ModuleDict()
              (adapter_fusion_layer): ModuleDict()
            )
          )
          (intermediate): BertIntermediate(
            (dense): Linear(
              in_features=768, out_features=3072, bias=True
              (loras): ModuleDict()
            )
            (intermediate_act_fn): GELUActivation()
          )
          (output): BertOutput(
            (dense): Linear(
              in_features=3072, out_features=768, bias=True
              (loras): ModuleDict()
            )
            (LayerNorm): LayerNorm((768,), eps=1e-12, elementwise_affine=True)
            (dropout): Dropout(p=0.1, inplace=False)
            (adapters): ModuleDict(
              (en): Adapter(
                (non_linearity): Activation_Function_Class(
                  (f): ReLU()
                )
                (adapter_down): Sequential(
                  (0): Linear(in_features=768, out_features=384, bias=True)
                  (1): Activation_Function_Class(
                    (f): ReLU()
                  )
                )
                (adapter_up): Linear(in_features=384, out_features=768, bias=True)
              )
              (es): Adapter(
                (non_linearity): Activation_Function_Class(
                  (f): NewGELUActivation()
                )
                (adapter_down): Sequential(
                  (0): Linear(in_features=768, out_features=384, bias=True)
                  (1): Activation_Function_Class(
                    (f): NewGELUActivation()
                  )
                )
                (adapter_up): Linear(in_features=384, out_features=768, bias=True)
              )
              (disrpt): Adapter(
                (non_linearity): Activation_Function_Class(
                  (f): ReLU()
                )
                (adapter_down): Sequential(
                  (0): Linear(in_features=768, out_features=48, bias=True)
                  (1): Activation_Function_Class(
                    (f): ReLU()
                  )
                )
                (adapter_up): Linear(in_features=48, out_features=768, bias=True)
              )
            )
            (adapter_fusion_layer): ModuleDict()
          )
        )
        (4): BertLayer(
          (attention): BertAttention(
            (self): BertSelfAttention(
              (query): Linear(
                in_features=768, out_features=768, bias=True
                (loras): ModuleDict()
              )
              (key): Linear(
                in_features=768, out_features=768, bias=True
                (loras): ModuleDict()
              )
              (value): Linear(
                in_features=768, out_features=768, bias=True
                (loras): ModuleDict()
              )
              (dropout): Dropout(p=0.1, inplace=False)
              (prefix_tuning): PrefixTuningShim(
                (prefix_gates): ModuleDict()
                (pool): PrefixTuningPool(
                  (prefix_tunings): ModuleDict()
                )
              )
            )
            (output): BertSelfOutput(
              (dense): Linear(in_features=768, out_features=768, bias=True)
              (LayerNorm): LayerNorm((768,), eps=1e-12, elementwise_affine=True)
              (dropout): Dropout(p=0.1, inplace=False)
              (adapters): ModuleDict()
              (adapter_fusion_layer): ModuleDict()
            )
          )
          (intermediate): BertIntermediate(
            (dense): Linear(
              in_features=768, out_features=3072, bias=True
              (loras): ModuleDict()
            )
            (intermediate_act_fn): GELUActivation()
          )
          (output): BertOutput(
            (dense): Linear(
              in_features=3072, out_features=768, bias=True
              (loras): ModuleDict()
            )
            (LayerNorm): LayerNorm((768,), eps=1e-12, elementwise_affine=True)
            (dropout): Dropout(p=0.1, inplace=False)
            (adapters): ModuleDict(
              (en): Adapter(
                (non_linearity): Activation_Function_Class(
                  (f): ReLU()
                )
                (adapter_down): Sequential(
                  (0): Linear(in_features=768, out_features=384, bias=True)
                  (1): Activation_Function_Class(
                    (f): ReLU()
                  )
                )
                (adapter_up): Linear(in_features=384, out_features=768, bias=True)
              )
              (es): Adapter(
                (non_linearity): Activation_Function_Class(
                  (f): NewGELUActivation()
                )
                (adapter_down): Sequential(
                  (0): Linear(in_features=768, out_features=384, bias=True)
                  (1): Activation_Function_Class(
                    (f): NewGELUActivation()
                  )
                )
                (adapter_up): Linear(in_features=384, out_features=768, bias=True)
              )
              (disrpt): Adapter(
                (non_linearity): Activation_Function_Class(
                  (f): ReLU()
                )
                (adapter_down): Sequential(
                  (0): Linear(in_features=768, out_features=48, bias=True)
                  (1): Activation_Function_Class(
                    (f): ReLU()
                  )
                )
                (adapter_up): Linear(in_features=48, out_features=768, bias=True)
              )
            )
            (adapter_fusion_layer): ModuleDict()
          )
        )
        (5): BertLayer(
          (attention): BertAttention(
            (self): BertSelfAttention(
              (query): Linear(
                in_features=768, out_features=768, bias=True
                (loras): ModuleDict()
              )
              (key): Linear(
                in_features=768, out_features=768, bias=True
                (loras): ModuleDict()
              )
              (value): Linear(
                in_features=768, out_features=768, bias=True
                (loras): ModuleDict()
              )
              (dropout): Dropout(p=0.1, inplace=False)
              (prefix_tuning): PrefixTuningShim(
                (prefix_gates): ModuleDict()
                (pool): PrefixTuningPool(
                  (prefix_tunings): ModuleDict()
                )
              )
            )
            (output): BertSelfOutput(
              (dense): Linear(in_features=768, out_features=768, bias=True)
              (LayerNorm): LayerNorm((768,), eps=1e-12, elementwise_affine=True)
              (dropout): Dropout(p=0.1, inplace=False)
              (adapters): ModuleDict()
              (adapter_fusion_layer): ModuleDict()
            )
          )
          (intermediate): BertIntermediate(
            (dense): Linear(
              in_features=768, out_features=3072, bias=True
              (loras): ModuleDict()
            )
            (intermediate_act_fn): GELUActivation()
          )
          (output): BertOutput(
            (dense): Linear(
              in_features=3072, out_features=768, bias=True
              (loras): ModuleDict()
            )
            (LayerNorm): LayerNorm((768,), eps=1e-12, elementwise_affine=True)
            (dropout): Dropout(p=0.1, inplace=False)
            (adapters): ModuleDict(
              (en): Adapter(
                (non_linearity): Activation_Function_Class(
                  (f): ReLU()
                )
                (adapter_down): Sequential(
                  (0): Linear(in_features=768, out_features=384, bias=True)
                  (1): Activation_Function_Class(
                    (f): ReLU()
                  )
                )
                (adapter_up): Linear(in_features=384, out_features=768, bias=True)
              )
              (es): Adapter(
                (non_linearity): Activation_Function_Class(
                  (f): NewGELUActivation()
                )
                (adapter_down): Sequential(
                  (0): Linear(in_features=768, out_features=384, bias=True)
                  (1): Activation_Function_Class(
                    (f): NewGELUActivation()
                  )
                )
                (adapter_up): Linear(in_features=384, out_features=768, bias=True)
              )
              (disrpt): Adapter(
                (non_linearity): Activation_Function_Class(
                  (f): ReLU()
                )
                (adapter_down): Sequential(
                  (0): Linear(in_features=768, out_features=48, bias=True)
                  (1): Activation_Function_Class(
                    (f): ReLU()
                  )
                )
                (adapter_up): Linear(in_features=48, out_features=768, bias=True)
              )
            )
            (adapter_fusion_layer): ModuleDict()
          )
        )
        (6): BertLayer(
          (attention): BertAttention(
            (self): BertSelfAttention(
              (query): Linear(
                in_features=768, out_features=768, bias=True
                (loras): ModuleDict()
              )
              (key): Linear(
                in_features=768, out_features=768, bias=True
                (loras): ModuleDict()
              )
              (value): Linear(
                in_features=768, out_features=768, bias=True
                (loras): ModuleDict()
              )
              (dropout): Dropout(p=0.1, inplace=False)
              (prefix_tuning): PrefixTuningShim(
                (prefix_gates): ModuleDict()
                (pool): PrefixTuningPool(
                  (prefix_tunings): ModuleDict()
                )
              )
            )
            (output): BertSelfOutput(
              (dense): Linear(in_features=768, out_features=768, bias=True)
              (LayerNorm): LayerNorm((768,), eps=1e-12, elementwise_affine=True)
              (dropout): Dropout(p=0.1, inplace=False)
              (adapters): ModuleDict()
              (adapter_fusion_layer): ModuleDict()
            )
          )
          (intermediate): BertIntermediate(
            (dense): Linear(
              in_features=768, out_features=3072, bias=True
              (loras): ModuleDict()
            )
            (intermediate_act_fn): GELUActivation()
          )
          (output): BertOutput(
            (dense): Linear(
              in_features=3072, out_features=768, bias=True
              (loras): ModuleDict()
            )
            (LayerNorm): LayerNorm((768,), eps=1e-12, elementwise_affine=True)
            (dropout): Dropout(p=0.1, inplace=False)
            (adapters): ModuleDict(
              (en): Adapter(
                (non_linearity): Activation_Function_Class(
                  (f): ReLU()
                )
                (adapter_down): Sequential(
                  (0): Linear(in_features=768, out_features=384, bias=True)
                  (1): Activation_Function_Class(
                    (f): ReLU()
                  )
                )
                (adapter_up): Linear(in_features=384, out_features=768, bias=True)
              )
              (es): Adapter(
                (non_linearity): Activation_Function_Class(
                  (f): NewGELUActivation()
                )
                (adapter_down): Sequential(
                  (0): Linear(in_features=768, out_features=384, bias=True)
                  (1): Activation_Function_Class(
                    (f): NewGELUActivation()
                  )
                )
                (adapter_up): Linear(in_features=384, out_features=768, bias=True)
              )
              (disrpt): Adapter(
                (non_linearity): Activation_Function_Class(
                  (f): ReLU()
                )
                (adapter_down): Sequential(
                  (0): Linear(in_features=768, out_features=48, bias=True)
                  (1): Activation_Function_Class(
                    (f): ReLU()
                  )
                )
                (adapter_up): Linear(in_features=48, out_features=768, bias=True)
              )
            )
            (adapter_fusion_layer): ModuleDict()
          )
        )
        (7): BertLayer(
          (attention): BertAttention(
            (self): BertSelfAttention(
              (query): Linear(
                in_features=768, out_features=768, bias=True
                (loras): ModuleDict()
              )
              (key): Linear(
                in_features=768, out_features=768, bias=True
                (loras): ModuleDict()
              )
              (value): Linear(
                in_features=768, out_features=768, bias=True
                (loras): ModuleDict()
              )
              (dropout): Dropout(p=0.1, inplace=False)
              (prefix_tuning): PrefixTuningShim(
                (prefix_gates): ModuleDict()
                (pool): PrefixTuningPool(
                  (prefix_tunings): ModuleDict()
                )
              )
            )
            (output): BertSelfOutput(
              (dense): Linear(in_features=768, out_features=768, bias=True)
              (LayerNorm): LayerNorm((768,), eps=1e-12, elementwise_affine=True)
              (dropout): Dropout(p=0.1, inplace=False)
              (adapters): ModuleDict()
              (adapter_fusion_layer): ModuleDict()
            )
          )
          (intermediate): BertIntermediate(
            (dense): Linear(
              in_features=768, out_features=3072, bias=True
              (loras): ModuleDict()
            )
            (intermediate_act_fn): GELUActivation()
          )
          (output): BertOutput(
            (dense): Linear(
              in_features=3072, out_features=768, bias=True
              (loras): ModuleDict()
            )
            (LayerNorm): LayerNorm((768,), eps=1e-12, elementwise_affine=True)
            (dropout): Dropout(p=0.1, inplace=False)
            (adapters): ModuleDict(
              (en): Adapter(
                (non_linearity): Activation_Function_Class(
                  (f): ReLU()
                )
                (adapter_down): Sequential(
                  (0): Linear(in_features=768, out_features=384, bias=True)
                  (1): Activation_Function_Class(
                    (f): ReLU()
                  )
                )
                (adapter_up): Linear(in_features=384, out_features=768, bias=True)
              )
              (es): Adapter(
                (non_linearity): Activation_Function_Class(
                  (f): NewGELUActivation()
                )
                (adapter_down): Sequential(
                  (0): Linear(in_features=768, out_features=384, bias=True)
                  (1): Activation_Function_Class(
                    (f): NewGELUActivation()
                  )
                )
                (adapter_up): Linear(in_features=384, out_features=768, bias=True)
              )
              (disrpt): Adapter(
                (non_linearity): Activation_Function_Class(
                  (f): ReLU()
                )
                (adapter_down): Sequential(
                  (0): Linear(in_features=768, out_features=48, bias=True)
                  (1): Activation_Function_Class(
                    (f): ReLU()
                  )
                )
                (adapter_up): Linear(in_features=48, out_features=768, bias=True)
              )
            )
            (adapter_fusion_layer): ModuleDict()
          )
        )
        (8): BertLayer(
          (attention): BertAttention(
            (self): BertSelfAttention(
              (query): Linear(
                in_features=768, out_features=768, bias=True
                (loras): ModuleDict()
              )
              (key): Linear(
                in_features=768, out_features=768, bias=True
                (loras): ModuleDict()
              )
              (value): Linear(
                in_features=768, out_features=768, bias=True
                (loras): ModuleDict()
              )
              (dropout): Dropout(p=0.1, inplace=False)
              (prefix_tuning): PrefixTuningShim(
                (prefix_gates): ModuleDict()
                (pool): PrefixTuningPool(
                  (prefix_tunings): ModuleDict()
                )
              )
            )
            (output): BertSelfOutput(
              (dense): Linear(in_features=768, out_features=768, bias=True)
              (LayerNorm): LayerNorm((768,), eps=1e-12, elementwise_affine=True)
              (dropout): Dropout(p=0.1, inplace=False)
              (adapters): ModuleDict()
              (adapter_fusion_layer): ModuleDict()
            )
          )
          (intermediate): BertIntermediate(
            (dense): Linear(
              in_features=768, out_features=3072, bias=True
              (loras): ModuleDict()
            )
            (intermediate_act_fn): GELUActivation()
          )
          (output): BertOutput(
            (dense): Linear(
              in_features=3072, out_features=768, bias=True
              (loras): ModuleDict()
            )
            (LayerNorm): LayerNorm((768,), eps=1e-12, elementwise_affine=True)
            (dropout): Dropout(p=0.1, inplace=False)
            (adapters): ModuleDict(
              (en): Adapter(
                (non_linearity): Activation_Function_Class(
                  (f): ReLU()
                )
                (adapter_down): Sequential(
                  (0): Linear(in_features=768, out_features=384, bias=True)
                  (1): Activation_Function_Class(
                    (f): ReLU()
                  )
                )
                (adapter_up): Linear(in_features=384, out_features=768, bias=True)
              )
              (es): Adapter(
                (non_linearity): Activation_Function_Class(
                  (f): NewGELUActivation()
                )
                (adapter_down): Sequential(
                  (0): Linear(in_features=768, out_features=384, bias=True)
                  (1): Activation_Function_Class(
                    (f): NewGELUActivation()
                  )
                )
                (adapter_up): Linear(in_features=384, out_features=768, bias=True)
              )
              (disrpt): Adapter(
                (non_linearity): Activation_Function_Class(
                  (f): ReLU()
                )
                (adapter_down): Sequential(
                  (0): Linear(in_features=768, out_features=48, bias=True)
                  (1): Activation_Function_Class(
                    (f): ReLU()
                  )
                )
                (adapter_up): Linear(in_features=48, out_features=768, bias=True)
              )
            )
            (adapter_fusion_layer): ModuleDict()
          )
        )
        (9): BertLayer(
          (attention): BertAttention(
            (self): BertSelfAttention(
              (query): Linear(
                in_features=768, out_features=768, bias=True
                (loras): ModuleDict()
              )
              (key): Linear(
                in_features=768, out_features=768, bias=True
                (loras): ModuleDict()
              )
              (value): Linear(
                in_features=768, out_features=768, bias=True
                (loras): ModuleDict()
              )
              (dropout): Dropout(p=0.1, inplace=False)
              (prefix_tuning): PrefixTuningShim(
                (prefix_gates): ModuleDict()
                (pool): PrefixTuningPool(
                  (prefix_tunings): ModuleDict()
                )
              )
            )
            (output): BertSelfOutput(
              (dense): Linear(in_features=768, out_features=768, bias=True)
              (LayerNorm): LayerNorm((768,), eps=1e-12, elementwise_affine=True)
              (dropout): Dropout(p=0.1, inplace=False)
              (adapters): ModuleDict()
              (adapter_fusion_layer): ModuleDict()
            )
          )
          (intermediate): BertIntermediate(
            (dense): Linear(
              in_features=768, out_features=3072, bias=True
              (loras): ModuleDict()
            )
            (intermediate_act_fn): GELUActivation()
          )
          (output): BertOutput(
            (dense): Linear(
              in_features=3072, out_features=768, bias=True
              (loras): ModuleDict()
            )
            (LayerNorm): LayerNorm((768,), eps=1e-12, elementwise_affine=True)
            (dropout): Dropout(p=0.1, inplace=False)
            (adapters): ModuleDict(
              (en): Adapter(
                (non_linearity): Activation_Function_Class(
                  (f): ReLU()
                )
                (adapter_down): Sequential(
                  (0): Linear(in_features=768, out_features=384, bias=True)
                  (1): Activation_Function_Class(
                    (f): ReLU()
                  )
                )
                (adapter_up): Linear(in_features=384, out_features=768, bias=True)
              )
              (es): Adapter(
                (non_linearity): Activation_Function_Class(
                  (f): NewGELUActivation()
                )
                (adapter_down): Sequential(
                  (0): Linear(in_features=768, out_features=384, bias=True)
                  (1): Activation_Function_Class(
                    (f): NewGELUActivation()
                  )
                )
                (adapter_up): Linear(in_features=384, out_features=768, bias=True)
              )
              (disrpt): Adapter(
                (non_linearity): Activation_Function_Class(
                  (f): ReLU()
                )
                (adapter_down): Sequential(
                  (0): Linear(in_features=768, out_features=48, bias=True)
                  (1): Activation_Function_Class(
                    (f): ReLU()
                  )
                )
                (adapter_up): Linear(in_features=48, out_features=768, bias=True)
              )
            )
            (adapter_fusion_layer): ModuleDict()
          )
        )
        (10): BertLayer(
          (attention): BertAttention(
            (self): BertSelfAttention(
              (query): Linear(
                in_features=768, out_features=768, bias=True
                (loras): ModuleDict()
              )
              (key): Linear(
                in_features=768, out_features=768, bias=True
                (loras): ModuleDict()
              )
              (value): Linear(
                in_features=768, out_features=768, bias=True
                (loras): ModuleDict()
              )
              (dropout): Dropout(p=0.1, inplace=False)
              (prefix_tuning): PrefixTuningShim(
                (prefix_gates): ModuleDict()
                (pool): PrefixTuningPool(
                  (prefix_tunings): ModuleDict()
                )
              )
            )
            (output): BertSelfOutput(
              (dense): Linear(in_features=768, out_features=768, bias=True)
              (LayerNorm): LayerNorm((768,), eps=1e-12, elementwise_affine=True)
              (dropout): Dropout(p=0.1, inplace=False)
              (adapters): ModuleDict()
              (adapter_fusion_layer): ModuleDict()
            )
          )
          (intermediate): BertIntermediate(
            (dense): Linear(
              in_features=768, out_features=3072, bias=True
              (loras): ModuleDict()
            )
            (intermediate_act_fn): GELUActivation()
          )
          (output): BertOutput(
            (dense): Linear(
              in_features=3072, out_features=768, bias=True
              (loras): ModuleDict()
            )
            (LayerNorm): LayerNorm((768,), eps=1e-12, elementwise_affine=True)
            (dropout): Dropout(p=0.1, inplace=False)
            (adapters): ModuleDict(
              (en): Adapter(
                (non_linearity): Activation_Function_Class(
                  (f): ReLU()
                )
                (adapter_down): Sequential(
                  (0): Linear(in_features=768, out_features=384, bias=True)
                  (1): Activation_Function_Class(
                    (f): ReLU()
                  )
                )
                (adapter_up): Linear(in_features=384, out_features=768, bias=True)
              )
              (es): Adapter(
                (non_linearity): Activation_Function_Class(
                  (f): NewGELUActivation()
                )
                (adapter_down): Sequential(
                  (0): Linear(in_features=768, out_features=384, bias=True)
                  (1): Activation_Function_Class(
                    (f): NewGELUActivation()
                  )
                )
                (adapter_up): Linear(in_features=384, out_features=768, bias=True)
              )
              (disrpt): Adapter(
                (non_linearity): Activation_Function_Class(
                  (f): ReLU()
                )
                (adapter_down): Sequential(
                  (0): Linear(in_features=768, out_features=48, bias=True)
                  (1): Activation_Function_Class(
                    (f): ReLU()
                  )
                )
                (adapter_up): Linear(in_features=48, out_features=768, bias=True)
              )
            )
            (adapter_fusion_layer): ModuleDict()
          )
        )
        (11): BertLayer(
          (attention): BertAttention(
            (self): BertSelfAttention(
              (query): Linear(
                in_features=768, out_features=768, bias=True
                (loras): ModuleDict()
              )
              (key): Linear(
                in_features=768, out_features=768, bias=True
                (loras): ModuleDict()
              )
              (value): Linear(
                in_features=768, out_features=768, bias=True
                (loras): ModuleDict()
              )
              (dropout): Dropout(p=0.1, inplace=False)
              (prefix_tuning): PrefixTuningShim(
                (prefix_gates): ModuleDict()
                (pool): PrefixTuningPool(
                  (prefix_tunings): ModuleDict()
                )
              )
            )
            (output): BertSelfOutput(
              (dense): Linear(in_features=768, out_features=768, bias=True)
              (LayerNorm): LayerNorm((768,), eps=1e-12, elementwise_affine=True)
              (dropout): Dropout(p=0.1, inplace=False)
              (adapters): ModuleDict()
              (adapter_fusion_layer): ModuleDict()
            )
          )
          (intermediate): BertIntermediate(
            (dense): Linear(
              in_features=768, out_features=3072, bias=True
              (loras): ModuleDict()
            )
            (intermediate_act_fn): GELUActivation()
          )
          (output): BertOutput(
            (dense): Linear(
              in_features=3072, out_features=768, bias=True
              (loras): ModuleDict()
            )
            (LayerNorm): LayerNorm((768,), eps=1e-12, elementwise_affine=True)
            (dropout): Dropout(p=0.1, inplace=False)
            (adapters): ModuleDict(
              (en): Adapter(
                (non_linearity): Activation_Function_Class(
                  (f): ReLU()
                )
                (adapter_down): Sequential(
                  (0): Linear(in_features=768, out_features=384, bias=True)
                  (1): Activation_Function_Class(
                    (f): ReLU()
                  )
                )
                (adapter_up): Linear(in_features=384, out_features=768, bias=True)
              )
              (es): Adapter(
                (non_linearity): Activation_Function_Class(
                  (f): NewGELUActivation()
                )
                (adapter_down): Sequential(
                  (0): Linear(in_features=768, out_features=384, bias=True)
                  (1): Activation_Function_Class(
                    (f): NewGELUActivation()
                  )
                )
                (adapter_up): Linear(in_features=384, out_features=768, bias=True)
              )
              (disrpt): Adapter(
                (non_linearity): Activation_Function_Class(
                  (f): ReLU()
                )
                (adapter_down): Sequential(
                  (0): Linear(in_features=768, out_features=48, bias=True)
                  (1): Activation_Function_Class(
                    (f): ReLU()
                  )
                )
                (adapter_up): Linear(in_features=48, out_features=768, bias=True)
              )
            )
            (adapter_fusion_layer): ModuleDict()
          )
        )
      )
    )
    (pooler): BertPooler(
      (dense): Linear(in_features=768, out_features=768, bias=True)
      (activation): Tanh()
    )
    (prefix_tuning): PrefixTuningPool(
      (prefix_tunings): ModuleDict()
    )
  )
  (heads): ModuleDict(
    (disrpt): ClassificationHead(
      (0): Dropout(p=0.1, inplace=False)
      (1): Linear(in_features=768, out_features=768, bias=True)
      (2): Activation_Function_Class(
        (f): Tanh()
      )
      (3): Dropout(p=0.1, inplace=False)
      (4): Linear(in_features=768, out_features=32, bias=True)
    )
  )
)
{'train@eng.rst.gum_loss': 2.6485824584960938, 'train@eng.rst.gum_accuracy@eng.rst.gum': 0.22616392027056198, 'train@eng.rst.gum_f1@eng.rst.gum': 0.023468956946332668, 'train@eng.rst.gum_precision@eng.rst.gum': 0.017916164249551975, 'train@eng.rst.gum_recall@eng.rst.gum': 0.046927229363660714, 'train@eng.rst.gum_loss@eng.rst.gum': 2.6485822200775146, 'train@eng.rst.gum_runtime': 166.2331, 'train@eng.rst.gum_samples_per_second': 83.599, 'train@eng.rst.gum_steps_per_second': 2.617, 'epoch': 1.0}
…
Lang1:  eng.rst.rstdt    Lang2:  spa.rst.rststb
Saving run to:  runs/SingleEpochPass=v4_eng.rst.rstdt_spa.rst.rststb_lrfunc=Adafactor_lr=2e-05_plm=bert-base-multilingual-cased
Running with params: BERT_MODEL=bert-base-multilingual-cased lr=2e-05
read 16002 examples
read 1621 examples
read 2155 examples
read 2240 examples
read 383 examples
read 426 examples
Total prediction labels:  37
BertAdapterModel(
  (shared_parameters): ModuleDict()
  (bert): BertModel(
    (shared_parameters): ModuleDict()
    (invertible_adapters): ModuleDict(
      (en): NICECouplingBlock(
        (F): Sequential(
          (0): Linear(in_features=384, out_features=192, bias=True)
          (1): Activation_Function_Class(
            (f): ReLU()
          )
          (2): Linear(in_features=192, out_features=384, bias=True)
        )
        (G): Sequential(
          (0): Linear(in_features=384, out_features=192, bias=True)
          (1): Activation_Function_Class(
            (f): ReLU()
          )
          (2): Linear(in_features=192, out_features=384, bias=True)
        )
      )
      (es): NICECouplingBlock(
        (F): Sequential(
          (0): Linear(in_features=384, out_features=192, bias=True)
          (1): Activation_Function_Class(
            (f): NewGELUActivation()
          )
          (2): Linear(in_features=192, out_features=384, bias=True)
        )
        (G): Sequential(
          (0): Linear(in_features=384, out_features=192, bias=True)
          (1): Activation_Function_Class(
            (f): NewGELUActivation()
          )
          (2): Linear(in_features=192, out_features=384, bias=True)
        )
      )
    )
    (embeddings): BertEmbeddings(
      (word_embeddings): Embedding(119547, 768, padding_idx=0)
      (position_embeddings): Embedding(512, 768)
      (token_type_embeddings): Embedding(2, 768)
      (LayerNorm): LayerNorm((768,), eps=1e-12, elementwise_affine=True)
      (dropout): Dropout(p=0.1, inplace=False)
    )
    (encoder): BertEncoder(
      (layer): ModuleList(
        (0): BertLayer(
          (attention): BertAttention(
            (self): BertSelfAttention(
              (query): Linear(
                in_features=768, out_features=768, bias=True
                (loras): ModuleDict()
              )
              (key): Linear(
                in_features=768, out_features=768, bias=True
                (loras): ModuleDict()
              )
              (value): Linear(
                in_features=768, out_features=768, bias=True
                (loras): ModuleDict()
              )
              (dropout): Dropout(p=0.1, inplace=False)
              (prefix_tuning): PrefixTuningShim(
                (prefix_gates): ModuleDict()
                (pool): PrefixTuningPool(
                  (prefix_tunings): ModuleDict()
                )
              )
            )
            (output): BertSelfOutput(
              (dense): Linear(in_features=768, out_features=768, bias=True)
              (LayerNorm): LayerNorm((768,), eps=1e-12, elementwise_affine=True)
              (dropout): Dropout(p=0.1, inplace=False)
              (adapters): ModuleDict()
              (adapter_fusion_layer): ModuleDict()
            )
          )
          (intermediate): BertIntermediate(
            (dense): Linear(
              in_features=768, out_features=3072, bias=True
              (loras): ModuleDict()
            )
            (intermediate_act_fn): GELUActivation()
          )
          (output): BertOutput(
            (dense): Linear(
              in_features=3072, out_features=768, bias=True
              (loras): ModuleDict()
            )
            (LayerNorm): LayerNorm((768,), eps=1e-12, elementwise_affine=True)
            (dropout): Dropout(p=0.1, inplace=False)
            (adapters): ModuleDict(
              (en): Adapter(
                (non_linearity): Activation_Function_Class(
                  (f): ReLU()
                )
                (adapter_down): Sequential(
                  (0): Linear(in_features=768, out_features=384, bias=True)
                  (1): Activation_Function_Class(
                    (f): ReLU()
                  )
                )
                (adapter_up): Linear(in_features=384, out_features=768, bias=True)
              )
              (es): Adapter(
                (non_linearity): Activation_Function_Class(
                  (f): NewGELUActivation()
                )
                (adapter_down): Sequential(
                  (0): Linear(in_features=768, out_features=384, bias=True)
                  (1): Activation_Function_Class(
                    (f): NewGELUActivation()
                  )
                )
                (adapter_up): Linear(in_features=384, out_features=768, bias=True)
              )
              (disrpt): Adapter(
                (non_linearity): Activation_Function_Class(
                  (f): ReLU()
                )
                (adapter_down): Sequential(
                  (0): Linear(in_features=768, out_features=48, bias=True)
                  (1): Activation_Function_Class(
                    (f): ReLU()
                  )
                )
                (adapter_up): Linear(in_features=48, out_features=768, bias=True)
              )
            )
            (adapter_fusion_layer): ModuleDict()
          )
        )
        (1): BertLayer(
          (attention): BertAttention(
            (self): BertSelfAttention(
              (query): Linear(
                in_features=768, out_features=768, bias=True
                (loras): ModuleDict()
              )
              (key): Linear(
                in_features=768, out_features=768, bias=True
                (loras): ModuleDict()
              )
              (value): Linear(
                in_features=768, out_features=768, bias=True
                (loras): ModuleDict()
              )
              (dropout): Dropout(p=0.1, inplace=False)
              (prefix_tuning): PrefixTuningShim(
                (prefix_gates): ModuleDict()
                (pool): PrefixTuningPool(
                  (prefix_tunings): ModuleDict()
                )
              )
            )
            (output): BertSelfOutput(
              (dense): Linear(in_features=768, out_features=768, bias=True)
              (LayerNorm): LayerNorm((768,), eps=1e-12, elementwise_affine=True)
              (dropout): Dropout(p=0.1, inplace=False)
              (adapters): ModuleDict()
              (adapter_fusion_layer): ModuleDict()
            )
          )
          (intermediate): BertIntermediate(
            (dense): Linear(
              in_features=768, out_features=3072, bias=True
              (loras): ModuleDict()
            )
            (intermediate_act_fn): GELUActivation()
          )
          (output): BertOutput(
            (dense): Linear(
              in_features=3072, out_features=768, bias=True
              (loras): ModuleDict()
            )
            (LayerNorm): LayerNorm((768,), eps=1e-12, elementwise_affine=True)
            (dropout): Dropout(p=0.1, inplace=False)
            (adapters): ModuleDict(
              (en): Adapter(
                (non_linearity): Activation_Function_Class(
                  (f): ReLU()
                )
                (adapter_down): Sequential(
                  (0): Linear(in_features=768, out_features=384, bias=True)
                  (1): Activation_Function_Class(
                    (f): ReLU()
                  )
                )
                (adapter_up): Linear(in_features=384, out_features=768, bias=True)
              )
              (es): Adapter(
                (non_linearity): Activation_Function_Class(
                  (f): NewGELUActivation()
                )
                (adapter_down): Sequential(
                  (0): Linear(in_features=768, out_features=384, bias=True)
                  (1): Activation_Function_Class(
                    (f): NewGELUActivation()
                  )
                )
                (adapter_up): Linear(in_features=384, out_features=768, bias=True)
              )
              (disrpt): Adapter(
                (non_linearity): Activation_Function_Class(
                  (f): ReLU()
                )
                (adapter_down): Sequential(
                  (0): Linear(in_features=768, out_features=48, bias=True)
                  (1): Activation_Function_Class(
                    (f): ReLU()
                  )
                )
                (adapter_up): Linear(in_features=48, out_features=768, bias=True)
              )
            )
            (adapter_fusion_layer): ModuleDict()
          )
        )
        (2): BertLayer(
          (attention): BertAttention(
            (self): BertSelfAttention(
              (query): Linear(
                in_features=768, out_features=768, bias=True
                (loras): ModuleDict()
              )
              (key): Linear(
                in_features=768, out_features=768, bias=True
                (loras): ModuleDict()
              )
              (value): Linear(
                in_features=768, out_features=768, bias=True
                (loras): ModuleDict()
              )
              (dropout): Dropout(p=0.1, inplace=False)
              (prefix_tuning): PrefixTuningShim(
                (prefix_gates): ModuleDict()
                (pool): PrefixTuningPool(
                  (prefix_tunings): ModuleDict()
                )
              )
            )
            (output): BertSelfOutput(
              (dense): Linear(in_features=768, out_features=768, bias=True)
              (LayerNorm): LayerNorm((768,), eps=1e-12, elementwise_affine=True)
              (dropout): Dropout(p=0.1, inplace=False)
              (adapters): ModuleDict()
              (adapter_fusion_layer): ModuleDict()
            )
          )
          (intermediate): BertIntermediate(
            (dense): Linear(
              in_features=768, out_features=3072, bias=True
              (loras): ModuleDict()
            )
            (intermediate_act_fn): GELUActivation()
          )
          (output): BertOutput(
            (dense): Linear(
              in_features=3072, out_features=768, bias=True
              (loras): ModuleDict()
            )
            (LayerNorm): LayerNorm((768,), eps=1e-12, elementwise_affine=True)
            (dropout): Dropout(p=0.1, inplace=False)
            (adapters): ModuleDict(
              (en): Adapter(
                (non_linearity): Activation_Function_Class(
                  (f): ReLU()
                )
                (adapter_down): Sequential(
                  (0): Linear(in_features=768, out_features=384, bias=True)
                  (1): Activation_Function_Class(
                    (f): ReLU()
                  )
                )
                (adapter_up): Linear(in_features=384, out_features=768, bias=True)
              )
              (es): Adapter(
                (non_linearity): Activation_Function_Class(
                  (f): NewGELUActivation()
                )
                (adapter_down): Sequential(
                  (0): Linear(in_features=768, out_features=384, bias=True)
                  (1): Activation_Function_Class(
                    (f): NewGELUActivation()
                  )
                )
                (adapter_up): Linear(in_features=384, out_features=768, bias=True)
              )
              (disrpt): Adapter(
                (non_linearity): Activation_Function_Class(
                  (f): ReLU()
                )
                (adapter_down): Sequential(
                  (0): Linear(in_features=768, out_features=48, bias=True)
                  (1): Activation_Function_Class(
                    (f): ReLU()
                  )
                )
                (adapter_up): Linear(in_features=48, out_features=768, bias=True)
              )
            )
            (adapter_fusion_layer): ModuleDict()
          )
        )
        (3): BertLayer(
          (attention): BertAttention(
            (self): BertSelfAttention(
              (query): Linear(
                in_features=768, out_features=768, bias=True
                (loras): ModuleDict()
              )
              (key): Linear(
                in_features=768, out_features=768, bias=True
                (loras): ModuleDict()
              )
              (value): Linear(
                in_features=768, out_features=768, bias=True
                (loras): ModuleDict()
              )
              (dropout): Dropout(p=0.1, inplace=False)
              (prefix_tuning): PrefixTuningShim(
                (prefix_gates): ModuleDict()
                (pool): PrefixTuningPool(
                  (prefix_tunings): ModuleDict()
                )
              )
            )
            (output): BertSelfOutput(
              (dense): Linear(in_features=768, out_features=768, bias=True)
              (LayerNorm): LayerNorm((768,), eps=1e-12, elementwise_affine=True)
              (dropout): Dropout(p=0.1, inplace=False)
              (adapters): ModuleDict()
              (adapter_fusion_layer): ModuleDict()
            )
          )
          (intermediate): BertIntermediate(
            (dense): Linear(
              in_features=768, out_features=3072, bias=True
              (loras): ModuleDict()
            )
            (intermediate_act_fn): GELUActivation()
          )
          (output): BertOutput(
            (dense): Linear(
              in_features=3072, out_features=768, bias=True
              (loras): ModuleDict()
            )
            (LayerNorm): LayerNorm((768,), eps=1e-12, elementwise_affine=True)
            (dropout): Dropout(p=0.1, inplace=False)
            (adapters): ModuleDict(
              (en): Adapter(
                (non_linearity): Activation_Function_Class(
                  (f): ReLU()
                )
                (adapter_down): Sequential(
                  (0): Linear(in_features=768, out_features=384, bias=True)
                  (1): Activation_Function_Class(
                    (f): ReLU()
                  )
                )
                (adapter_up): Linear(in_features=384, out_features=768, bias=True)
              )
              (es): Adapter(
                (non_linearity): Activation_Function_Class(
                  (f): NewGELUActivation()
                )
                (adapter_down): Sequential(
                  (0): Linear(in_features=768, out_features=384, bias=True)
                  (1): Activation_Function_Class(
                    (f): NewGELUActivation()
                  )
                )
                (adapter_up): Linear(in_features=384, out_features=768, bias=True)
              )
              (disrpt): Adapter(
                (non_linearity): Activation_Function_Class(
                  (f): ReLU()
                )
                (adapter_down): Sequential(
                  (0): Linear(in_features=768, out_features=48, bias=True)
                  (1): Activation_Function_Class(
                    (f): ReLU()
                  )
                )
                (adapter_up): Linear(in_features=48, out_features=768, bias=True)
              )
            )
            (adapter_fusion_layer): ModuleDict()
          )
        )
        (4): BertLayer(
          (attention): BertAttention(
            (self): BertSelfAttention(
              (query): Linear(
                in_features=768, out_features=768, bias=True
                (loras): ModuleDict()
              )
              (key): Linear(
                in_features=768, out_features=768, bias=True
                (loras): ModuleDict()
              )
              (value): Linear(
                in_features=768, out_features=768, bias=True
                (loras): ModuleDict()
              )
              (dropout): Dropout(p=0.1, inplace=False)
              (prefix_tuning): PrefixTuningShim(
                (prefix_gates): ModuleDict()
                (pool): PrefixTuningPool(
                  (prefix_tunings): ModuleDict()
                )
              )
            )
            (output): BertSelfOutput(
              (dense): Linear(in_features=768, out_features=768, bias=True)
              (LayerNorm): LayerNorm((768,), eps=1e-12, elementwise_affine=True)
              (dropout): Dropout(p=0.1, inplace=False)
              (adapters): ModuleDict()
              (adapter_fusion_layer): ModuleDict()
            )
          )
          (intermediate): BertIntermediate(
            (dense): Linear(
              in_features=768, out_features=3072, bias=True
              (loras): ModuleDict()
            )
            (intermediate_act_fn): GELUActivation()
          )
          (output): BertOutput(
            (dense): Linear(
              in_features=3072, out_features=768, bias=True
              (loras): ModuleDict()
            )
            (LayerNorm): LayerNorm((768,), eps=1e-12, elementwise_affine=True)
            (dropout): Dropout(p=0.1, inplace=False)
            (adapters): ModuleDict(
              (en): Adapter(
                (non_linearity): Activation_Function_Class(
                  (f): ReLU()
                )
                (adapter_down): Sequential(
                  (0): Linear(in_features=768, out_features=384, bias=True)
                  (1): Activation_Function_Class(
                    (f): ReLU()
                  )
                )
                (adapter_up): Linear(in_features=384, out_features=768, bias=True)
              )
              (es): Adapter(
                (non_linearity): Activation_Function_Class(
                  (f): NewGELUActivation()
                )
                (adapter_down): Sequential(
                  (0): Linear(in_features=768, out_features=384, bias=True)
                  (1): Activation_Function_Class(
                    (f): NewGELUActivation()
                  )
                )
                (adapter_up): Linear(in_features=384, out_features=768, bias=True)
              )
              (disrpt): Adapter(
                (non_linearity): Activation_Function_Class(
                  (f): ReLU()
                )
                (adapter_down): Sequential(
                  (0): Linear(in_features=768, out_features=48, bias=True)
                  (1): Activation_Function_Class(
                    (f): ReLU()
                  )
                )
                (adapter_up): Linear(in_features=48, out_features=768, bias=True)
              )
            )
            (adapter_fusion_layer): ModuleDict()
          )
        )
        (5): BertLayer(
          (attention): BertAttention(
            (self): BertSelfAttention(
              (query): Linear(
                in_features=768, out_features=768, bias=True
                (loras): ModuleDict()
              )
              (key): Linear(
                in_features=768, out_features=768, bias=True
                (loras): ModuleDict()
              )
              (value): Linear(
                in_features=768, out_features=768, bias=True
                (loras): ModuleDict()
              )
              (dropout): Dropout(p=0.1, inplace=False)
              (prefix_tuning): PrefixTuningShim(
                (prefix_gates): ModuleDict()
                (pool): PrefixTuningPool(
                  (prefix_tunings): ModuleDict()
                )
              )
            )
            (output): BertSelfOutput(
              (dense): Linear(in_features=768, out_features=768, bias=True)
              (LayerNorm): LayerNorm((768,), eps=1e-12, elementwise_affine=True)
              (dropout): Dropout(p=0.1, inplace=False)
              (adapters): ModuleDict()
              (adapter_fusion_layer): ModuleDict()
            )
          )
          (intermediate): BertIntermediate(
            (dense): Linear(
              in_features=768, out_features=3072, bias=True
              (loras): ModuleDict()
            )
            (intermediate_act_fn): GELUActivation()
          )
          (output): BertOutput(
            (dense): Linear(
              in_features=3072, out_features=768, bias=True
              (loras): ModuleDict()
            )
            (LayerNorm): LayerNorm((768,), eps=1e-12, elementwise_affine=True)
            (dropout): Dropout(p=0.1, inplace=False)
            (adapters): ModuleDict(
              (en): Adapter(
                (non_linearity): Activation_Function_Class(
                  (f): ReLU()
                )
                (adapter_down): Sequential(
                  (0): Linear(in_features=768, out_features=384, bias=True)
                  (1): Activation_Function_Class(
                    (f): ReLU()
                  )
                )
                (adapter_up): Linear(in_features=384, out_features=768, bias=True)
              )
              (es): Adapter(
…
              (LayerNorm): LayerNorm((768,), eps=1e-12, elementwise_affine=True)
              (dropout): Dropout(p=0.1, inplace=False)
              (adapters): ModuleDict()
              (adapter_fusion_layer): ModuleDict()
            )
          )
          (intermediate): BertIntermediate(
            (dense): Linear(
              in_features=768, out_features=3072, bias=True
              (loras): ModuleDict()
            )
            (intermediate_act_fn): GELUActivation()
          )
          (output): BertOutput(
            (dense): Linear(
              in_features=3072, out_features=768, bias=True
              (loras): ModuleDict()
            )
            (LayerNorm): LayerNorm((768,), eps=1e-12, elementwise_affine=True)
            (dropout): Dropout(p=0.1, inplace=False)
            (adapters): ModuleDict(
              (tr): Adapter(
                (non_linearity): Activation_Function_Class(
                  (f): NewGELUActivation()
                )
                (adapter_down): Sequential(
                  (0): Linear(in_features=768, out_features=384, bias=True)
                  (1): Activation_Function_Class(
                    (f): NewGELUActivation()
                  )
                )
                (adapter_up): Linear(in_features=384, out_features=768, bias=True)
              )
              (es): Adapter(
                (non_linearity): Activation_Function_Class(
                  (f): NewGELUActivation()
                )
                (adapter_down): Sequential(
                  (0): Linear(in_features=768, out_features=384, bias=True)
                  (1): Activation_Function_Class(
                    (f): NewGELUActivation()
                  )
                )
                (adapter_up): Linear(in_features=384, out_features=768, bias=True)
              )
              (disrpt): Adapter(
                (non_linearity): Activation_Function_Class(
                  (f): ReLU()
                )
                (adapter_down): Sequential(
                  (0): Linear(in_features=768, out_features=48, bias=True)
                  (1): Activation_Function_Class(
                    (f): ReLU()
                  )
                )
                (adapter_up): Linear(in_features=48, out_features=768, bias=True)
              )
            )
            (adapter_fusion_layer): ModuleDict()
          )
        )
        (11): BertLayer(
          (attention): BertAttention(
            (self): BertSelfAttention(
              (query): Linear(
                in_features=768, out_features=768, bias=True
                (loras): ModuleDict()
              )
              (key): Linear(
                in_features=768, out_features=768, bias=True
                (loras): ModuleDict()
              )
              (value): Linear(
                in_features=768, out_features=768, bias=True
                (loras): ModuleDict()
              )
              (dropout): Dropout(p=0.1, inplace=False)
              (prefix_tuning): PrefixTuningShim(
                (prefix_gates): ModuleDict()
                (pool): PrefixTuningPool(
                  (prefix_tunings): ModuleDict()
                )
              )
            )
            (output): BertSelfOutput(
              (dense): Linear(in_features=768, out_features=768, bias=True)
              (LayerNorm): LayerNorm((768,), eps=1e-12, elementwise_affine=True)
              (dropout): Dropout(p=0.1, inplace=False)
              (adapters): ModuleDict()
              (adapter_fusion_layer): ModuleDict()
            )
          )
          (intermediate): BertIntermediate(
            (dense): Linear(
              in_features=768, out_features=3072, bias=True
              (loras): ModuleDict()
            )
            (intermediate_act_fn): GELUActivation()
          )
          (output): BertOutput(
            (dense): Linear(
              in_features=3072, out_features=768, bias=True
              (loras): ModuleDict()
            )
            (LayerNorm): LayerNorm((768,), eps=1e-12, elementwise_affine=True)
            (dropout): Dropout(p=0.1, inplace=False)
            (adapters): ModuleDict(
              (tr): Adapter(
                (non_linearity): Activation_Function_Class(
                  (f): NewGELUActivation()
                )
                (adapter_down): Sequential(
                  (0): Linear(in_features=768, out_features=384, bias=True)
                  (1): Activation_Function_Class(
                    (f): NewGELUActivation()
                  )
                )
                (adapter_up): Linear(in_features=384, out_features=768, bias=True)
              )
              (es): Adapter(
                (non_linearity): Activation_Function_Class(
                  (f): NewGELUActivation()
                )
                (adapter_down): Sequential(
                  (0): Linear(in_features=768, out_features=384, bias=True)
                  (1): Activation_Function_Class(
                    (f): NewGELUActivation()
                  )
                )
                (adapter_up): Linear(in_features=384, out_features=768, bias=True)
              )
              (disrpt): Adapter(
                (non_linearity): Activation_Function_Class(
                  (f): ReLU()
                )
                (adapter_down): Sequential(
                  (0): Linear(in_features=768, out_features=48, bias=True)
                  (1): Activation_Function_Class(
                    (f): ReLU()
                  )
                )
                (adapter_up): Linear(in_features=48, out_features=768, bias=True)
              )
            )
            (adapter_fusion_layer): ModuleDict()
          )
        )
      )
    )
    (pooler): BertPooler(
      (dense): Linear(in_features=768, out_features=768, bias=True)
      (activation): Tanh()
    )
    (prefix_tuning): PrefixTuningPool(
      (prefix_tunings): ModuleDict()
    )
  )
  (heads): ModuleDict(
    (tr): BertStyleMaskedLMHead(
      (0): Linear(in_features=768, out_features=768, bias=True)
      (1): Activation_Function_Class(
        (f): GELUActivation()
      )
      (2): LayerNorm((768,), eps=1e-12, elementwise_affine=True)
      (3): Linear(in_features=768, out_features=119547, bias=True)
    )
    (disrpt): ClassificationHead(
      (0): Dropout(p=0.1, inplace=False)
      (1): Linear(in_features=768, out_features=768, bias=True)
      (2): Activation_Function_Class(
        (f): Tanh()
      )
      (3): Dropout(p=0.1, inplace=False)
      (4): Linear(in_features=768, out_features=52, bias=True)
    )
  )
)
{'train@tur.pdtb.tdb_loss': 3.418813467025757, 'train@tur.pdtb.tdb_accuracy@tur.pdtb.tdb': 0.25050999592003265, 'train@tur.pdtb.tdb_f1@tur.pdtb.tdb': 0.01741967515426626, 'train@tur.pdtb.tdb_precision@tur.pdtb.tdb': 0.010891738953044898, 'train@tur.pdtb.tdb_recall@tur.pdtb.tdb': 0.043478260869565216, 'train@tur.pdtb.tdb_loss@tur.pdtb.tdb': 3.418813467025757, 'train@tur.pdtb.tdb_runtime': 30.0608, 'train@tur.pdtb.tdb_samples_per_second': 81.535, 'train@tur.pdtb.tdb_steps_per_second': 2.561, 'epoch': 1.0}
…
Lang1:  zho.rst.sctb    Lang2:  spa.rst.rststb
Saving run to:  runs/SingleEpochPass=v4_zho.rst.sctb_spa.rst.rststb_lrfunc=Adafactor_lr=2e-05_plm=bert-base-multilingual-cased
Running with params: BERT_MODEL=bert-base-multilingual-cased lr=2e-05
read 439 examples
read 94 examples
read 159 examples
read 2240 examples
read 383 examples
read 426 examples
Total prediction labels:  30
BertAdapterModel(
  (shared_parameters): ModuleDict()
  (bert): BertModel(
    (shared_parameters): ModuleDict()
    (invertible_adapters): ModuleDict(
      (zh): NICECouplingBlock(
        (F): Sequential(
          (0): Linear(in_features=384, out_features=192, bias=True)
          (1): Activation_Function_Class(
            (f): ReLU()
          )
          (2): Linear(in_features=192, out_features=384, bias=True)
        )
        (G): Sequential(
          (0): Linear(in_features=384, out_features=192, bias=True)
          (1): Activation_Function_Class(
            (f): ReLU()
          )
          (2): Linear(in_features=192, out_features=384, bias=True)
        )
      )
      (es): NICECouplingBlock(
        (F): Sequential(
          (0): Linear(in_features=384, out_features=192, bias=True)
          (1): Activation_Function_Class(
            (f): NewGELUActivation()
          )
          (2): Linear(in_features=192, out_features=384, bias=True)
        )
        (G): Sequential(
          (0): Linear(in_features=384, out_features=192, bias=True)
          (1): Activation_Function_Class(
            (f): NewGELUActivation()
          )
          (2): Linear(in_features=192, out_features=384, bias=True)
        )
      )
    )
    (embeddings): BertEmbeddings(
      (word_embeddings): Embedding(119547, 768, padding_idx=0)
      (position_embeddings): Embedding(512, 768)
      (token_type_embeddings): Embedding(2, 768)
      (LayerNorm): LayerNorm((768,), eps=1e-12, elementwise_affine=True)
      (dropout): Dropout(p=0.1, inplace=False)
    )
    (encoder): BertEncoder(
      (layer): ModuleList(
        (0): BertLayer(
          (attention): BertAttention(
            (self): BertSelfAttention(
              (query): Linear(
                in_features=768, out_features=768, bias=True
                (loras): ModuleDict()
              )
              (key): Linear(
                in_features=768, out_features=768, bias=True
                (loras): ModuleDict()
              )
              (value): Linear(
                in_features=768, out_features=768, bias=True
                (loras): ModuleDict()
              )
              (dropout): Dropout(p=0.1, inplace=False)
              (prefix_tuning): PrefixTuningShim(
                (prefix_gates): ModuleDict()
                (pool): PrefixTuningPool(
                  (prefix_tunings): ModuleDict()
                )
              )
            )
            (output): BertSelfOutput(
              (dense): Linear(in_features=768, out_features=768, bias=True)
              (LayerNorm): LayerNorm((768,), eps=1e-12, elementwise_affine=True)
              (dropout): Dropout(p=0.1, inplace=False)
              (adapters): ModuleDict()
              (adapter_fusion_layer): ModuleDict()
            )
          )
          (intermediate): BertIntermediate(
            (dense): Linear(
              in_features=768, out_features=3072, bias=True
              (loras): ModuleDict()
            )
            (intermediate_act_fn): GELUActivation()
          )
          (output): BertOutput(
            (dense): Linear(
              in_features=3072, out_features=768, bias=True
              (loras): ModuleDict()
            )
            (LayerNorm): LayerNorm((768,), eps=1e-12, elementwise_affine=True)
            (dropout): Dropout(p=0.1, inplace=False)
            (adapters): ModuleDict(
              (zh): Adapter(
                (non_linearity): Activation_Function_Class(
                  (f): ReLU()
                )
                (adapter_down): Sequential(
                  (0): Linear(in_features=768, out_features=384, bias=True)
                  (1): Activation_Function_Class(
                    (f): ReLU()
                  )
                )
                (adapter_up): Linear(in_features=384, out_features=768, bias=True)
              )
              (es): Adapter(
                (non_linearity): Activation_Function_Class(
                  (f): NewGELUActivation()
                )
                (adapter_down): Sequential(
                  (0): Linear(in_features=768, out_features=384, bias=True)
                  (1): Activation_Function_Class(
                    (f): NewGELUActivation()
                  )
                )
                (adapter_up): Linear(in_features=384, out_features=768, bias=True)
              )
              (disrpt): Adapter(
                (non_linearity): Activation_Function_Class(
                  (f): ReLU()
                )
                (adapter_down): Sequential(
                  (0): Linear(in_features=768, out_features=48, bias=True)
                  (1): Activation_Function_Class(
                    (f): ReLU()
                  )
                )
                (adapter_up): Linear(in_features=48, out_features=768, bias=True)
              )
            )
            (adapter_fusion_layer): ModuleDict()
          )
        )
        (1): BertLayer(
          (attention): BertAttention(
            (self): BertSelfAttention(
              (query): Linear(
                in_features=768, out_features=768, bias=True
                (loras): ModuleDict()
              )
              (key): Linear(
                in_features=768, out_features=768, bias=True
                (loras): ModuleDict()
              )
              (value): Linear(
                in_features=768, out_features=768, bias=True
                (loras): ModuleDict()
              )
              (dropout): Dropout(p=0.1, inplace=False)
              (prefix_tuning): PrefixTuningShim(
                (prefix_gates): ModuleDict()
                (pool): PrefixTuningPool(
                  (prefix_tunings): ModuleDict()
                )
              )
            )
            (output): BertSelfOutput(
              (dense): Linear(in_features=768, out_features=768, bias=True)
              (LayerNorm): LayerNorm((768,), eps=1e-12, elementwise_affine=True)
              (dropout): Dropout(p=0.1, inplace=False)
              (adapters): ModuleDict()
              (adapter_fusion_layer): ModuleDict()
            )
          )
          (intermediate): BertIntermediate(
            (dense): Linear(
              in_features=768, out_features=3072, bias=True
              (loras): ModuleDict()
            )
            (intermediate_act_fn): GELUActivation()
          )
          (output): BertOutput(
            (dense): Linear(
              in_features=3072, out_features=768, bias=True
              (loras): ModuleDict()
            )
            (LayerNorm): LayerNorm((768,), eps=1e-12, elementwise_affine=True)
            (dropout): Dropout(p=0.1, inplace=False)
            (adapters): ModuleDict(
              (zh): Adapter(
                (non_linearity): Activation_Function_Class(
                  (f): ReLU()
                )
                (adapter_down): Sequential(
                  (0): Linear(in_features=768, out_features=384, bias=True)
                  (1): Activation_Function_Class(
                    (f): ReLU()
                  )
                )
                (adapter_up): Linear(in_features=384, out_features=768, bias=True)
              )
              (es): Adapter(
                (non_linearity): Activation_Function_Class(
                  (f): NewGELUActivation()
                )
                (adapter_down): Sequential(
                  (0): Linear(in_features=768, out_features=384, bias=True)
                  (1): Activation_Function_Class(
                    (f): NewGELUActivation()
                  )
                )
                (adapter_up): Linear(in_features=384, out_features=768, bias=True)
              )
              (disrpt): Adapter(
                (non_linearity): Activation_Function_Class(
                  (f): ReLU()
                )
                (adapter_down): Sequential(
                  (0): Linear(in_features=768, out_features=48, bias=True)
                  (1): Activation_Function_Class(
                    (f): ReLU()
                  )
                )
                (adapter_up): Linear(in_features=48, out_features=768, bias=True)
              )
            )
            (adapter_fusion_layer): ModuleDict()
          )
        )
        (2): BertLayer(
          (attention): BertAttention(
            (self): BertSelfAttention(
              (query): Linear(
                in_features=768, out_features=768, bias=True
                (loras): ModuleDict()
              )
              (key): Linear(
                in_features=768, out_features=768, bias=True
                (loras): ModuleDict()
              )
              (value): Linear(
                in_features=768, out_features=768, bias=True
                (loras): ModuleDict()
              )
              (dropout): Dropout(p=0.1, inplace=False)
              (prefix_tuning): PrefixTuningShim(
                (prefix_gates): ModuleDict()
                (pool): PrefixTuningPool(
                  (prefix_tunings): ModuleDict()
                )
              )
            )
            (output): BertSelfOutput(
              (dense): Linear(in_features=768, out_features=768, bias=True)
              (LayerNorm): LayerNorm((768,), eps=1e-12, elementwise_affine=True)
              (dropout): Dropout(p=0.1, inplace=False)
              (adapters): ModuleDict()
              (adapter_fusion_layer): ModuleDict()
            )
          )
          (intermediate): BertIntermediate(
            (dense): Linear(
              in_features=768, out_features=3072, bias=True
              (loras): ModuleDict()
            )
            (intermediate_act_fn): GELUActivation()
          )
          (output): BertOutput(
            (dense): Linear(
              in_features=3072, out_features=768, bias=True
              (loras): ModuleDict()
            )
            (LayerNorm): LayerNorm((768,), eps=1e-12, elementwise_affine=True)
            (dropout): Dropout(p=0.1, inplace=False)
            (adapters): ModuleDict(
              (zh): Adapter(
                (non_linearity): Activation_Function_Class(
                  (f): ReLU()
                )
                (adapter_down): Sequential(
                  (0): Linear(in_features=768, out_features=384, bias=True)
                  (1): Activation_Function_Class(
                    (f): ReLU()
                  )
                )
                (adapter_up): Linear(in_features=384, out_features=768, bias=True)
              )
              (es): Adapter(
                (non_linearity): Activation_Function_Class(
                  (f): NewGELUActivation()
                )
                (adapter_down): Sequential(
                  (0): Linear(in_features=768, out_features=384, bias=True)
                  (1): Activation_Function_Class(
                    (f): NewGELUActivation()
                  )
                )
                (adapter_up): Linear(in_features=384, out_features=768, bias=True)
              )
              (disrpt): Adapter(
                (non_linearity): Activation_Function_Class(
                  (f): ReLU()
                )
                (adapter_down): Sequential(
                  (0): Linear(in_features=768, out_features=48, bias=True)
                  (1): Activation_Function_Class(
                    (f): ReLU()
                  )
                )
                (adapter_up): Linear(in_features=48, out_features=768, bias=True)
              )
            )
            (adapter_fusion_layer): ModuleDict()
          )
        )
        (3): BertLayer(
          (attention): BertAttention(
            (self): BertSelfAttention(
              (query): Linear(
                in_features=768, out_features=768, bias=True
                (loras): ModuleDict()
              )
              (key): Linear(
                in_features=768, out_features=768, bias=True
                (loras): ModuleDict()
              )
              (value): Linear(
                in_features=768, out_features=768, bias=True
                (loras): ModuleDict()
              )
              (dropout): Dropout(p=0.1, inplace=False)
              (prefix_tuning): PrefixTuningShim(
                (prefix_gates): ModuleDict()
                (pool): PrefixTuningPool(
                  (prefix_tunings): ModuleDict()
                )
              )
            )
            (output): BertSelfOutput(
              (dense): Linear(in_features=768, out_features=768, bias=True)
              (LayerNorm): LayerNorm((768,), eps=1e-12, elementwise_affine=True)
              (dropout): Dropout(p=0.1, inplace=False)
              (adapters): ModuleDict()
              (adapter_fusion_layer): ModuleDict()
            )
          )
          (intermediate): BertIntermediate(
            (dense): Linear(
              in_features=768, out_features=3072, bias=True
              (loras): ModuleDict()
            )
            (intermediate_act_fn): GELUActivation()
          )
          (output): BertOutput(
            (dense): Linear(
              in_features=3072, out_features=768, bias=True
              (loras): ModuleDict()
            )
            (LayerNorm): LayerNorm((768,), eps=1e-12, elementwise_affine=True)
            (dropout): Dropout(p=0.1, inplace=False)
            (adapters): ModuleDict(
              (zh): Adapter(
                (non_linearity): Activation_Function_Class(
                  (f): ReLU()
                )
                (adapter_down): Sequential(
                  (0): Linear(in_features=768, out_features=384, bias=True)
                  (1): Activation_Function_Class(
                    (f): ReLU()
                  )
                )
                (adapter_up): Linear(in_features=384, out_features=768, bias=True)
              )
              (es): Adapter(
                (non_linearity): Activation_Function_Class(
                  (f): NewGELUActivation()
                )
                (adapter_down): Sequential(
                  (0): Linear(in_features=768, out_features=384, bias=True)
                  (1): Activation_Function_Class(
                    (f): NewGELUActivation()
                  )
                )
                (adapter_up): Linear(in_features=384, out_features=768, bias=True)
              )
              (disrpt): Adapter(
                (non_linearity): Activation_Function_Class(
                  (f): ReLU()
                )
                (adapter_down): Sequential(
                  (0): Linear(in_features=768, out_features=48, bias=True)
                  (1): Activation_Function_Class(
                    (f): ReLU()
                  )
                )
                (adapter_up): Linear(in_features=48, out_features=768, bias=True)
              )
            )
            (adapter_fusion_layer): ModuleDict()
          )
        )
        (4): BertLayer(
          (attention): BertAttention(
            (self): BertSelfAttention(
              (query): Linear(
                in_features=768, out_features=768, bias=True
                (loras): ModuleDict()
              )
              (key): Linear(
                in_features=768, out_features=768, bias=True
                (loras): ModuleDict()
              )
              (value): Linear(
                in_features=768, out_features=768, bias=True
                (loras): ModuleDict()
              )
              (dropout): Dropout(p=0.1, inplace=False)
              (prefix_tuning): PrefixTuningShim(
                (prefix_gates): ModuleDict()
                (pool): PrefixTuningPool(
                  (prefix_tunings): ModuleDict()
                )
              )
            )
            (output): BertSelfOutput(
              (dense): Linear(in_features=768, out_features=768, bias=True)
              (LayerNorm): LayerNorm((768,), eps=1e-12, elementwise_affine=True)
              (dropout): Dropout(p=0.1, inplace=False)
              (adapters): ModuleDict()
              (adapter_fusion_layer): ModuleDict()
            )
          )
          (intermediate): BertIntermediate(
            (dense): Linear(
              in_features=768, out_features=3072, bias=True
              (loras): ModuleDict()
            )
            (intermediate_act_fn): GELUActivation()
          )
          (output): BertOutput(
            (dense): Linear(
              in_features=3072, out_features=768, bias=True
              (loras): ModuleDict()
            )
            (LayerNorm): LayerNorm((768,), eps=1e-12, elementwise_affine=True)
            (dropout): Dropout(p=0.1, inplace=False)
            (adapters): ModuleDict(
              (zh): Adapter(
                (non_linearity): Activation_Function_Class(
                  (f): ReLU()
                )
                (adapter_down): Sequential(
                  (0): Linear(in_features=768, out_features=384, bias=True)
                  (1): Activation_Function_Class(
                    (f): ReLU()
                  )
                )
                (adapter_up): Linear(in_features=384, out_features=768, bias=True)
              )
              (es): Adapter(
                (non_linearity): Activation_Function_Class(
                  (f): NewGELUActivation()
                )
                (adapter_down): Sequential(
                  (0): Linear(in_features=768, out_features=384, bias=True)
                  (1): Activation_Function_Class(
                    (f): NewGELUActivation()
                  )
                )
                (adapter_up): Linear(in_features=384, out_features=768, bias=True)
              )
              (disrpt): Adapter(
                (non_linearity): Activation_Function_Class(
                  (f): ReLU()
                )
                (adapter_down): Sequential(
                  (0): Linear(in_features=768, out_features=48, bias=True)
                  (1): Activation_Function_Class(
                    (f): ReLU()
                  )
                )
                (adapter_up): Linear(in_features=48, out_features=768, bias=True)
              )
            )
            (adapter_fusion_layer): ModuleDict()
          )
        )
        (5): BertLayer(
          (attention): BertAttention(
            (self): BertSelfAttention(
              (query): Linear(
                in_features=768, out_features=768, bias=True
                (loras): ModuleDict()
              )
              (key): Linear(
                in_features=768, out_features=768, bias=True
                (loras): ModuleDict()
              )
              (value): Linear(
                in_features=768, out_features=768, bias=True
                (loras): ModuleDict()
              )
              (dropout): Dropout(p=0.1, inplace=False)
              (prefix_tuning): PrefixTuningShim(
                (prefix_gates): ModuleDict()
                (pool): PrefixTuningPool(
                  (prefix_tunings): ModuleDict()
                )
              )
            )
            (output): BertSelfOutput(
              (dense): Linear(in_features=768, out_features=768, bias=True)
              (LayerNorm): LayerNorm((768,), eps=1e-12, elementwise_affine=True)
              (dropout): Dropout(p=0.1, inplace=False)
              (adapters): ModuleDict()
              (adapter_fusion_layer): ModuleDict()
            )
          )
          (intermediate): BertIntermediate(
            (dense): Linear(
              in_features=768, out_features=3072, bias=True
              (loras): ModuleDict()
            )
            (intermediate_act_fn): GELUActivation()
          )
          (output): BertOutput(
            (dense): Linear(
              in_features=3072, out_features=768, bias=True
              (loras): ModuleDict()
            )
            (LayerNorm): LayerNorm((768,), eps=1e-12, elementwise_affine=True)
            (dropout): Dropout(p=0.1, inplace=False)
            (adapters): ModuleDict(
              (zh): Adapter(
                (non_linearity): Activation_Function_Class(
                  (f): ReLU()
                )
                (adapter_down): Sequential(
                  (0): Linear(in_features=768, out_features=384, bias=True)
                  (1): Activation_Function_Class(
                    (f): ReLU()
                  )
                )
                (adapter_up): Linear(in_features=384, out_features=768, bias=True)
              )
              (es): Adapter(
                (non_linearity): Activation_Function_Class(
                  (f): NewGELUActivation()
                )
                (adapter_down): Sequential(
                  (0): Linear(in_features=768, out_features=384, bias=True)
                  (1): Activation_Function_Class(
                    (f): NewGELUActivation()
                  )
                )
                (adapter_up): Linear(in_features=384, out_features=768, bias=True)
              )
              (disrpt): Adapter(
                (non_linearity): Activation_Function_Class(
                  (f): ReLU()
                )
                (adapter_down): Sequential(
                  (0): Linear(in_features=768, out_features=48, bias=True)
                  (1): Activation_Function_Class(
                    (f): ReLU()
                  )
                )
                (adapter_up): Linear(in_features=48, out_features=768, bias=True)
              )
            )
            (adapter_fusion_layer): ModuleDict()
          )
        )
        (6): BertLayer(
          (attention): BertAttention(
            (self): BertSelfAttention(
              (query): Linear(
                in_features=768, out_features=768, bias=True
                (loras): ModuleDict()
              )
              (key): Linear(
                in_features=768, out_features=768, bias=True
                (loras): ModuleDict()
              )
              (value): Linear(
                in_features=768, out_features=768, bias=True
                (loras): ModuleDict()
              )
              (dropout): Dropout(p=0.1, inplace=False)
              (prefix_tuning): PrefixTuningShim(
                (prefix_gates): ModuleDict()
                (pool): PrefixTuningPool(
                  (prefix_tunings): ModuleDict()
                )
              )
            )
            (output): BertSelfOutput(
              (dense): Linear(in_features=768, out_features=768, bias=True)
              (LayerNorm): LayerNorm((768,), eps=1e-12, elementwise_affine=True)
              (dropout): Dropout(p=0.1, inplace=False)
              (adapters): ModuleDict()
              (adapter_fusion_layer): ModuleDict()
            )
          )
          (intermediate): BertIntermediate(
            (dense): Linear(
              in_features=768, out_features=3072, bias=True
              (loras): ModuleDict()
            )
            (intermediate_act_fn): GELUActivation()
          )
          (output): BertOutput(
            (dense): Linear(
              in_features=3072, out_features=768, bias=True
              (loras): ModuleDict()
            )
            (LayerNorm): LayerNorm((768,), eps=1e-12, elementwise_affine=True)
            (dropout): Dropout(p=0.1, inplace=False)
            (adapters): ModuleDict(
              (zh): Adapter(
                (non_linearity): Activation_Function_Class(
                  (f): ReLU()
                )
                (adapter_down): Sequential(
                  (0): Linear(in_features=768, out_features=384, bias=True)
                  (1): Activation_Function_Class(
                    (f): ReLU()
                  )
                )
                (adapter_up): Linear(in_features=384, out_features=768, bias=True)
              )
              (es): Adapter(
                (non_linearity): Activation_Function_Class(
                  (f): NewGELUActivation()
                )
                (adapter_down): Sequential(
                  (0): Linear(in_features=768, out_features=384, bias=True)
                  (1): Activation_Function_Class(
                    (f): NewGELUActivation()
                  )
                )
                (adapter_up): Linear(in_features=384, out_features=768, bias=True)
              )
              (disrpt): Adapter(
                (non_linearity): Activation_Function_Class(
                  (f): ReLU()
                )
                (adapter_down): Sequential(
                  (0): Linear(in_features=768, out_features=48, bias=True)
                  (1): Activation_Function_Class(
                    (f): ReLU()
                  )
                )
                (adapter_up): Linear(in_features=48, out_features=768, bias=True)
              )
            )
            (adapter_fusion_layer): ModuleDict()
          )
        )
        (7): BertLayer(
          (attention): BertAttention(
            (self): BertSelfAttention(
              (query): Linear(
                in_features=768, out_features=768, bias=True
                (loras): ModuleDict()
              )
              (key): Linear(
                in_features=768, out_features=768, bias=True
                (loras): ModuleDict()
              )
              (value): Linear(
                in_features=768, out_features=768, bias=True
                (loras): ModuleDict()
              )
              (dropout): Dropout(p=0.1, inplace=False)
              (prefix_tuning): PrefixTuningShim(
                (prefix_gates): ModuleDict()
                (pool): PrefixTuningPool(
                  (prefix_tunings): ModuleDict()
                )
              )
            )
            (output): BertSelfOutput(
              (dense): Linear(in_features=768, out_features=768, bias=True)
              (LayerNorm): LayerNorm((768,), eps=1e-12, elementwise_affine=True)
              (dropout): Dropout(p=0.1, inplace=False)
              (adapters): ModuleDict()
              (adapter_fusion_layer): ModuleDict()
            )
          )
          (intermediate): BertIntermediate(
            (dense): Linear(
              in_features=768, out_features=3072, bias=True
              (loras): ModuleDict()
            )
            (intermediate_act_fn): GELUActivation()
          )
          (output): BertOutput(
            (dense): Linear(
              in_features=3072, out_features=768, bias=True
              (loras): ModuleDict()
            )
            (LayerNorm): LayerNorm((768,), eps=1e-12, elementwise_affine=True)
            (dropout): Dropout(p=0.1, inplace=False)
            (adapters): ModuleDict(
              (zh): Adapter(
                (non_linearity): Activation_Function_Class(
                  (f): ReLU()
                )
                (adapter_down): Sequential(
                  (0): Linear(in_features=768, out_features=384, bias=True)
                  (1): Activation_Function_Class(
                    (f): ReLU()
                  )
                )
                (adapter_up): Linear(in_features=384, out_features=768, bias=True)
              )
              (es): Adapter(
                (non_linearity): Activation_Function_Class(
                  (f): NewGELUActivation()
                )
                (adapter_down): Sequential(
                  (0): Linear(in_features=768, out_features=384, bias=True)
                  (1): Activation_Function_Class(
                    (f): NewGELUActivation()
                  )
                )
                (adapter_up): Linear(in_features=384, out_features=768, bias=True)
              )
              (disrpt): Adapter(
                (non_linearity): Activation_Function_Class(
                  (f): ReLU()
                )
                (adapter_down): Sequential(
                  (0): Linear(in_features=768, out_features=48, bias=True)
                  (1): Activation_Function_Class(
                    (f): ReLU()
                  )
                )
                (adapter_up): Linear(in_features=48, out_features=768, bias=True)
              )
            )
            (adapter_fusion_layer): ModuleDict()
          )
        )
        (8): BertLayer(
          (attention): BertAttention(
            (self): BertSelfAttention(
              (query): Linear(
                in_features=768, out_features=768, bias=True
                (loras): ModuleDict()
              )
              (key): Linear(
                in_features=768, out_features=768, bias=True
                (loras): ModuleDict()
              )
              (value): Linear(
                in_features=768, out_features=768, bias=True
                (loras): ModuleDict()
              )
              (dropout): Dropout(p=0.1, inplace=False)
              (prefix_tuning): PrefixTuningShim(
                (prefix_gates): ModuleDict()
                (pool): PrefixTuningPool(
                  (prefix_tunings): ModuleDict()
                )
              )
            )
            (output): BertSelfOutput(
              (dense): Linear(in_features=768, out_features=768, bias=True)
              (LayerNorm): LayerNorm((768,), eps=1e-12, elementwise_affine=True)
              (dropout): Dropout(p=0.1, inplace=False)
              (adapters): ModuleDict()
              (adapter_fusion_layer): ModuleDict()
            )
          )
          (intermediate): BertIntermediate(
            (dense): Linear(
              in_features=768, out_features=3072, bias=True
              (loras): ModuleDict()
            )
            (intermediate_act_fn): GELUActivation()
          )
          (output): BertOutput(
            (dense): Linear(
              in_features=3072, out_features=768, bias=True
              (loras): ModuleDict()
            )
            (LayerNorm): LayerNorm((768,), eps=1e-12, elementwise_affine=True)
            (dropout): Dropout(p=0.1, inplace=False)
            (adapters): ModuleDict(
              (zh): Adapter(
                (non_linearity): Activation_Function_Class(
                  (f): ReLU()
                )
                (adapter_down): Sequential(
                  (0): Linear(in_features=768, out_features=384, bias=True)
                  (1): Activation_Function_Class(
                    (f): ReLU()
                  )
                )
                (adapter_up): Linear(in_features=384, out_features=768, bias=True)
              )
              (es): Adapter(
                (non_linearity): Activation_Function_Class(
                  (f): NewGELUActivation()
                )
                (adapter_down): Sequential(
                  (0): Linear(in_features=768, out_features=384, bias=True)
                  (1): Activation_Function_Class(
                    (f): NewGELUActivation()
                  )
                )
                (adapter_up): Linear(in_features=384, out_features=768, bias=True)
              )
              (disrpt): Adapter(
                (non_linearity): Activation_Function_Class(
                  (f): ReLU()
                )
                (adapter_down): Sequential(
                  (0): Linear(in_features=768, out_features=48, bias=True)
                  (1): Activation_Function_Class(
                    (f): ReLU()
                  )
                )
                (adapter_up): Linear(in_features=48, out_features=768, bias=True)
              )
            )
            (adapter_fusion_layer): ModuleDict()
          )
        )
        (9): BertLayer(
          (attention): BertAttention(
            (self): BertSelfAttention(
              (query): Linear(
                in_features=768, out_features=768, bias=True
                (loras): ModuleDict()
              )
              (key): Linear(
                in_features=768, out_features=768, bias=True
                (loras): ModuleDict()
              )
              (value): Linear(
                in_features=768, out_features=768, bias=True
                (loras): ModuleDict()
              )
              (dropout): Dropout(p=0.1, inplace=False)
              (prefix_tuning): PrefixTuningShim(
                (prefix_gates): ModuleDict()
                (pool): PrefixTuningPool(
                  (prefix_tunings): ModuleDict()
                )
              )
            )
            (output): BertSelfOutput(
              (dense): Linear(in_features=768, out_features=768, bias=True)
              (LayerNorm): LayerNorm((768,), eps=1e-12, elementwise_affine=True)
              (dropout): Dropout(p=0.1, inplace=False)
              (adapters): ModuleDict()
              (adapter_fusion_layer): ModuleDict()
            )
          )
          (intermediate): BertIntermediate(
            (dense): Linear(
              in_features=768, out_features=3072, bias=True
              (loras): ModuleDict()
            )
            (intermediate_act_fn): GELUActivation()
          )
          (output): BertOutput(
            (dense): Linear(
              in_features=3072, out_features=768, bias=True
              (loras): ModuleDict()
            )
            (LayerNorm): LayerNorm((768,), eps=1e-12, elementwise_affine=True)
            (dropout): Dropout(p=0.1, inplace=False)
            (adapters): ModuleDict(
              (zh): Adapter(
                (non_linearity): Activation_Function_Class(
                  (f): ReLU()
                )
                (adapter_down): Sequential(
                  (0): Linear(in_features=768, out_features=384, bias=True)
                  (1): Activation_Function_Class(
                    (f): ReLU()
                  )
                )
                (adapter_up): Linear(in_features=384, out_features=768, bias=True)
              )
              (es): Adapter(
                (non_linearity): Activation_Function_Class(
                  (f): NewGELUActivation()
                )
                (adapter_down): Sequential(
                  (0): Linear(in_features=768, out_features=384, bias=True)
                  (1): Activation_Function_Class(
                    (f): NewGELUActivation()
                  )
                )
                (adapter_up): Linear(in_features=384, out_features=768, bias=True)
              )
              (disrpt): Adapter(
                (non_linearity): Activation_Function_Class(
                  (f): ReLU()
                )
                (adapter_down): Sequential(
                  (0): Linear(in_features=768, out_features=48, bias=True)
                  (1): Activation_Function_Class(
                    (f): ReLU()
                  )
                )
                (adapter_up): Linear(in_features=48, out_features=768, bias=True)
              )
            )
            (adapter_fusion_layer): ModuleDict()
          )
        )
        (10): BertLayer(
          (attention): BertAttention(
            (self): BertSelfAttention(
              (query): Linear(
                in_features=768, out_features=768, bias=True
                (loras): ModuleDict()
              )
              (key): Linear(
                in_features=768, out_features=768, bias=True
                (loras): ModuleDict()
              )
              (value): Linear(
                in_features=768, out_features=768, bias=True
                (loras): ModuleDict()
              )
              (dropout): Dropout(p=0.1, inplace=False)
              (prefix_tuning): PrefixTuningShim(
                (prefix_gates): ModuleDict()
                (pool): PrefixTuningPool(
                  (prefix_tunings): ModuleDict()
                )
              )
            )
            (output): BertSelfOutput(
              (dense): Linear(in_features=768, out_features=768, bias=True)
              (LayerNorm): LayerNorm((768,), eps=1e-12, elementwise_affine=True)
              (dropout): Dropout(p=0.1, inplace=False)
              (adapters): ModuleDict()
              (adapter_fusion_layer): ModuleDict()
            )
          )
          (intermediate): BertIntermediate(
            (dense): Linear(
              in_features=768, out_features=3072, bias=True
              (loras): ModuleDict()
            )
            (intermediate_act_fn): GELUActivation()
          )
          (output): BertOutput(
            (dense): Linear(
              in_features=3072, out_features=768, bias=True
              (loras): ModuleDict()
            )
            (LayerNorm): LayerNorm((768,), eps=1e-12, elementwise_affine=True)
            (dropout): Dropout(p=0.1, inplace=False)
            (adapters): ModuleDict(
              (zh): Adapter(
                (non_linearity): Activation_Function_Class(
                  (f): ReLU()
                )
                (adapter_down): Sequential(
                  (0): Linear(in_features=768, out_features=384, bias=True)
                  (1): Activation_Function_Class(
                    (f): ReLU()
                  )
                )
                (adapter_up): Linear(in_features=384, out_features=768, bias=True)
              )
              (es): Adapter(
                (non_linearity): Activation_Function_Class(
                  (f): NewGELUActivation()
                )
                (adapter_down): Sequential(
                  (0): Linear(in_features=768, out_features=384, bias=True)
                  (1): Activation_Function_Class(
                    (f): NewGELUActivation()
                  )
                )
                (adapter_up): Linear(in_features=384, out_features=768, bias=True)
              )
              (disrpt): Adapter(
                (non_linearity): Activation_Function_Class(
                  (f): ReLU()
                )
                (adapter_down): Sequential(
                  (0): Linear(in_features=768, out_features=48, bias=True)
                  (1): Activation_Function_Class(
                    (f): ReLU()
                  )
                )
                (adapter_up): Linear(in_features=48, out_features=768, bias=True)
              )
            )
            (adapter_fusion_layer): ModuleDict()
          )
        )
        (11): BertLayer(
          (attention): BertAttention(
            (self): BertSelfAttention(
              (query): Linear(
                in_features=768, out_features=768, bias=True
                (loras): ModuleDict()
              )
              (key): Linear(
                in_features=768, out_features=768, bias=True
                (loras): ModuleDict()
              )
              (value): Linear(
                in_features=768, out_features=768, bias=True
                (loras): ModuleDict()
              )
              (dropout): Dropout(p=0.1, inplace=False)
              (prefix_tuning): PrefixTuningShim(
                (prefix_gates): ModuleDict()
                (pool): PrefixTuningPool(
                  (prefix_tunings): ModuleDict()
                )
              )
            )
            (output): BertSelfOutput(
              (dense): Linear(in_features=768, out_features=768, bias=True)
              (LayerNorm): LayerNorm((768,), eps=1e-12, elementwise_affine=True)
              (dropout): Dropout(p=0.1, inplace=False)
              (adapters): ModuleDict()
              (adapter_fusion_layer): ModuleDict()
            )
          )
          (intermediate): BertIntermediate(
            (dense): Linear(
              in_features=768, out_features=3072, bias=True
              (loras): ModuleDict()
            )
            (intermediate_act_fn): GELUActivation()
          )
          (output): BertOutput(
            (dense): Linear(
              in_features=3072, out_features=768, bias=True
              (loras): ModuleDict()
            )
            (LayerNorm): LayerNorm((768,), eps=1e-12, elementwise_affine=True)
            (dropout): Dropout(p=0.1, inplace=False)
            (adapters): ModuleDict(
              (zh): Adapter(
                (non_linearity): Activation_Function_Class(
                  (f): ReLU()
                )
                (adapter_down): Sequential(
                  (0): Linear(in_features=768, out_features=384, bias=True)
                  (1): Activation_Function_Class(
                    (f): ReLU()
                  )
                )
                (adapter_up): Linear(in_features=384, out_features=768, bias=True)
              )
              (es): Adapter(
                (non_linearity): Activation_Function_Class(
                  (f): NewGELUActivation()
                )
                (adapter_down): Sequential(
                  (0): Linear(in_features=768, out_features=384, bias=True)
                  (1): Activation_Function_Class(
                    (f): NewGELUActivation()
                  )
                )
                (adapter_up): Linear(in_features=384, out_features=768, bias=True)
              )
              (disrpt): Adapter(
                (non_linearity): Activation_Function_Class(
                  (f): ReLU()
                )
                (adapter_down): Sequential(
                  (0): Linear(in_features=768, out_features=48, bias=True)
                  (1): Activation_Function_Class(
                    (f): ReLU()
                  )
                )
                (adapter_up): Linear(in_features=48, out_features=768, bias=True)
              )
            )
            (adapter_fusion_layer): ModuleDict()
          )
        )
      )
    )
    (pooler): BertPooler(
      (dense): Linear(in_features=768, out_features=768, bias=True)
      (activation): Tanh()
    )
    (prefix_tuning): PrefixTuningPool(
      (prefix_tunings): ModuleDict()
    )
  )
  (heads): ModuleDict(
    (disrpt): ClassificationHead(
      (0): Dropout(p=0.1, inplace=False)
      (1): Linear(in_features=768, out_features=768, bias=True)
      (2): Activation_Function_Class(
        (f): Tanh()
      )
      (3): Dropout(p=0.1, inplace=False)
      (4): Linear(in_features=768, out_features=30, bias=True)
    )
  )
)
{'train@zho.rst.sctb_loss': 3.286442518234253, 'train@zho.rst.sctb_accuracy@zho.rst.sctb': 0.32574031890660593, 'train@zho.rst.sctb_f1@zho.rst.sctb': 0.018965517241379314, 'train@zho.rst.sctb_precision@zho.rst.sctb': 0.012672811059907835, 'train@zho.rst.sctb_recall@zho.rst.sctb': 0.03767123287671233, 'train@zho.rst.sctb_loss@zho.rst.sctb': 3.286442279815674, 'train@zho.rst.sctb_runtime': 5.5263, 'train@zho.rst.sctb_samples_per_second': 79.438, 'train@zho.rst.sctb_steps_per_second': 2.533, 'epoch': 1.0}
…
