…
Lang1:  deu.rst.pcc    Lang2:  eng.pdtb.pdtb
Saving run to:  runs/full_shot/FullShot=v4_deu.rst.pcc_eng.pdtb.pdtb_lrfunc=Adafactor_lr=2e-05_plm=bert-base-multilingual-cased
Running with params: BERT_MODEL=bert-base-multilingual-cased lr=2e-05
read 2164 examples
read 241 examples
read 260 examples
read 43920 examples
read 1674 examples
read 2257 examples
Total prediction labels:  49
BertAdapterModel(
  (shared_parameters): ModuleDict()
  (bert): BertModel(
    (shared_parameters): ModuleDict()
    (invertible_adapters): ModuleDict(
      (de): NICECouplingBlock(
        (F): Sequential(
          (0): Linear(in_features=384, out_features=192, bias=True)
          (1): Activation_Function_Class(
            (f): NewGELUActivation()
          )
          (2): Linear(in_features=192, out_features=384, bias=True)
        )
        (G): Sequential(
          (0): Linear(in_features=384, out_features=192, bias=True)
          (1): Activation_Function_Class(
            (f): NewGELUActivation()
          )
          (2): Linear(in_features=192, out_features=384, bias=True)
        )
      )
      (en): NICECouplingBlock(
        (F): Sequential(
          (0): Linear(in_features=384, out_features=192, bias=True)
          (1): Activation_Function_Class(
            (f): ReLU()
          )
          (2): Linear(in_features=192, out_features=384, bias=True)
        )
        (G): Sequential(
          (0): Linear(in_features=384, out_features=192, bias=True)
          (1): Activation_Function_Class(
            (f): ReLU()
          )
          (2): Linear(in_features=192, out_features=384, bias=True)
        )
      )
    )
    (embeddings): BertEmbeddings(
      (word_embeddings): Embedding(119547, 768, padding_idx=0)
      (position_embeddings): Embedding(512, 768)
      (token_type_embeddings): Embedding(2, 768)
      (LayerNorm): LayerNorm((768,), eps=1e-12, elementwise_affine=True)
      (dropout): Dropout(p=0.1, inplace=False)
    )
    (encoder): BertEncoder(
      (layer): ModuleList(
        (0): BertLayer(
          (attention): BertAttention(
            (self): BertSelfAttention(
              (query): Linear(
                in_features=768, out_features=768, bias=True
                (loras): ModuleDict()
              )
              (key): Linear(
                in_features=768, out_features=768, bias=True
                (loras): ModuleDict()
              )
              (value): Linear(
                in_features=768, out_features=768, bias=True
                (loras): ModuleDict()
              )
              (dropout): Dropout(p=0.1, inplace=False)
              (prefix_tuning): PrefixTuningShim(
                (prefix_gates): ModuleDict()
                (pool): PrefixTuningPool(
                  (prefix_tunings): ModuleDict()
                )
              )
            )
            (output): BertSelfOutput(
              (dense): Linear(in_features=768, out_features=768, bias=True)
              (LayerNorm): LayerNorm((768,), eps=1e-12, elementwise_affine=True)
              (dropout): Dropout(p=0.1, inplace=False)
              (adapters): ModuleDict()
              (adapter_fusion_layer): ModuleDict()
            )
          )
          (intermediate): BertIntermediate(
            (dense): Linear(
              in_features=768, out_features=3072, bias=True
              (loras): ModuleDict()
            )
            (intermediate_act_fn): GELUActivation()
          )
          (output): BertOutput(
            (dense): Linear(
              in_features=3072, out_features=768, bias=True
              (loras): ModuleDict()
            )
            (LayerNorm): LayerNorm((768,), eps=1e-12, elementwise_affine=True)
            (dropout): Dropout(p=0.1, inplace=False)
            (adapters): ModuleDict(
              (de): Adapter(
                (non_linearity): Activation_Function_Class(
                  (f): NewGELUActivation()
                )
                (adapter_down): Sequential(
                  (0): Linear(in_features=768, out_features=384, bias=True)
                  (1): Activation_Function_Class(
                    (f): NewGELUActivation()
                  )
                )
                (adapter_up): Linear(in_features=384, out_features=768, bias=True)
              )
              (en): Adapter(
                (non_linearity): Activation_Function_Class(
                  (f): ReLU()
                )
                (adapter_down): Sequential(
                  (0): Linear(in_features=768, out_features=384, bias=True)
                  (1): Activation_Function_Class(
                    (f): ReLU()
                  )
                )
                (adapter_up): Linear(in_features=384, out_features=768, bias=True)
              )
              (disrpt): Adapter(
                (non_linearity): Activation_Function_Class(
                  (f): ReLU()
                )
                (adapter_down): Sequential(
                  (0): Linear(in_features=768, out_features=48, bias=True)
                  (1): Activation_Function_Class(
                    (f): ReLU()
                  )
                )
                (adapter_up): Linear(in_features=48, out_features=768, bias=True)
              )
            )
            (adapter_fusion_layer): ModuleDict()
          )
        )
        (1): BertLayer(
          (attention): BertAttention(
            (self): BertSelfAttention(
              (query): Linear(
                in_features=768, out_features=768, bias=True
                (loras): ModuleDict()
              )
              (key): Linear(
                in_features=768, out_features=768, bias=True
                (loras): ModuleDict()
              )
              (value): Linear(
                in_features=768, out_features=768, bias=True
                (loras): ModuleDict()
              )
              (dropout): Dropout(p=0.1, inplace=False)
              (prefix_tuning): PrefixTuningShim(
                (prefix_gates): ModuleDict()
                (pool): PrefixTuningPool(
                  (prefix_tunings): ModuleDict()
                )
              )
            )
            (output): BertSelfOutput(
              (dense): Linear(in_features=768, out_features=768, bias=True)
              (LayerNorm): LayerNorm((768,), eps=1e-12, elementwise_affine=True)
              (dropout): Dropout(p=0.1, inplace=False)
              (adapters): ModuleDict()
              (adapter_fusion_layer): ModuleDict()
            )
          )
          (intermediate): BertIntermediate(
            (dense): Linear(
              in_features=768, out_features=3072, bias=True
              (loras): ModuleDict()
            )
            (intermediate_act_fn): GELUActivation()
          )
          (output): BertOutput(
            (dense): Linear(
              in_features=3072, out_features=768, bias=True
              (loras): ModuleDict()
            )
            (LayerNorm): LayerNorm((768,), eps=1e-12, elementwise_affine=True)
            (dropout): Dropout(p=0.1, inplace=False)
            (adapters): ModuleDict(
              (de): Adapter(
                (non_linearity): Activation_Function_Class(
                  (f): NewGELUActivation()
                )
                (adapter_down): Sequential(
                  (0): Linear(in_features=768, out_features=384, bias=True)
                  (1): Activation_Function_Class(
                    (f): NewGELUActivation()
                  )
                )
                (adapter_up): Linear(in_features=384, out_features=768, bias=True)
              )
              (en): Adapter(
                (non_linearity): Activation_Function_Class(
                  (f): ReLU()
                )
                (adapter_down): Sequential(
                  (0): Linear(in_features=768, out_features=384, bias=True)
                  (1): Activation_Function_Class(
                    (f): ReLU()
                  )
                )
                (adapter_up): Linear(in_features=384, out_features=768, bias=True)
              )
              (disrpt): Adapter(
                (non_linearity): Activation_Function_Class(
                  (f): ReLU()
                )
                (adapter_down): Sequential(
                  (0): Linear(in_features=768, out_features=48, bias=True)
                  (1): Activation_Function_Class(
                    (f): ReLU()
                  )
                )
                (adapter_up): Linear(in_features=48, out_features=768, bias=True)
              )
            )
            (adapter_fusion_layer): ModuleDict()
          )
        )
        (2): BertLayer(
          (attention): BertAttention(
            (self): BertSelfAttention(
              (query): Linear(
                in_features=768, out_features=768, bias=True
                (loras): ModuleDict()
              )
              (key): Linear(
                in_features=768, out_features=768, bias=True
                (loras): ModuleDict()
              )
              (value): Linear(
                in_features=768, out_features=768, bias=True
                (loras): ModuleDict()
              )
              (dropout): Dropout(p=0.1, inplace=False)
              (prefix_tuning): PrefixTuningShim(
                (prefix_gates): ModuleDict()
                (pool): PrefixTuningPool(
                  (prefix_tunings): ModuleDict()
                )
              )
            )
            (output): BertSelfOutput(
              (dense): Linear(in_features=768, out_features=768, bias=True)
              (LayerNorm): LayerNorm((768,), eps=1e-12, elementwise_affine=True)
              (dropout): Dropout(p=0.1, inplace=False)
              (adapters): ModuleDict()
              (adapter_fusion_layer): ModuleDict()
            )
          )
          (intermediate): BertIntermediate(
            (dense): Linear(
              in_features=768, out_features=3072, bias=True
              (loras): ModuleDict()
            )
            (intermediate_act_fn): GELUActivation()
          )
          (output): BertOutput(
            (dense): Linear(
              in_features=3072, out_features=768, bias=True
              (loras): ModuleDict()
            )
            (LayerNorm): LayerNorm((768,), eps=1e-12, elementwise_affine=True)
            (dropout): Dropout(p=0.1, inplace=False)
            (adapters): ModuleDict(
              (de): Adapter(
                (non_linearity): Activation_Function_Class(
                  (f): NewGELUActivation()
                )
                (adapter_down): Sequential(
                  (0): Linear(in_features=768, out_features=384, bias=True)
                  (1): Activation_Function_Class(
                    (f): NewGELUActivation()
                  )
                )
                (adapter_up): Linear(in_features=384, out_features=768, bias=True)
              )
              (en): Adapter(
                (non_linearity): Activation_Function_Class(
                  (f): ReLU()
                )
                (adapter_down): Sequential(
                  (0): Linear(in_features=768, out_features=384, bias=True)
                  (1): Activation_Function_Class(
                    (f): ReLU()
                  )
                )
                (adapter_up): Linear(in_features=384, out_features=768, bias=True)
              )
              (disrpt): Adapter(
                (non_linearity): Activation_Function_Class(
                  (f): ReLU()
                )
                (adapter_down): Sequential(
                  (0): Linear(in_features=768, out_features=48, bias=True)
                  (1): Activation_Function_Class(
                    (f): ReLU()
                  )
                )
                (adapter_up): Linear(in_features=48, out_features=768, bias=True)
              )
            )
            (adapter_fusion_layer): ModuleDict()
          )
        )
        (3): BertLayer(
          (attention): BertAttention(
            (self): BertSelfAttention(
              (query): Linear(
                in_features=768, out_features=768, bias=True
                (loras): ModuleDict()
              )
              (key): Linear(
                in_features=768, out_features=768, bias=True
                (loras): ModuleDict()
              )
              (value): Linear(
                in_features=768, out_features=768, bias=True
                (loras): ModuleDict()
              )
              (dropout): Dropout(p=0.1, inplace=False)
              (prefix_tuning): PrefixTuningShim(
                (prefix_gates): ModuleDict()
                (pool): PrefixTuningPool(
                  (prefix_tunings): ModuleDict()
                )
              )
            )
            (output): BertSelfOutput(
              (dense): Linear(in_features=768, out_features=768, bias=True)
              (LayerNorm): LayerNorm((768,), eps=1e-12, elementwise_affine=True)
              (dropout): Dropout(p=0.1, inplace=False)
              (adapters): ModuleDict()
              (adapter_fusion_layer): ModuleDict()
            )
          )
          (intermediate): BertIntermediate(
            (dense): Linear(
              in_features=768, out_features=3072, bias=True
              (loras): ModuleDict()
            )
            (intermediate_act_fn): GELUActivation()
          )
          (output): BertOutput(
            (dense): Linear(
              in_features=3072, out_features=768, bias=True
              (loras): ModuleDict()
            )
            (LayerNorm): LayerNorm((768,), eps=1e-12, elementwise_affine=True)
            (dropout): Dropout(p=0.1, inplace=False)
            (adapters): ModuleDict(
              (de): Adapter(
                (non_linearity): Activation_Function_Class(
                  (f): NewGELUActivation()
                )
                (adapter_down): Sequential(
                  (0): Linear(in_features=768, out_features=384, bias=True)
                  (1): Activation_Function_Class(
                    (f): NewGELUActivation()
                  )
                )
                (adapter_up): Linear(in_features=384, out_features=768, bias=True)
              )
              (en): Adapter(
                (non_linearity): Activation_Function_Class(
                  (f): ReLU()
                )
                (adapter_down): Sequential(
                  (0): Linear(in_features=768, out_features=384, bias=True)
                  (1): Activation_Function_Class(
                    (f): ReLU()
                  )
                )
                (adapter_up): Linear(in_features=384, out_features=768, bias=True)
              )
              (disrpt): Adapter(
                (non_linearity): Activation_Function_Class(
                  (f): ReLU()
                )
                (adapter_down): Sequential(
                  (0): Linear(in_features=768, out_features=48, bias=True)
                  (1): Activation_Function_Class(
                    (f): ReLU()
                  )
                )
                (adapter_up): Linear(in_features=48, out_features=768, bias=True)
              )
            )
            (adapter_fusion_layer): ModuleDict()
          )
        )
        (4): BertLayer(
          (attention): BertAttention(
            (self): BertSelfAttention(
              (query): Linear(
                in_features=768, out_features=768, bias=True
                (loras): ModuleDict()
              )
              (key): Linear(
                in_features=768, out_features=768, bias=True
                (loras): ModuleDict()
              )
              (value): Linear(
                in_features=768, out_features=768, bias=True
                (loras): ModuleDict()
              )
              (dropout): Dropout(p=0.1, inplace=False)
              (prefix_tuning): PrefixTuningShim(
                (prefix_gates): ModuleDict()
                (pool): PrefixTuningPool(
                  (prefix_tunings): ModuleDict()
                )
              )
            )
            (output): BertSelfOutput(
              (dense): Linear(in_features=768, out_features=768, bias=True)
              (LayerNorm): LayerNorm((768,), eps=1e-12, elementwise_affine=True)
              (dropout): Dropout(p=0.1, inplace=False)
              (adapters): ModuleDict()
              (adapter_fusion_layer): ModuleDict()
            )
          )
          (intermediate): BertIntermediate(
            (dense): Linear(
              in_features=768, out_features=3072, bias=True
              (loras): ModuleDict()
            )
            (intermediate_act_fn): GELUActivation()
          )
          (output): BertOutput(
            (dense): Linear(
              in_features=3072, out_features=768, bias=True
              (loras): ModuleDict()
            )
            (LayerNorm): LayerNorm((768,), eps=1e-12, elementwise_affine=True)
            (dropout): Dropout(p=0.1, inplace=False)
            (adapters): ModuleDict(
              (de): Adapter(
                (non_linearity): Activation_Function_Class(
                  (f): NewGELUActivation()
                )
                (adapter_down): Sequential(
                  (0): Linear(in_features=768, out_features=384, bias=True)
                  (1): Activation_Function_Class(
                    (f): NewGELUActivation()
                  )
                )
                (adapter_up): Linear(in_features=384, out_features=768, bias=True)
              )
              (en): Adapter(
                (non_linearity): Activation_Function_Class(
                  (f): ReLU()
                )
                (adapter_down): Sequential(
                  (0): Linear(in_features=768, out_features=384, bias=True)
                  (1): Activation_Function_Class(
                    (f): ReLU()
                  )
                )
                (adapter_up): Linear(in_features=384, out_features=768, bias=True)
              )
              (disrpt): Adapter(
                (non_linearity): Activation_Function_Class(
                  (f): ReLU()
                )
                (adapter_down): Sequential(
                  (0): Linear(in_features=768, out_features=48, bias=True)
                  (1): Activation_Function_Class(
                    (f): ReLU()
                  )
                )
                (adapter_up): Linear(in_features=48, out_features=768, bias=True)
              )
            )
            (adapter_fusion_layer): ModuleDict()
          )
        )
        (5): BertLayer(
          (attention): BertAttention(
            (self): BertSelfAttention(
              (query): Linear(
                in_features=768, out_features=768, bias=True
                (loras): ModuleDict()
              )
              (key): Linear(
                in_features=768, out_features=768, bias=True
                (loras): ModuleDict()
              )
              (value): Linear(
                in_features=768, out_features=768, bias=True
                (loras): ModuleDict()
              )
              (dropout): Dropout(p=0.1, inplace=False)
              (prefix_tuning): PrefixTuningShim(
                (prefix_gates): ModuleDict()
                (pool): PrefixTuningPool(
                  (prefix_tunings): ModuleDict()
                )
              )
            )
            (output): BertSelfOutput(
              (dense): Linear(in_features=768, out_features=768, bias=True)
              (LayerNorm): LayerNorm((768,), eps=1e-12, elementwise_affine=True)
              (dropout): Dropout(p=0.1, inplace=False)
              (adapters): ModuleDict()
              (adapter_fusion_layer): ModuleDict()
            )
          )
          (intermediate): BertIntermediate(
            (dense): Linear(
              in_features=768, out_features=3072, bias=True
              (loras): ModuleDict()
            )
            (intermediate_act_fn): GELUActivation()
          )
          (output): BertOutput(
            (dense): Linear(
              in_features=3072, out_features=768, bias=True
              (loras): ModuleDict()
            )
            (LayerNorm): LayerNorm((768,), eps=1e-12, elementwise_affine=True)
            (dropout): Dropout(p=0.1, inplace=False)
            (adapters): ModuleDict(
              (de): Adapter(
                (non_linearity): Activation_Function_Class(
                  (f): NewGELUActivation()
                )
                (adapter_down): Sequential(
                  (0): Linear(in_features=768, out_features=384, bias=True)
                  (1): Activation_Function_Class(
                    (f): NewGELUActivation()
                  )
                )
                (adapter_up): Linear(in_features=384, out_features=768, bias=True)
              )
              (en): Adapter(
                (non_linearity): Activation_Function_Class(
                  (f): ReLU()
                )
                (adapter_down): Sequential(
                  (0): Linear(in_features=768, out_features=384, bias=True)
                  (1): Activation_Function_Class(
                    (f): ReLU()
                  )
                )
                (adapter_up): Linear(in_features=384, out_features=768, bias=True)
              )
              (disrpt): Adapter(
                (non_linearity): Activation_Function_Class(
                  (f): ReLU()
                )
                (adapter_down): Sequential(
                  (0): Linear(in_features=768, out_features=48, bias=True)
                  (1): Activation_Function_Class(
                    (f): ReLU()
                  )
                )
                (adapter_up): Linear(in_features=48, out_features=768, bias=True)
              )
            )
            (adapter_fusion_layer): ModuleDict()
          )
        )
        (6): BertLayer(
          (attention): BertAttention(
            (self): BertSelfAttention(
              (query): Linear(
                in_features=768, out_features=768, bias=True
                (loras): ModuleDict()
              )
              (key): Linear(
                in_features=768, out_features=768, bias=True
                (loras): ModuleDict()
              )
              (value): Linear(
                in_features=768, out_features=768, bias=True
                (loras): ModuleDict()
              )
              (dropout): Dropout(p=0.1, inplace=False)
              (prefix_tuning): PrefixTuningShim(
                (prefix_gates): ModuleDict()
                (pool): PrefixTuningPool(
                  (prefix_tunings): ModuleDict()
                )
              )
            )
            (output): BertSelfOutput(
              (dense): Linear(in_features=768, out_features=768, bias=True)
              (LayerNorm): LayerNorm((768,), eps=1e-12, elementwise_affine=True)
              (dropout): Dropout(p=0.1, inplace=False)
              (adapters): ModuleDict()
              (adapter_fusion_layer): ModuleDict()
            )
          )
          (intermediate): BertIntermediate(
            (dense): Linear(
              in_features=768, out_features=3072, bias=True
              (loras): ModuleDict()
            )
            (intermediate_act_fn): GELUActivation()
          )
          (output): BertOutput(
            (dense): Linear(
              in_features=3072, out_features=768, bias=True
              (loras): ModuleDict()
            )
            (LayerNorm): LayerNorm((768,), eps=1e-12, elementwise_affine=True)
            (dropout): Dropout(p=0.1, inplace=False)
            (adapters): ModuleDict(
              (de): Adapter(
                (non_linearity): Activation_Function_Class(
                  (f): NewGELUActivation()
                )
                (adapter_down): Sequential(
                  (0): Linear(in_features=768, out_features=384, bias=True)
                  (1): Activation_Function_Class(
                    (f): NewGELUActivation()
                  )
                )
                (adapter_up): Linear(in_features=384, out_features=768, bias=True)
              )
              (en): Adapter(
                (non_linearity): Activation_Function_Class(
                  (f): ReLU()
                )
                (adapter_down): Sequential(
                  (0): Linear(in_features=768, out_features=384, bias=True)
                  (1): Activation_Function_Class(
                    (f): ReLU()
                  )
                )
                (adapter_up): Linear(in_features=384, out_features=768, bias=True)
              )
              (disrpt): Adapter(
                (non_linearity): Activation_Function_Class(
                  (f): ReLU()
                )
                (adapter_down): Sequential(
                  (0): Linear(in_features=768, out_features=48, bias=True)
                  (1): Activation_Function_Class(
                    (f): ReLU()
                  )
                )
                (adapter_up): Linear(in_features=48, out_features=768, bias=True)
              )
            )
            (adapter_fusion_layer): ModuleDict()
          )
        )
        (7): BertLayer(
          (attention): BertAttention(
            (self): BertSelfAttention(
              (query): Linear(
                in_features=768, out_features=768, bias=True
                (loras): ModuleDict()
              )
              (key): Linear(
                in_features=768, out_features=768, bias=True
                (loras): ModuleDict()
              )
              (value): Linear(
                in_features=768, out_features=768, bias=True
                (loras): ModuleDict()
              )
              (dropout): Dropout(p=0.1, inplace=False)
              (prefix_tuning): PrefixTuningShim(
                (prefix_gates): ModuleDict()
                (pool): PrefixTuningPool(
                  (prefix_tunings): ModuleDict()
                )
              )
            )
            (output): BertSelfOutput(
              (dense): Linear(in_features=768, out_features=768, bias=True)
              (LayerNorm): LayerNorm((768,), eps=1e-12, elementwise_affine=True)
              (dropout): Dropout(p=0.1, inplace=False)
              (adapters): ModuleDict()
              (adapter_fusion_layer): ModuleDict()
            )
          )
          (intermediate): BertIntermediate(
            (dense): Linear(
              in_features=768, out_features=3072, bias=True
              (loras): ModuleDict()
            )
            (intermediate_act_fn): GELUActivation()
          )
          (output): BertOutput(
            (dense): Linear(
              in_features=3072, out_features=768, bias=True
              (loras): ModuleDict()
            )
            (LayerNorm): LayerNorm((768,), eps=1e-12, elementwise_affine=True)
            (dropout): Dropout(p=0.1, inplace=False)
            (adapters): ModuleDict(
              (de): Adapter(
                (non_linearity): Activation_Function_Class(
                  (f): NewGELUActivation()
                )
                (adapter_down): Sequential(
                  (0): Linear(in_features=768, out_features=384, bias=True)
                  (1): Activation_Function_Class(
                    (f): NewGELUActivation()
                  )
                )
                (adapter_up): Linear(in_features=384, out_features=768, bias=True)
              )
              (en): Adapter(
                (non_linearity): Activation_Function_Class(
                  (f): ReLU()
                )
                (adapter_down): Sequential(
                  (0): Linear(in_features=768, out_features=384, bias=True)
                  (1): Activation_Function_Class(
                    (f): ReLU()
                  )
                )
                (adapter_up): Linear(in_features=384, out_features=768, bias=True)
              )
              (disrpt): Adapter(
                (non_linearity): Activation_Function_Class(
                  (f): ReLU()
                )
                (adapter_down): Sequential(
                  (0): Linear(in_features=768, out_features=48, bias=True)
                  (1): Activation_Function_Class(
                    (f): ReLU()
                  )
                )
                (adapter_up): Linear(in_features=48, out_features=768, bias=True)
              )
            )
            (adapter_fusion_layer): ModuleDict()
          )
        )
        (8): BertLayer(
          (attention): BertAttention(
            (self): BertSelfAttention(
              (query): Linear(
                in_features=768, out_features=768, bias=True
                (loras): ModuleDict()
              )
              (key): Linear(
                in_features=768, out_features=768, bias=True
                (loras): ModuleDict()
              )
              (value): Linear(
                in_features=768, out_features=768, bias=True
                (loras): ModuleDict()
              )
              (dropout): Dropout(p=0.1, inplace=False)
              (prefix_tuning): PrefixTuningShim(
                (prefix_gates): ModuleDict()
                (pool): PrefixTuningPool(
                  (prefix_tunings): ModuleDict()
                )
              )
            )
            (output): BertSelfOutput(
              (dense): Linear(in_features=768, out_features=768, bias=True)
              (LayerNorm): LayerNorm((768,), eps=1e-12, elementwise_affine=True)
              (dropout): Dropout(p=0.1, inplace=False)
              (adapters): ModuleDict()
              (adapter_fusion_layer): ModuleDict()
            )
          )
          (intermediate): BertIntermediate(
            (dense): Linear(
              in_features=768, out_features=3072, bias=True
              (loras): ModuleDict()
            )
            (intermediate_act_fn): GELUActivation()
          )
          (output): BertOutput(
            (dense): Linear(
              in_features=3072, out_features=768, bias=True
              (loras): ModuleDict()
            )
            (LayerNorm): LayerNorm((768,), eps=1e-12, elementwise_affine=True)
            (dropout): Dropout(p=0.1, inplace=False)
            (adapters): ModuleDict(
              (de): Adapter(
                (non_linearity): Activation_Function_Class(
                  (f): NewGELUActivation()
                )
                (adapter_down): Sequential(
                  (0): Linear(in_features=768, out_features=384, bias=True)
                  (1): Activation_Function_Class(
                    (f): NewGELUActivation()
                  )
                )
                (adapter_up): Linear(in_features=384, out_features=768, bias=True)
              )
              (en): Adapter(
                (non_linearity): Activation_Function_Class(
                  (f): ReLU()
                )
                (adapter_down): Sequential(
                  (0): Linear(in_features=768, out_features=384, bias=True)
                  (1): Activation_Function_Class(
                    (f): ReLU()
                  )
                )
                (adapter_up): Linear(in_features=384, out_features=768, bias=True)
              )
              (disrpt): Adapter(
                (non_linearity): Activation_Function_Class(
                  (f): ReLU()
                )
                (adapter_down): Sequential(
                  (0): Linear(in_features=768, out_features=48, bias=True)
                  (1): Activation_Function_Class(
                    (f): ReLU()
                  )
                )
                (adapter_up): Linear(in_features=48, out_features=768, bias=True)
              )
            )
            (adapter_fusion_layer): ModuleDict()
          )
        )
        (9): BertLayer(
          (attention): BertAttention(
            (self): BertSelfAttention(
              (query): Linear(
                in_features=768, out_features=768, bias=True
                (loras): ModuleDict()
              )
              (key): Linear(
                in_features=768, out_features=768, bias=True
                (loras): ModuleDict()
              )
              (value): Linear(
                in_features=768, out_features=768, bias=True
                (loras): ModuleDict()
              )
              (dropout): Dropout(p=0.1, inplace=False)
              (prefix_tuning): PrefixTuningShim(
                (prefix_gates): ModuleDict()
                (pool): PrefixTuningPool(
                  (prefix_tunings): ModuleDict()
                )
              )
            )
            (output): BertSelfOutput(
              (dense): Linear(in_features=768, out_features=768, bias=True)
              (LayerNorm): LayerNorm((768,), eps=1e-12, elementwise_affine=True)
              (dropout): Dropout(p=0.1, inplace=False)
              (adapters): ModuleDict()
              (adapter_fusion_layer): ModuleDict()
            )
          )
          (intermediate): BertIntermediate(
            (dense): Linear(
              in_features=768, out_features=3072, bias=True
              (loras): ModuleDict()
            )
            (intermediate_act_fn): GELUActivation()
          )
          (output): BertOutput(
            (dense): Linear(
              in_features=3072, out_features=768, bias=True
              (loras): ModuleDict()
            )
            (LayerNorm): LayerNorm((768,), eps=1e-12, elementwise_affine=True)
            (dropout): Dropout(p=0.1, inplace=False)
            (adapters): ModuleDict(
              (de): Adapter(
                (non_linearity): Activation_Function_Class(
                  (f): NewGELUActivation()
                )
                (adapter_down): Sequential(
                  (0): Linear(in_features=768, out_features=384, bias=True)
                  (1): Activation_Function_Class(
                    (f): NewGELUActivation()
                  )
                )
                (adapter_up): Linear(in_features=384, out_features=768, bias=True)
              )
              (en): Adapter(
                (non_linearity): Activation_Function_Class(
                  (f): ReLU()
                )
                (adapter_down): Sequential(
                  (0): Linear(in_features=768, out_features=384, bias=True)
                  (1): Activation_Function_Class(
                    (f): ReLU()
                  )
                )
                (adapter_up): Linear(in_features=384, out_features=768, bias=True)
              )
              (disrpt): Adapter(
                (non_linearity): Activation_Function_Class(
                  (f): ReLU()
                )
                (adapter_down): Sequential(
                  (0): Linear(in_features=768, out_features=48, bias=True)
                  (1): Activation_Function_Class(
                    (f): ReLU()
                  )
                )
                (adapter_up): Linear(in_features=48, out_features=768, bias=True)
              )
            )
            (adapter_fusion_layer): ModuleDict()
          )
        )
        (10): BertLayer(
          (attention): BertAttention(
            (self): BertSelfAttention(
              (query): Linear(
                in_features=768, out_features=768, bias=True
                (loras): ModuleDict()
              )
              (key): Linear(
                in_features=768, out_features=768, bias=True
                (loras): ModuleDict()
              )
              (value): Linear(
                in_features=768, out_features=768, bias=True
                (loras): ModuleDict()
              )
              (dropout): Dropout(p=0.1, inplace=False)
              (prefix_tuning): PrefixTuningShim(
                (prefix_gates): ModuleDict()
                (pool): PrefixTuningPool(
                  (prefix_tunings): ModuleDict()
                )
              )
            )
            (output): BertSelfOutput(
              (dense): Linear(in_features=768, out_features=768, bias=True)
              (LayerNorm): LayerNorm((768,), eps=1e-12, elementwise_affine=True)
              (dropout): Dropout(p=0.1, inplace=False)
              (adapters): ModuleDict()
              (adapter_fusion_layer): ModuleDict()
            )
          )
          (intermediate): BertIntermediate(
            (dense): Linear(
              in_features=768, out_features=3072, bias=True
              (loras): ModuleDict()
            )
            (intermediate_act_fn): GELUActivation()
          )
          (output): BertOutput(
            (dense): Linear(
              in_features=3072, out_features=768, bias=True
              (loras): ModuleDict()
            )
            (LayerNorm): LayerNorm((768,), eps=1e-12, elementwise_affine=True)
            (dropout): Dropout(p=0.1, inplace=False)
            (adapters): ModuleDict(
              (de): Adapter(
                (non_linearity): Activation_Function_Class(
                  (f): NewGELUActivation()
                )
                (adapter_down): Sequential(
                  (0): Linear(in_features=768, out_features=384, bias=True)
                  (1): Activation_Function_Class(
                    (f): NewGELUActivation()
                  )
                )
                (adapter_up): Linear(in_features=384, out_features=768, bias=True)
              )
              (en): Adapter(
                (non_linearity): Activation_Function_Class(
                  (f): ReLU()
                )
                (adapter_down): Sequential(
                  (0): Linear(in_features=768, out_features=384, bias=True)
                  (1): Activation_Function_Class(
                    (f): ReLU()
                  )
                )
                (adapter_up): Linear(in_features=384, out_features=768, bias=True)
              )
              (disrpt): Adapter(
                (non_linearity): Activation_Function_Class(
                  (f): ReLU()
                )
                (adapter_down): Sequential(
                  (0): Linear(in_features=768, out_features=48, bias=True)
                  (1): Activation_Function_Class(
                    (f): ReLU()
                  )
                )
                (adapter_up): Linear(in_features=48, out_features=768, bias=True)
              )
            )
            (adapter_fusion_layer): ModuleDict()
          )
        )
        (11): BertLayer(
          (attention): BertAttention(
            (self): BertSelfAttention(
              (query): Linear(
                in_features=768, out_features=768, bias=True
                (loras): ModuleDict()
              )
              (key): Linear(
                in_features=768, out_features=768, bias=True
                (loras): ModuleDict()
              )
              (value): Linear(
                in_features=768, out_features=768, bias=True
                (loras): ModuleDict()
              )
              (dropout): Dropout(p=0.1, inplace=False)
              (prefix_tuning): PrefixTuningShim(
                (prefix_gates): ModuleDict()
                (pool): PrefixTuningPool(
                  (prefix_tunings): ModuleDict()
                )
              )
            )
            (output): BertSelfOutput(
              (dense): Linear(in_features=768, out_features=768, bias=True)
              (LayerNorm): LayerNorm((768,), eps=1e-12, elementwise_affine=True)
              (dropout): Dropout(p=0.1, inplace=False)
              (adapters): ModuleDict()
              (adapter_fusion_layer): ModuleDict()
            )
          )
          (intermediate): BertIntermediate(
            (dense): Linear(
              in_features=768, out_features=3072, bias=True
              (loras): ModuleDict()
            )
            (intermediate_act_fn): GELUActivation()
          )
          (output): BertOutput(
            (dense): Linear(
              in_features=3072, out_features=768, bias=True
              (loras): ModuleDict()
            )
            (LayerNorm): LayerNorm((768,), eps=1e-12, elementwise_affine=True)
            (dropout): Dropout(p=0.1, inplace=False)
            (adapters): ModuleDict(
              (de): Adapter(
                (non_linearity): Activation_Function_Class(
                  (f): NewGELUActivation()
                )
                (adapter_down): Sequential(
                  (0): Linear(in_features=768, out_features=384, bias=True)
                  (1): Activation_Function_Class(
                    (f): NewGELUActivation()
                  )
                )
                (adapter_up): Linear(in_features=384, out_features=768, bias=True)
              )
              (en): Adapter(
                (non_linearity): Activation_Function_Class(
                  (f): ReLU()
                )
                (adapter_down): Sequential(
                  (0): Linear(in_features=768, out_features=384, bias=True)
                  (1): Activation_Function_Class(
                    (f): ReLU()
                  )
                )
                (adapter_up): Linear(in_features=384, out_features=768, bias=True)
              )
              (disrpt): Adapter(
                (non_linearity): Activation_Function_Class(
                  (f): ReLU()
                )
                (adapter_down): Sequential(
                  (0): Linear(in_features=768, out_features=48, bias=True)
                  (1): Activation_Function_Class(
                    (f): ReLU()
                  )
                )
                (adapter_up): Linear(in_features=48, out_features=768, bias=True)
              )
            )
            (adapter_fusion_layer): ModuleDict()
          )
        )
      )
    )
    (pooler): BertPooler(
      (dense): Linear(in_features=768, out_features=768, bias=True)
      (activation): Tanh()
    )
    (prefix_tuning): PrefixTuningPool(
      (prefix_tunings): ModuleDict()
    )
  )
  (heads): ModuleDict(
    (disrpt): ClassificationHead(
      (0): Dropout(p=0.1, inplace=False)
      (1): Linear(in_features=768, out_features=768, bias=True)
      (2): Activation_Function_Class(
        (f): Tanh()
      )
      (3): Dropout(p=0.1, inplace=False)
      (4): Linear(in_features=768, out_features=49, bias=True)
    )
  )
)
{'train@deu.rst.pcc_loss': 3.2885210514068604, 'train@deu.rst.pcc_accuracy@deu.rst.pcc': 0.10166358595194085, 'train@deu.rst.pcc_f1@deu.rst.pcc': 0.01680022533124688, 'train@deu.rst.pcc_precision@deu.rst.pcc': 0.05700590911717461, 'train@deu.rst.pcc_recall@deu.rst.pcc': 0.04173776425283222, 'train@deu.rst.pcc_loss@deu.rst.pcc': 3.2885212898254395, 'train@deu.rst.pcc_runtime': 27.0484, 'train@deu.rst.pcc_samples_per_second': 80.005, 'train@deu.rst.pcc_steps_per_second': 2.514, 'epoch': 1.0}
…
Lang1:  eng.rst.gum    Lang2:  eng.pdtb.pdtb
Saving run to:  runs/full_shot/FullShot=v4_eng.rst.gum_eng.pdtb.pdtb_lrfunc=Adafactor_lr=2e-05_plm=bert-base-multilingual-cased
Running with params: BERT_MODEL=bert-base-multilingual-cased lr=2e-05
read 13897 examples
read 2149 examples
read 2091 examples
read 43920 examples
read 1674 examples
read 2257 examples
Total prediction labels:  46
BertAdapterModel(
  (shared_parameters): ModuleDict()
  (bert): BertModel(
    (shared_parameters): ModuleDict()
    (invertible_adapters): ModuleDict(
      (en): NICECouplingBlock(
        (F): Sequential(
          (0): Linear(in_features=384, out_features=192, bias=True)
          (1): Activation_Function_Class(
            (f): ReLU()
          )
          (2): Linear(in_features=192, out_features=384, bias=True)
        )
        (G): Sequential(
          (0): Linear(in_features=384, out_features=192, bias=True)
          (1): Activation_Function_Class(
            (f): ReLU()
          )
          (2): Linear(in_features=192, out_features=384, bias=True)
        )
      )
    )
    (embeddings): BertEmbeddings(
      (word_embeddings): Embedding(119547, 768, padding_idx=0)
      (position_embeddings): Embedding(512, 768)
      (token_type_embeddings): Embedding(2, 768)
      (LayerNorm): LayerNorm((768,), eps=1e-12, elementwise_affine=True)
      (dropout): Dropout(p=0.1, inplace=False)
    )
    (encoder): BertEncoder(
      (layer): ModuleList(
        (0): BertLayer(
          (attention): BertAttention(
            (self): BertSelfAttention(
              (query): Linear(
                in_features=768, out_features=768, bias=True
                (loras): ModuleDict()
              )
              (key): Linear(
                in_features=768, out_features=768, bias=True
                (loras): ModuleDict()
              )
              (value): Linear(
                in_features=768, out_features=768, bias=True
                (loras): ModuleDict()
              )
              (dropout): Dropout(p=0.1, inplace=False)
              (prefix_tuning): PrefixTuningShim(
                (prefix_gates): ModuleDict()
                (pool): PrefixTuningPool(
                  (prefix_tunings): ModuleDict()
                )
              )
            )
            (output): BertSelfOutput(
              (dense): Linear(in_features=768, out_features=768, bias=True)
              (LayerNorm): LayerNorm((768,), eps=1e-12, elementwise_affine=True)
              (dropout): Dropout(p=0.1, inplace=False)
              (adapters): ModuleDict()
              (adapter_fusion_layer): ModuleDict()
            )
          )
          (intermediate): BertIntermediate(
            (dense): Linear(
              in_features=768, out_features=3072, bias=True
              (loras): ModuleDict()
            )
            (intermediate_act_fn): GELUActivation()
          )
          (output): BertOutput(
            (dense): Linear(
              in_features=3072, out_features=768, bias=True
              (loras): ModuleDict()
            )
            (LayerNorm): LayerNorm((768,), eps=1e-12, elementwise_affine=True)
            (dropout): Dropout(p=0.1, inplace=False)
            (adapters): ModuleDict(
              (en): Adapter(
                (non_linearity): Activation_Function_Class(
                  (f): ReLU()
                )
                (adapter_down): Sequential(
                  (0): Linear(in_features=768, out_features=384, bias=True)
                  (1): Activation_Function_Class(
                    (f): ReLU()
                  )
                )
                (adapter_up): Linear(in_features=384, out_features=768, bias=True)
              )
              (disrpt): Adapter(
                (non_linearity): Activation_Function_Class(
                  (f): ReLU()
                )
                (adapter_down): Sequential(
                  (0): Linear(in_features=768, out_features=48, bias=True)
                  (1): Activation_Function_Class(
                    (f): ReLU()
                  )
                )
                (adapter_up): Linear(in_features=48, out_features=768, bias=True)
              )
            )
            (adapter_fusion_layer): ModuleDict()
          )
        )
        (1): BertLayer(
          (attention): BertAttention(
            (self): BertSelfAttention(
              (query): Linear(
                in_features=768, out_features=768, bias=True
                (loras): ModuleDict()
              )
              (key): Linear(
                in_features=768, out_features=768, bias=True
                (loras): ModuleDict()
              )
              (value): Linear(
                in_features=768, out_features=768, bias=True
                (loras): ModuleDict()
              )
              (dropout): Dropout(p=0.1, inplace=False)
              (prefix_tuning): PrefixTuningShim(
                (prefix_gates): ModuleDict()
                (pool): PrefixTuningPool(
                  (prefix_tunings): ModuleDict()
                )
              )
            )
            (output): BertSelfOutput(
              (dense): Linear(in_features=768, out_features=768, bias=True)
              (LayerNorm): LayerNorm((768,), eps=1e-12, elementwise_affine=True)
              (dropout): Dropout(p=0.1, inplace=False)
              (adapters): ModuleDict()
              (adapter_fusion_layer): ModuleDict()
            )
          )
          (intermediate): BertIntermediate(
            (dense): Linear(
              in_features=768, out_features=3072, bias=True
              (loras): ModuleDict()
            )
            (intermediate_act_fn): GELUActivation()
          )
          (output): BertOutput(
            (dense): Linear(
              in_features=3072, out_features=768, bias=True
              (loras): ModuleDict()
            )
            (LayerNorm): LayerNorm((768,), eps=1e-12, elementwise_affine=True)
            (dropout): Dropout(p=0.1, inplace=False)
            (adapters): ModuleDict(
              (en): Adapter(
                (non_linearity): Activation_Function_Class(
                  (f): ReLU()
                )
                (adapter_down): Sequential(
                  (0): Linear(in_features=768, out_features=384, bias=True)
                  (1): Activation_Function_Class(
                    (f): ReLU()
                  )
                )
                (adapter_up): Linear(in_features=384, out_features=768, bias=True)
              )
              (disrpt): Adapter(
                (non_linearity): Activation_Function_Class(
                  (f): ReLU()
                )
                (adapter_down): Sequential(
                  (0): Linear(in_features=768, out_features=48, bias=True)
                  (1): Activation_Function_Class(
                    (f): ReLU()
                  )
                )
                (adapter_up): Linear(in_features=48, out_features=768, bias=True)
              )
            )
            (adapter_fusion_layer): ModuleDict()
          )
        )
        (2): BertLayer(
          (attention): BertAttention(
            (self): BertSelfAttention(
              (query): Linear(
                in_features=768, out_features=768, bias=True
                (loras): ModuleDict()
              )
              (key): Linear(
                in_features=768, out_features=768, bias=True
                (loras): ModuleDict()
              )
              (value): Linear(
                in_features=768, out_features=768, bias=True
                (loras): ModuleDict()
              )
              (dropout): Dropout(p=0.1, inplace=False)
              (prefix_tuning): PrefixTuningShim(
                (prefix_gates): ModuleDict()
                (pool): PrefixTuningPool(
                  (prefix_tunings): ModuleDict()
                )
              )
            )
            (output): BertSelfOutput(
              (dense): Linear(in_features=768, out_features=768, bias=True)
              (LayerNorm): LayerNorm((768,), eps=1e-12, elementwise_affine=True)
              (dropout): Dropout(p=0.1, inplace=False)
              (adapters): ModuleDict()
              (adapter_fusion_layer): ModuleDict()
            )
          )
          (intermediate): BertIntermediate(
            (dense): Linear(
              in_features=768, out_features=3072, bias=True
              (loras): ModuleDict()
            )
            (intermediate_act_fn): GELUActivation()
          )
          (output): BertOutput(
            (dense): Linear(
              in_features=3072, out_features=768, bias=True
              (loras): ModuleDict()
            )
            (LayerNorm): LayerNorm((768,), eps=1e-12, elementwise_affine=True)
            (dropout): Dropout(p=0.1, inplace=False)
            (adapters): ModuleDict(
              (en): Adapter(
                (non_linearity): Activation_Function_Class(
                  (f): ReLU()
                )
                (adapter_down): Sequential(
                  (0): Linear(in_features=768, out_features=384, bias=True)
                  (1): Activation_Function_Class(
                    (f): ReLU()
                  )
                )
                (adapter_up): Linear(in_features=384, out_features=768, bias=True)
              )
              (disrpt): Adapter(
                (non_linearity): Activation_Function_Class(
                  (f): ReLU()
                )
                (adapter_down): Sequential(
                  (0): Linear(in_features=768, out_features=48, bias=True)
                  (1): Activation_Function_Class(
                    (f): ReLU()
                  )
                )
                (adapter_up): Linear(in_features=48, out_features=768, bias=True)
              )
            )
            (adapter_fusion_layer): ModuleDict()
          )
        )
        (3): BertLayer(
          (attention): BertAttention(
            (self): BertSelfAttention(
              (query): Linear(
                in_features=768, out_features=768, bias=True
                (loras): ModuleDict()
              )
              (key): Linear(
                in_features=768, out_features=768, bias=True
                (loras): ModuleDict()
              )
              (value): Linear(
                in_features=768, out_features=768, bias=True
                (loras): ModuleDict()
              )
              (dropout): Dropout(p=0.1, inplace=False)
              (prefix_tuning): PrefixTuningShim(
                (prefix_gates): ModuleDict()
                (pool): PrefixTuningPool(
                  (prefix_tunings): ModuleDict()
                )
              )
            )
            (output): BertSelfOutput(
              (dense): Linear(in_features=768, out_features=768, bias=True)
              (LayerNorm): LayerNorm((768,), eps=1e-12, elementwise_affine=True)
              (dropout): Dropout(p=0.1, inplace=False)
              (adapters): ModuleDict()
              (adapter_fusion_layer): ModuleDict()
            )
          )
          (intermediate): BertIntermediate(
            (dense): Linear(
              in_features=768, out_features=3072, bias=True
              (loras): ModuleDict()
            )
            (intermediate_act_fn): GELUActivation()
          )
          (output): BertOutput(
            (dense): Linear(
              in_features=3072, out_features=768, bias=True
              (loras): ModuleDict()
            )
            (LayerNorm): LayerNorm((768,), eps=1e-12, elementwise_affine=True)
            (dropout): Dropout(p=0.1, inplace=False)
            (adapters): ModuleDict(
              (en): Adapter(
                (non_linearity): Activation_Function_Class(
                  (f): ReLU()
                )
                (adapter_down): Sequential(
                  (0): Linear(in_features=768, out_features=384, bias=True)
                  (1): Activation_Function_Class(
                    (f): ReLU()
                  )
                )
                (adapter_up): Linear(in_features=384, out_features=768, bias=True)
              )
              (disrpt): Adapter(
                (non_linearity): Activation_Function_Class(
                  (f): ReLU()
                )
                (adapter_down): Sequential(
                  (0): Linear(in_features=768, out_features=48, bias=True)
                  (1): Activation_Function_Class(
                    (f): ReLU()
                  )
                )
                (adapter_up): Linear(in_features=48, out_features=768, bias=True)
              )
            )
            (adapter_fusion_layer): ModuleDict()
          )
        )
        (4): BertLayer(
          (attention): BertAttention(
            (self): BertSelfAttention(
              (query): Linear(
                in_features=768, out_features=768, bias=True
                (loras): ModuleDict()
              )
              (key): Linear(
                in_features=768, out_features=768, bias=True
                (loras): ModuleDict()
              )
              (value): Linear(
                in_features=768, out_features=768, bias=True
                (loras): ModuleDict()
              )
              (dropout): Dropout(p=0.1, inplace=False)
              (prefix_tuning): PrefixTuningShim(
                (prefix_gates): ModuleDict()
                (pool): PrefixTuningPool(
                  (prefix_tunings): ModuleDict()
                )
              )
            )
            (output): BertSelfOutput(
              (dense): Linear(in_features=768, out_features=768, bias=True)
              (LayerNorm): LayerNorm((768,), eps=1e-12, elementwise_affine=True)
              (dropout): Dropout(p=0.1, inplace=False)
              (adapters): ModuleDict()
              (adapter_fusion_layer): ModuleDict()
            )
          )
          (intermediate): BertIntermediate(
            (dense): Linear(
              in_features=768, out_features=3072, bias=True
              (loras): ModuleDict()
            )
            (intermediate_act_fn): GELUActivation()
          )
          (output): BertOutput(
            (dense): Linear(
              in_features=3072, out_features=768, bias=True
              (loras): ModuleDict()
            )
            (LayerNorm): LayerNorm((768,), eps=1e-12, elementwise_affine=True)
            (dropout): Dropout(p=0.1, inplace=False)
            (adapters): ModuleDict(
              (en): Adapter(
                (non_linearity): Activation_Function_Class(
                  (f): ReLU()
                )
                (adapter_down): Sequential(
                  (0): Linear(in_features=768, out_features=384, bias=True)
                  (1): Activation_Function_Class(
                    (f): ReLU()
                  )
                )
                (adapter_up): Linear(in_features=384, out_features=768, bias=True)
              )
              (disrpt): Adapter(
                (non_linearity): Activation_Function_Class(
                  (f): ReLU()
                )
                (adapter_down): Sequential(
                  (0): Linear(in_features=768, out_features=48, bias=True)
                  (1): Activation_Function_Class(
                    (f): ReLU()
                  )
                )
                (adapter_up): Linear(in_features=48, out_features=768, bias=True)
              )
            )
            (adapter_fusion_layer): ModuleDict()
          )
        )
        (5): BertLayer(
          (attention): BertAttention(
            (self): BertSelfAttention(
              (query): Linear(
                in_features=768, out_features=768, bias=True
                (loras): ModuleDict()
              )
              (key): Linear(
                in_features=768, out_features=768, bias=True
                (loras): ModuleDict()
              )
              (value): Linear(
                in_features=768, out_features=768, bias=True
                (loras): ModuleDict()
              )
              (dropout): Dropout(p=0.1, inplace=False)
              (prefix_tuning): PrefixTuningShim(
                (prefix_gates): ModuleDict()
                (pool): PrefixTuningPool(
                  (prefix_tunings): ModuleDict()
                )
              )
            )
            (output): BertSelfOutput(
              (dense): Linear(in_features=768, out_features=768, bias=True)
              (LayerNorm): LayerNorm((768,), eps=1e-12, elementwise_affine=True)
              (dropout): Dropout(p=0.1, inplace=False)
              (adapters): ModuleDict()
              (adapter_fusion_layer): ModuleDict()
            )
          )
          (intermediate): BertIntermediate(
            (dense): Linear(
              in_features=768, out_features=3072, bias=True
              (loras): ModuleDict()
            )
            (intermediate_act_fn): GELUActivation()
          )
          (output): BertOutput(
            (dense): Linear(
              in_features=3072, out_features=768, bias=True
              (loras): ModuleDict()
            )
            (LayerNorm): LayerNorm((768,), eps=1e-12, elementwise_affine=True)
            (dropout): Dropout(p=0.1, inplace=False)
            (adapters): ModuleDict(
              (en): Adapter(
                (non_linearity): Activation_Function_Class(
                  (f): ReLU()
                )
                (adapter_down): Sequential(
                  (0): Linear(in_features=768, out_features=384, bias=True)
                  (1): Activation_Function_Class(
                    (f): ReLU()
                  )
                )
                (adapter_up): Linear(in_features=384, out_features=768, bias=True)
              )
              (disrpt): Adapter(
                (non_linearity): Activation_Function_Class(
                  (f): ReLU()
                )
                (adapter_down): Sequential(
                  (0): Linear(in_features=768, out_features=48, bias=True)
                  (1): Activation_Function_Class(
                    (f): ReLU()
                  )
                )
                (adapter_up): Linear(in_features=48, out_features=768, bias=True)
              )
            )
            (adapter_fusion_layer): ModuleDict()
          )
        )
        (6): BertLayer(
          (attention): BertAttention(
            (self): BertSelfAttention(
              (query): Linear(
                in_features=768, out_features=768, bias=True
                (loras): ModuleDict()
              )
              (key): Linear(
                in_features=768, out_features=768, bias=True
                (loras): ModuleDict()
              )
              (value): Linear(
                in_features=768, out_features=768, bias=True
                (loras): ModuleDict()
              )
              (dropout): Dropout(p=0.1, inplace=False)
              (prefix_tuning): PrefixTuningShim(
                (prefix_gates): ModuleDict()
                (pool): PrefixTuningPool(
                  (prefix_tunings): ModuleDict()
                )
              )
            )
            (output): BertSelfOutput(
              (dense): Linear(in_features=768, out_features=768, bias=True)
              (LayerNorm): LayerNorm((768,), eps=1e-12, elementwise_affine=True)
              (dropout): Dropout(p=0.1, inplace=False)
              (adapters): ModuleDict()
              (adapter_fusion_layer): ModuleDict()
            )
          )
          (intermediate): BertIntermediate(
            (dense): Linear(
              in_features=768, out_features=3072, bias=True
              (loras): ModuleDict()
            )
            (intermediate_act_fn): GELUActivation()
          )
          (output): BertOutput(
            (dense): Linear(
              in_features=3072, out_features=768, bias=True
              (loras): ModuleDict()
            )
            (LayerNorm): LayerNorm((768,), eps=1e-12, elementwise_affine=True)
            (dropout): Dropout(p=0.1, inplace=False)
            (adapters): ModuleDict(
              (en): Adapter(
                (non_linearity): Activation_Function_Class(
                  (f): ReLU()
                )
                (adapter_down): Sequential(
                  (0): Linear(in_features=768, out_features=384, bias=True)
                  (1): Activation_Function_Class(
                    (f): ReLU()
                  )
                )
                (adapter_up): Linear(in_features=384, out_features=768, bias=True)
              )
              (disrpt): Adapter(
                (non_linearity): Activation_Function_Class(
                  (f): ReLU()
                )
                (adapter_down): Sequential(
                  (0): Linear(in_features=768, out_features=48, bias=True)
                  (1): Activation_Function_Class(
                    (f): ReLU()
                  )
                )
                (adapter_up): Linear(in_features=48, out_features=768, bias=True)
              )
            )
            (adapter_fusion_layer): ModuleDict()
          )
        )
        (7): BertLayer(
          (attention): BertAttention(
            (self): BertSelfAttention(
              (query): Linear(
                in_features=768, out_features=768, bias=True
                (loras): ModuleDict()
              )
              (key): Linear(
                in_features=768, out_features=768, bias=True
                (loras): ModuleDict()
              )
              (value): Linear(
                in_features=768, out_features=768, bias=True
                (loras): ModuleDict()
              )
              (dropout): Dropout(p=0.1, inplace=False)
              (prefix_tuning): PrefixTuningShim(
                (prefix_gates): ModuleDict()
                (pool): PrefixTuningPool(
                  (prefix_tunings): ModuleDict()
                )
              )
            )
            (output): BertSelfOutput(
              (dense): Linear(in_features=768, out_features=768, bias=True)
              (LayerNorm): LayerNorm((768,), eps=1e-12, elementwise_affine=True)
              (dropout): Dropout(p=0.1, inplace=False)
              (adapters): ModuleDict()
              (adapter_fusion_layer): ModuleDict()
            )
          )
          (intermediate): BertIntermediate(
            (dense): Linear(
              in_features=768, out_features=3072, bias=True
              (loras): ModuleDict()
            )
            (intermediate_act_fn): GELUActivation()
          )
          (output): BertOutput(
            (dense): Linear(
              in_features=3072, out_features=768, bias=True
              (loras): ModuleDict()
            )
            (LayerNorm): LayerNorm((768,), eps=1e-12, elementwise_affine=True)
            (dropout): Dropout(p=0.1, inplace=False)
            (adapters): ModuleDict(
              (en): Adapter(
                (non_linearity): Activation_Function_Class(
                  (f): ReLU()
                )
                (adapter_down): Sequential(
                  (0): Linear(in_features=768, out_features=384, bias=True)
                  (1): Activation_Function_Class(
                    (f): ReLU()
                  )
                )
                (adapter_up): Linear(in_features=384, out_features=768, bias=True)
              )
              (disrpt): Adapter(
                (non_linearity): Activation_Function_Class(
                  (f): ReLU()
                )
                (adapter_down): Sequential(
                  (0): Linear(in_features=768, out_features=48, bias=True)
                  (1): Activation_Function_Class(
                    (f): ReLU()
                  )
                )
                (adapter_up): Linear(in_features=48, out_features=768, bias=True)
              )
            )
            (adapter_fusion_layer): ModuleDict()
          )
        )
        (8): BertLayer(
          (attention): BertAttention(
            (self): BertSelfAttention(
              (query): Linear(
                in_features=768, out_features=768, bias=True
                (loras): ModuleDict()
              )
              (key): Linear(
                in_features=768, out_features=768, bias=True
                (loras): ModuleDict()
              )
              (value): Linear(
                in_features=768, out_features=768, bias=True
                (loras): ModuleDict()
              )
              (dropout): Dropout(p=0.1, inplace=False)
              (prefix_tuning): PrefixTuningShim(
                (prefix_gates): ModuleDict()
                (pool): PrefixTuningPool(
                  (prefix_tunings): ModuleDict()
                )
              )
            )
            (output): BertSelfOutput(
              (dense): Linear(in_features=768, out_features=768, bias=True)
              (LayerNorm): LayerNorm((768,), eps=1e-12, elementwise_affine=True)
              (dropout): Dropout(p=0.1, inplace=False)
              (adapters): ModuleDict()
              (adapter_fusion_layer): ModuleDict()
            )
          )
          (intermediate): BertIntermediate(
            (dense): Linear(
              in_features=768, out_features=3072, bias=True
              (loras): ModuleDict()
            )
            (intermediate_act_fn): GELUActivation()
          )
          (output): BertOutput(
            (dense): Linear(
              in_features=3072, out_features=768, bias=True
              (loras): ModuleDict()
            )
            (LayerNorm): LayerNorm((768,), eps=1e-12, elementwise_affine=True)
            (dropout): Dropout(p=0.1, inplace=False)
            (adapters): ModuleDict(
              (en): Adapter(
                (non_linearity): Activation_Function_Class(
                  (f): ReLU()
                )
                (adapter_down): Sequential(
                  (0): Linear(in_features=768, out_features=384, bias=True)
                  (1): Activation_Function_Class(
                    (f): ReLU()
                  )
                )
                (adapter_up): Linear(in_features=384, out_features=768, bias=True)
              )
              (disrpt): Adapter(
                (non_linearity): Activation_Function_Class(
                  (f): ReLU()
                )
                (adapter_down): Sequential(
                  (0): Linear(in_features=768, out_features=48, bias=True)
                  (1): Activation_Function_Class(
                    (f): ReLU()
                  )
                )
                (adapter_up): Linear(in_features=48, out_features=768, bias=True)
              )
            )
            (adapter_fusion_layer): ModuleDict()
          )
        )
        (9): BertLayer(
          (attention): BertAttention(
            (self): BertSelfAttention(
              (query): Linear(
                in_features=768, out_features=768, bias=True
                (loras): ModuleDict()
              )
              (key): Linear(
                in_features=768, out_features=768, bias=True
                (loras): ModuleDict()
              )
              (value): Linear(
                in_features=768, out_features=768, bias=True
                (loras): ModuleDict()
              )
              (dropout): Dropout(p=0.1, inplace=False)
              (prefix_tuning): PrefixTuningShim(
                (prefix_gates): ModuleDict()
                (pool): PrefixTuningPool(
                  (prefix_tunings): ModuleDict()
                )
              )
            )
            (output): BertSelfOutput(
              (dense): Linear(in_features=768, out_features=768, bias=True)
              (LayerNorm): LayerNorm((768,), eps=1e-12, elementwise_affine=True)
              (dropout): Dropout(p=0.1, inplace=False)
              (adapters): ModuleDict()
              (adapter_fusion_layer): ModuleDict()
            )
          )
          (intermediate): BertIntermediate(
            (dense): Linear(
              in_features=768, out_features=3072, bias=True
              (loras): ModuleDict()
            )
            (intermediate_act_fn): GELUActivation()
          )
          (output): BertOutput(
            (dense): Linear(
              in_features=3072, out_features=768, bias=True
              (loras): ModuleDict()
            )
            (LayerNorm): LayerNorm((768,), eps=1e-12, elementwise_affine=True)
            (dropout): Dropout(p=0.1, inplace=False)
            (adapters): ModuleDict(
              (en): Adapter(
                (non_linearity): Activation_Function_Class(
                  (f): ReLU()
                )
                (adapter_down): Sequential(
                  (0): Linear(in_features=768, out_features=384, bias=True)
                  (1): Activation_Function_Class(
                    (f): ReLU()
                  )
                )
                (adapter_up): Linear(in_features=384, out_features=768, bias=True)
              )
              (disrpt): Adapter(
                (non_linearity): Activation_Function_Class(
                  (f): ReLU()
                )
                (adapter_down): Sequential(
                  (0): Linear(in_features=768, out_features=48, bias=True)
                  (1): Activation_Function_Class(
                    (f): ReLU()
                  )
                )
                (adapter_up): Linear(in_features=48, out_features=768, bias=True)
              )
            )
            (adapter_fusion_layer): ModuleDict()
          )
        )
        (10): BertLayer(
          (attention): BertAttention(
            (self): BertSelfAttention(
              (query): Linear(
                in_features=768, out_features=768, bias=True
                (loras): ModuleDict()
              )
              (key): Linear(
                in_features=768, out_features=768, bias=True
                (loras): ModuleDict()
              )
              (value): Linear(
                in_features=768, out_features=768, bias=True
                (loras): ModuleDict()
              )
              (dropout): Dropout(p=0.1, inplace=False)
              (prefix_tuning): PrefixTuningShim(
                (prefix_gates): ModuleDict()
                (pool): PrefixTuningPool(
                  (prefix_tunings): ModuleDict()
                )
              )
            )
            (output): BertSelfOutput(
              (dense): Linear(in_features=768, out_features=768, bias=True)
              (LayerNorm): LayerNorm((768,), eps=1e-12, elementwise_affine=True)
              (dropout): Dropout(p=0.1, inplace=False)
              (adapters): ModuleDict()
              (adapter_fusion_layer): ModuleDict()
            )
          )
          (intermediate): BertIntermediate(
            (dense): Linear(
              in_features=768, out_features=3072, bias=True
              (loras): ModuleDict()
            )
            (intermediate_act_fn): GELUActivation()
          )
          (output): BertOutput(
            (dense): Linear(
              in_features=3072, out_features=768, bias=True
              (loras): ModuleDict()
            )
            (LayerNorm): LayerNorm((768,), eps=1e-12, elementwise_affine=True)
            (dropout): Dropout(p=0.1, inplace=False)
            (adapters): ModuleDict(
              (en): Adapter(
                (non_linearity): Activation_Function_Class(
                  (f): ReLU()
                )
                (adapter_down): Sequential(
                  (0): Linear(in_features=768, out_features=384, bias=True)
                  (1): Activation_Function_Class(
                    (f): ReLU()
                  )
                )
                (adapter_up): Linear(in_features=384, out_features=768, bias=True)
              )
              (disrpt): Adapter(
                (non_linearity): Activation_Function_Class(
                  (f): ReLU()
                )
                (adapter_down): Sequential(
                  (0): Linear(in_features=768, out_features=48, bias=True)
                  (1): Activation_Function_Class(
                    (f): ReLU()
                  )
                )
                (adapter_up): Linear(in_features=48, out_features=768, bias=True)
              )
            )
            (adapter_fusion_layer): ModuleDict()
          )
        )
        (11): BertLayer(
          (attention): BertAttention(
            (self): BertSelfAttention(
              (query): Linear(
                in_features=768, out_features=768, bias=True
                (loras): ModuleDict()
              )
              (key): Linear(
                in_features=768, out_features=768, bias=True
                (loras): ModuleDict()
              )
              (value): Linear(
                in_features=768, out_features=768, bias=True
                (loras): ModuleDict()
              )
              (dropout): Dropout(p=0.1, inplace=False)
              (prefix_tuning): PrefixTuningShim(
                (prefix_gates): ModuleDict()
                (pool): PrefixTuningPool(
                  (prefix_tunings): ModuleDict()
                )
              )
            )
            (output): BertSelfOutput(
              (dense): Linear(in_features=768, out_features=768, bias=True)
              (LayerNorm): LayerNorm((768,), eps=1e-12, elementwise_affine=True)
              (dropout): Dropout(p=0.1, inplace=False)
              (adapters): ModuleDict()
              (adapter_fusion_layer): ModuleDict()
            )
          )
          (intermediate): BertIntermediate(
            (dense): Linear(
              in_features=768, out_features=3072, bias=True
              (loras): ModuleDict()
            )
            (intermediate_act_fn): GELUActivation()
          )
          (output): BertOutput(
            (dense): Linear(
              in_features=3072, out_features=768, bias=True
              (loras): ModuleDict()
            )
            (LayerNorm): LayerNorm((768,), eps=1e-12, elementwise_affine=True)
            (dropout): Dropout(p=0.1, inplace=False)
            (adapters): ModuleDict(
              (en): Adapter(
                (non_linearity): Activation_Function_Class(
                  (f): ReLU()
                )
                (adapter_down): Sequential(
                  (0): Linear(in_features=768, out_features=384, bias=True)
                  (1): Activation_Function_Class(
                    (f): ReLU()
                  )
                )
                (adapter_up): Linear(in_features=384, out_features=768, bias=True)
              )
              (disrpt): Adapter(
                (non_linearity): Activation_Function_Class(
                  (f): ReLU()
                )
                (adapter_down): Sequential(
                  (0): Linear(in_features=768, out_features=48, bias=True)
                  (1): Activation_Function_Class(
                    (f): ReLU()
                  )
                )
                (adapter_up): Linear(in_features=48, out_features=768, bias=True)
              )
            )
            (adapter_fusion_layer): ModuleDict()
          )
        )
      )
    )
    (pooler): BertPooler(
      (dense): Linear(in_features=768, out_features=768, bias=True)
      (activation): Tanh()
    )
    (prefix_tuning): PrefixTuningPool(
      (prefix_tunings): ModuleDict()
    )
  )
  (heads): ModuleDict(
    (disrpt): ClassificationHead(
      (0): Dropout(p=0.1, inplace=False)
      (1): Linear(in_features=768, out_features=768, bias=True)
      (2): Activation_Function_Class(
        (f): Tanh()
      )
      (3): Dropout(p=0.1, inplace=False)
      (4): Linear(in_features=768, out_features=46, bias=True)
    )
  )
)
{'train@eng.rst.gum_loss': 2.581017255783081, 'train@eng.rst.gum_accuracy@eng.rst.gum': 0.23004965100381378, 'train@eng.rst.gum_f1@eng.rst.gum': 0.025448528704127688, 'train@eng.rst.gum_precision@eng.rst.gum': 0.018969317996968188, 'train@eng.rst.gum_recall@eng.rst.gum': 0.04855016796962692, 'train@eng.rst.gum_loss@eng.rst.gum': 2.5810177326202393, 'train@eng.rst.gum_runtime': 163.0846, 'train@eng.rst.gum_samples_per_second': 85.213, 'train@eng.rst.gum_steps_per_second': 2.667, 'epoch': 1.0}
…
Lang1:  eng.rst.rstdt    Lang2:  eng.pdtb.pdtb
Saving run to:  runs/full_shot/FullShot=v4_eng.rst.rstdt_eng.pdtb.pdtb_lrfunc=Adafactor_lr=2e-05_plm=bert-base-multilingual-cased
Running with params: BERT_MODEL=bert-base-multilingual-cased lr=2e-05
read 16002 examples
read 1621 examples
read 2155 examples
read 43920 examples
read 1674 examples
read 2257 examples
Total prediction labels:  40
BertAdapterModel(
  (shared_parameters): ModuleDict()
  (bert): BertModel(
    (shared_parameters): ModuleDict()
    (invertible_adapters): ModuleDict(
      (en): NICECouplingBlock(
        (F): Sequential(
          (0): Linear(in_features=384, out_features=192, bias=True)
          (1): Activation_Function_Class(
            (f): ReLU()
          )
          (2): Linear(in_features=192, out_features=384, bias=True)
        )
        (G): Sequential(
          (0): Linear(in_features=384, out_features=192, bias=True)
          (1): Activation_Function_Class(
            (f): ReLU()
          )
          (2): Linear(in_features=192, out_features=384, bias=True)
        )
      )
    )
    (embeddings): BertEmbeddings(
      (word_embeddings): Embedding(119547, 768, padding_idx=0)
      (position_embeddings): Embedding(512, 768)
      (token_type_embeddings): Embedding(2, 768)
      (LayerNorm): LayerNorm((768,), eps=1e-12, elementwise_affine=True)
      (dropout): Dropout(p=0.1, inplace=False)
    )
    (encoder): BertEncoder(
      (layer): ModuleList(
        (0): BertLayer(
          (attention): BertAttention(
            (self): BertSelfAttention(
              (query): Linear(
                in_features=768, out_features=768, bias=True
                (loras): ModuleDict()
              )
              (key): Linear(
                in_features=768, out_features=768, bias=True
                (loras): ModuleDict()
              )
              (value): Linear(
                in_features=768, out_features=768, bias=True
                (loras): ModuleDict()
              )
              (dropout): Dropout(p=0.1, inplace=False)
              (prefix_tuning): PrefixTuningShim(
                (prefix_gates): ModuleDict()
                (pool): PrefixTuningPool(
                  (prefix_tunings): ModuleDict()
                )
              )
            )
            (output): BertSelfOutput(
              (dense): Linear(in_features=768, out_features=768, bias=True)
              (LayerNorm): LayerNorm((768,), eps=1e-12, elementwise_affine=True)
              (dropout): Dropout(p=0.1, inplace=False)
              (adapters): ModuleDict()
              (adapter_fusion_layer): ModuleDict()
            )
          )
          (intermediate): BertIntermediate(
            (dense): Linear(
              in_features=768, out_features=3072, bias=True
              (loras): ModuleDict()
            )
            (intermediate_act_fn): GELUActivation()
          )
          (output): BertOutput(
            (dense): Linear(
              in_features=3072, out_features=768, bias=True
              (loras): ModuleDict()
            )
            (LayerNorm): LayerNorm((768,), eps=1e-12, elementwise_affine=True)
            (dropout): Dropout(p=0.1, inplace=False)
            (adapters): ModuleDict(
              (en): Adapter(
                (non_linearity): Activation_Function_Class(
                  (f): ReLU()
                )
                (adapter_down): Sequential(
                  (0): Linear(in_features=768, out_features=384, bias=True)
                  (1): Activation_Function_Class(
                    (f): ReLU()
                  )
                )
                (adapter_up): Linear(in_features=384, out_features=768, bias=True)
              )
              (disrpt): Adapter(
                (non_linearity): Activation_Function_Class(
                  (f): ReLU()
                )
                (adapter_down): Sequential(
                  (0): Linear(in_features=768, out_features=48, bias=True)
                  (1): Activation_Function_Class(
                    (f): ReLU()
                  )
                )
                (adapter_up): Linear(in_features=48, out_features=768, bias=True)
              )
            )
            (adapter_fusion_layer): ModuleDict()
          )
        )
        (1): BertLayer(
          (attention): BertAttention(
            (self): BertSelfAttention(
              (query): Linear(
                in_features=768, out_features=768, bias=True
                (loras): ModuleDict()
              )
              (key): Linear(
                in_features=768, out_features=768, bias=True
                (loras): ModuleDict()
              )
              (value): Linear(
                in_features=768, out_features=768, bias=True
                (loras): ModuleDict()
              )
              (dropout): Dropout(p=0.1, inplace=False)
              (prefix_tuning): PrefixTuningShim(
                (prefix_gates): ModuleDict()
                (pool): PrefixTuningPool(
                  (prefix_tunings): ModuleDict()
                )
              )
            )
            (output): BertSelfOutput(
              (dense): Linear(in_features=768, out_features=768, bias=True)
              (LayerNorm): LayerNorm((768,), eps=1e-12, elementwise_affine=True)
              (dropout): Dropout(p=0.1, inplace=False)
              (adapters): ModuleDict()
              (adapter_fusion_layer): ModuleDict()
            )
          )
          (intermediate): BertIntermediate(
            (dense): Linear(
              in_features=768, out_features=3072, bias=True
              (loras): ModuleDict()
            )
            (intermediate_act_fn): GELUActivation()
          )
          (output): BertOutput(
            (dense): Linear(
              in_features=3072, out_features=768, bias=True
              (loras): ModuleDict()
            )
            (LayerNorm): LayerNorm((768,), eps=1e-12, elementwise_affine=True)
            (dropout): Dropout(p=0.1, inplace=False)
            (adapters): ModuleDict(
              (en): Adapter(
                (non_linearity): Activation_Function_Class(
                  (f): ReLU()
                )
                (adapter_down): Sequential(
                  (0): Linear(in_features=768, out_features=384, bias=True)
                  (1): Activation_Function_Class(
                    (f): ReLU()
                  )
                )
                (adapter_up): Linear(in_features=384, out_features=768, bias=True)
              )
              (disrpt): Adapter(
                (non_linearity): Activation_Function_Class(
                  (f): ReLU()
                )
                (adapter_down): Sequential(
                  (0): Linear(in_features=768, out_features=48, bias=True)
                  (1): Activation_Function_Class(
                    (f): ReLU()
                  )
                )
                (adapter_up): Linear(in_features=48, out_features=768, bias=True)
              )
            )
            (adapter_fusion_layer): ModuleDict()
          )
        )
        (2): BertLayer(
          (attention): BertAttention(
            (self): BertSelfAttention(
              (query): Linear(
                in_features=768, out_features=768, bias=True
                (loras): ModuleDict()
              )
              (key): Linear(
                in_features=768, out_features=768, bias=True
                (loras): ModuleDict()
              )
              (value): Linear(
                in_features=768, out_features=768, bias=True
                (loras): ModuleDict()
              )
              (dropout): Dropout(p=0.1, inplace=False)
              (prefix_tuning): PrefixTuningShim(
                (prefix_gates): ModuleDict()
                (pool): PrefixTuningPool(
                  (prefix_tunings): ModuleDict()
                )
              )
            )
            (output): BertSelfOutput(
              (dense): Linear(in_features=768, out_features=768, bias=True)
              (LayerNorm): LayerNorm((768,), eps=1e-12, elementwise_affine=True)
              (dropout): Dropout(p=0.1, inplace=False)
              (adapters): ModuleDict()
              (adapter_fusion_layer): ModuleDict()
            )
          )
          (intermediate): BertIntermediate(
            (dense): Linear(
              in_features=768, out_features=3072, bias=True
              (loras): ModuleDict()
            )
            (intermediate_act_fn): GELUActivation()
          )
          (output): BertOutput(
            (dense): Linear(
              in_features=3072, out_features=768, bias=True
              (loras): ModuleDict()
            )
            (LayerNorm): LayerNorm((768,), eps=1e-12, elementwise_affine=True)
            (dropout): Dropout(p=0.1, inplace=False)
            (adapters): ModuleDict(
              (en): Adapter(
                (non_linearity): Activation_Function_Class(
                  (f): ReLU()
                )
                (adapter_down): Sequential(
                  (0): Linear(in_features=768, out_features=384, bias=True)
                  (1): Activation_Function_Class(
                    (f): ReLU()
                  )
                )
                (adapter_up): Linear(in_features=384, out_features=768, bias=True)
              )
              (disrpt): Adapter(
                (non_linearity): Activation_Function_Class(
                  (f): ReLU()
                )
                (adapter_down): Sequential(
                  (0): Linear(in_features=768, out_features=48, bias=True)
                  (1): Activation_Function_Class(
                    (f): ReLU()
                  )
                )
                (adapter_up): Linear(in_features=48, out_features=768, bias=True)
              )
            )
            (adapter_fusion_layer): ModuleDict()
          )
        )
        (3): BertLayer(
          (attention): BertAttention(
            (self): BertSelfAttention(
              (query): Linear(
                in_features=768, out_features=768, bias=True
                (loras): ModuleDict()
              )
              (key): Linear(
                in_features=768, out_features=768, bias=True
                (loras): ModuleDict()
              )
              (value): Linear(
                in_features=768, out_features=768, bias=True
                (loras): ModuleDict()
              )
              (dropout): Dropout(p=0.1, inplace=False)
              (prefix_tuning): PrefixTuningShim(
                (prefix_gates): ModuleDict()
                (pool): PrefixTuningPool(
                  (prefix_tunings): ModuleDict()
                )
              )
            )
            (output): BertSelfOutput(
              (dense): Linear(in_features=768, out_features=768, bias=True)
              (LayerNorm): LayerNorm((768,), eps=1e-12, elementwise_affine=True)
              (dropout): Dropout(p=0.1, inplace=False)
              (adapters): ModuleDict()
              (adapter_fusion_layer): ModuleDict()
            )
          )
          (intermediate): BertIntermediate(
            (dense): Linear(
              in_features=768, out_features=3072, bias=True
              (loras): ModuleDict()
            )
            (intermediate_act_fn): GELUActivation()
          )
          (output): BertOutput(
            (dense): Linear(
              in_features=3072, out_features=768, bias=True
              (loras): ModuleDict()
            )
            (LayerNorm): LayerNorm((768,), eps=1e-12, elementwise_affine=True)
            (dropout): Dropout(p=0.1, inplace=False)
            (adapters): ModuleDict(
              (en): Adapter(
                (non_linearity): Activation_Function_Class(
                  (f): ReLU()
                )
                (adapter_down): Sequential(
                  (0): Linear(in_features=768, out_features=384, bias=True)
                  (1): Activation_Function_Class(
                    (f): ReLU()
                  )
                )
                (adapter_up): Linear(in_features=384, out_features=768, bias=True)
              )
              (disrpt): Adapter(
                (non_linearity): Activation_Function_Class(
                  (f): ReLU()
                )
                (adapter_down): Sequential(
                  (0): Linear(in_features=768, out_features=48, bias=True)
                  (1): Activation_Function_Class(
                    (f): ReLU()
                  )
                )
                (adapter_up): Linear(in_features=48, out_features=768, bias=True)
              )
            )
            (adapter_fusion_layer): ModuleDict()
          )
        )
        (4): BertLayer(
          (attention): BertAttention(
            (self): BertSelfAttention(
              (query): Linear(
                in_features=768, out_features=768, bias=True
                (loras): ModuleDict()
              )
              (key): Linear(
                in_features=768, out_features=768, bias=True
                (loras): ModuleDict()
              )
              (value): Linear(
                in_features=768, out_features=768, bias=True
                (loras): ModuleDict()
              )
              (dropout): Dropout(p=0.1, inplace=False)
              (prefix_tuning): PrefixTuningShim(
                (prefix_gates): ModuleDict()
                (pool): PrefixTuningPool(
                  (prefix_tunings): ModuleDict()
                )
              )
            )
            (output): BertSelfOutput(
              (dense): Linear(in_features=768, out_features=768, bias=True)
              (LayerNorm): LayerNorm((768,), eps=1e-12, elementwise_affine=True)
              (dropout): Dropout(p=0.1, inplace=False)
              (adapters): ModuleDict()
              (adapter_fusion_layer): ModuleDict()
            )
          )
          (intermediate): BertIntermediate(
            (dense): Linear(
              in_features=768, out_features=3072, bias=True
              (loras): ModuleDict()
            )
            (intermediate_act_fn): GELUActivation()
          )
          (output): BertOutput(
            (dense): Linear(
              in_features=3072, out_features=768, bias=True
              (loras): ModuleDict()
            )
            (LayerNorm): LayerNorm((768,), eps=1e-12, elementwise_affine=True)
            (dropout): Dropout(p=0.1, inplace=False)
            (adapters): ModuleDict(
              (en): Adapter(
                (non_linearity): Activation_Function_Class(
                  (f): ReLU()
                )
                (adapter_down): Sequential(
                  (0): Linear(in_features=768, out_features=384, bias=True)
                  (1): Activation_Function_Class(
                    (f): ReLU()
                  )
                )
                (adapter_up): Linear(in_features=384, out_features=768, bias=True)
              )
              (disrpt): Adapter(
                (non_linearity): Activation_Function_Class(
                  (f): ReLU()
                )
                (adapter_down): Sequential(
                  (0): Linear(in_features=768, out_features=48, bias=True)
                  (1): Activation_Function_Class(
                    (f): ReLU()
                  )
                )
                (adapter_up): Linear(in_features=48, out_features=768, bias=True)
              )
            )
            (adapter_fusion_layer): ModuleDict()
          )
        )
        (5): BertLayer(
          (attention): BertAttention(
            (self): BertSelfAttention(
              (query): Linear(
                in_features=768, out_features=768, bias=True
                (loras): ModuleDict()
              )
              (key): Linear(
                in_features=768, out_features=768, bias=True
                (loras): ModuleDict()
              )
              (value): Linear(
                in_features=768, out_features=768, bias=True
                (loras): ModuleDict()
              )
              (dropout): Dropout(p=0.1, inplace=False)
              (prefix_tuning): PrefixTuningShim(
                (prefix_gates): ModuleDict()
                (pool): PrefixTuningPool(
                  (prefix_tunings): ModuleDict()
                )
              )
            )
            (output): BertSelfOutput(
              (dense): Linear(in_features=768, out_features=768, bias=True)
              (LayerNorm): LayerNorm((768,), eps=1e-12, elementwise_affine=True)
              (dropout): Dropout(p=0.1, inplace=False)
              (adapters): ModuleDict()
              (adapter_fusion_layer): ModuleDict()
            )
          )
          (intermediate): BertIntermediate(
            (dense): Linear(
              in_features=768, out_features=3072, bias=True
              (loras): ModuleDict()
            )
            (intermediate_act_fn): GELUActivation()
          )
          (output): BertOutput(
            (dense): Linear(
              in_features=3072, out_features=768, bias=True
              (loras): ModuleDict()
            )
            (LayerNorm): LayerNorm((768,), eps=1e-12, elementwise_affine=True)
            (dropout): Dropout(p=0.1, inplace=False)
            (adapters): ModuleDict(
              (en): Adapter(
                (non_linearity): Activation_Function_Class(
                  (f): ReLU()
                )
                (adapter_down): Sequential(
                  (0): Linear(in_features=768, out_features=384, bias=True)
                  (1): Activation_Function_Class(
                    (f): ReLU()
                  )
                )
                (adapter_up): Linear(in_features=384, out_features=768, bias=True)
              )
              (disrpt): Adapter(
                (non_linearity): Activation_Function_Class(
                  (f): ReLU()
                )
                (adapter_down): Sequential(
                  (0): Linear(in_features=768, out_features=48, bias=True)
                  (1): Activation_Function_Class(
                    (f): ReLU()
                  )
                )
                (adapter_up): Linear(in_features=48, out_features=768, bias=True)
              )
            )
            (adapter_fusion_layer): ModuleDict()
          )
        )
        (6): BertLayer(
          (attention): BertAttention(
            (self): BertSelfAttention(
              (query): Linear(
                in_features=768, out_features=768, bias=True
                (loras): ModuleDict()
              )
              (key): Linear(
                in_features=768, out_features=768, bias=True
                (loras): ModuleDict()
              )
              (value): Linear(
                in_features=768, out_features=768, bias=True
                (loras): ModuleDict()
              )
              (dropout): Dropout(p=0.1, inplace=False)
              (prefix_tuning): PrefixTuningShim(
                (prefix_gates): ModuleDict()
                (pool): PrefixTuningPool(
                  (prefix_tunings): ModuleDict()
                )
              )
            )
            (output): BertSelfOutput(
              (dense): Linear(in_features=768, out_features=768, bias=True)
              (LayerNorm): LayerNorm((768,), eps=1e-12, elementwise_affine=True)
              (dropout): Dropout(p=0.1, inplace=False)
              (adapters): ModuleDict()
              (adapter_fusion_layer): ModuleDict()
            )
          )
          (intermediate): BertIntermediate(
            (dense): Linear(
              in_features=768, out_features=3072, bias=True
              (loras): ModuleDict()
            )
            (intermediate_act_fn): GELUActivation()
          )
          (output): BertOutput(
            (dense): Linear(
              in_features=3072, out_features=768, bias=True
              (loras): ModuleDict()
            )
            (LayerNorm): LayerNorm((768,), eps=1e-12, elementwise_affine=True)
            (dropout): Dropout(p=0.1, inplace=False)
            (adapters): ModuleDict(
              (en): Adapter(
                (non_linearity): Activation_Function_Class(
                  (f): ReLU()
                )
                (adapter_down): Sequential(
                  (0): Linear(in_features=768, out_features=384, bias=True)
                  (1): Activation_Function_Class(
                    (f): ReLU()
                  )
                )
                (adapter_up): Linear(in_features=384, out_features=768, bias=True)
              )
              (disrpt): Adapter(
                (non_linearity): Activation_Function_Class(
                  (f): ReLU()
                )
                (adapter_down): Sequential(
                  (0): Linear(in_features=768, out_features=48, bias=True)
                  (1): Activation_Function_Class(
                    (f): ReLU()
                  )
                )
                (adapter_up): Linear(in_features=48, out_features=768, bias=True)
              )
            )
            (adapter_fusion_layer): ModuleDict()
          )
        )
        (7): BertLayer(
          (attention): BertAttention(
            (self): BertSelfAttention(
              (query): Linear(
                in_features=768, out_features=768, bias=True
                (loras): ModuleDict()
              )
              (key): Linear(
                in_features=768, out_features=768, bias=True
                (loras): ModuleDict()
              )
              (value): Linear(
                in_features=768, out_features=768, bias=True
                (loras): ModuleDict()
              )
              (dropout): Dropout(p=0.1, inplace=False)
              (prefix_tuning): PrefixTuningShim(
                (prefix_gates): ModuleDict()
                (pool): PrefixTuningPool(
                  (prefix_tunings): ModuleDict()
                )
              )
            )
            (output): BertSelfOutput(
              (dense): Linear(in_features=768, out_features=768, bias=True)
              (LayerNorm): LayerNorm((768,), eps=1e-12, elementwise_affine=True)
              (dropout): Dropout(p=0.1, inplace=False)
              (adapters): ModuleDict()
              (adapter_fusion_layer): ModuleDict()
            )
          )
          (intermediate): BertIntermediate(
            (dense): Linear(
              in_features=768, out_features=3072, bias=True
              (loras): ModuleDict()
            )
            (intermediate_act_fn): GELUActivation()
          )
          (output): BertOutput(
            (dense): Linear(
              in_features=3072, out_features=768, bias=True
              (loras): ModuleDict()
            )
            (LayerNorm): LayerNorm((768,), eps=1e-12, elementwise_affine=True)
            (dropout): Dropout(p=0.1, inplace=False)
            (adapters): ModuleDict(
              (en): Adapter(
                (non_linearity): Activation_Function_Class(
                  (f): ReLU()
                )
                (adapter_down): Sequential(
                  (0): Linear(in_features=768, out_features=384, bias=True)
                  (1): Activation_Function_Class(
                    (f): ReLU()
                  )
                )
                (adapter_up): Linear(in_features=384, out_features=768, bias=True)
              )
              (disrpt): Adapter(
                (non_linearity): Activation_Function_Class(
                  (f): ReLU()
                )
                (adapter_down): Sequential(
                  (0): Linear(in_features=768, out_features=48, bias=True)
                  (1): Activation_Function_Class(
                    (f): ReLU()
                  )
                )
                (adapter_up): Linear(in_features=48, out_features=768, bias=True)
              )
            )
            (adapter_fusion_layer): ModuleDict()
          )
        )
        (8): BertLayer(
          (attention): BertAttention(
            (self): BertSelfAttention(
              (query): Linear(
                in_features=768, out_features=768, bias=True
                (loras): ModuleDict()
              )
              (key): Linear(
                in_features=768, out_features=768, bias=True
                (loras): ModuleDict()
              )
              (value): Linear(
                in_features=768, out_features=768, bias=True
                (loras): ModuleDict()
              )
              (dropout): Dropout(p=0.1, inplace=False)
              (prefix_tuning): PrefixTuningShim(
                (prefix_gates): ModuleDict()
                (pool): PrefixTuningPool(
                  (prefix_tunings): ModuleDict()
                )
              )
            )
            (output): BertSelfOutput(
              (dense): Linear(in_features=768, out_features=768, bias=True)
              (LayerNorm): LayerNorm((768,), eps=1e-12, elementwise_affine=True)
              (dropout): Dropout(p=0.1, inplace=False)
              (adapters): ModuleDict()
              (adapter_fusion_layer): ModuleDict()
            )
          )
          (intermediate): BertIntermediate(
            (dense): Linear(
              in_features=768, out_features=3072, bias=True
              (loras): ModuleDict()
            )
            (intermediate_act_fn): GELUActivation()
          )
          (output): BertOutput(
            (dense): Linear(
              in_features=3072, out_features=768, bias=True
              (loras): ModuleDict()
            )
            (LayerNorm): LayerNorm((768,), eps=1e-12, elementwise_affine=True)
            (dropout): Dropout(p=0.1, inplace=False)
            (adapters): ModuleDict(
              (en): Adapter(
                (non_linearity): Activation_Function_Class(
                  (f): ReLU()
                )
                (adapter_down): Sequential(
                  (0): Linear(in_features=768, out_features=384, bias=True)
                  (1): Activation_Function_Class(
                    (f): ReLU()
                  )
                )
                (adapter_up): Linear(in_features=384, out_features=768, bias=True)
              )
              (disrpt): Adapter(
                (non_linearity): Activation_Function_Class(
                  (f): ReLU()
                )
                (adapter_down): Sequential(
                  (0): Linear(in_features=768, out_features=48, bias=True)
                  (1): Activation_Function_Class(
                    (f): ReLU()
                  )
                )
                (adapter_up): Linear(in_features=48, out_features=768, bias=True)
              )
            )
            (adapter_fusion_layer): ModuleDict()
          )
        )
        (9): BertLayer(
          (attention): BertAttention(
            (self): BertSelfAttention(
              (query): Linear(
                in_features=768, out_features=768, bias=True
                (loras): ModuleDict()
              )
              (key): Linear(
                in_features=768, out_features=768, bias=True
                (loras): ModuleDict()
              )
              (value): Linear(
                in_features=768, out_features=768, bias=True
                (loras): ModuleDict()
              )
              (dropout): Dropout(p=0.1, inplace=False)
              (prefix_tuning): PrefixTuningShim(
                (prefix_gates): ModuleDict()
                (pool): PrefixTuningPool(
                  (prefix_tunings): ModuleDict()
                )
              )
            )
            (output): BertSelfOutput(
              (dense): Linear(in_features=768, out_features=768, bias=True)
              (LayerNorm): LayerNorm((768,), eps=1e-12, elementwise_affine=True)
              (dropout): Dropout(p=0.1, inplace=False)
              (adapters): ModuleDict()
              (adapter_fusion_layer): ModuleDict()
            )
          )
          (intermediate): BertIntermediate(
            (dense): Linear(
              in_features=768, out_features=3072, bias=True
              (loras): ModuleDict()
            )
            (intermediate_act_fn): GELUActivation()
          )
          (output): BertOutput(
            (dense): Linear(
              in_features=3072, out_features=768, bias=True
              (loras): ModuleDict()
            )
            (LayerNorm): LayerNorm((768,), eps=1e-12, elementwise_affine=True)
            (dropout): Dropout(p=0.1, inplace=False)
            (adapters): ModuleDict(
              (en): Adapter(
                (non_linearity): Activation_Function_Class(
                  (f): ReLU()
                )
                (adapter_down): Sequential(
                  (0): Linear(in_features=768, out_features=384, bias=True)
                  (1): Activation_Function_Class(
                    (f): ReLU()
                  )
                )
                (adapter_up): Linear(in_features=384, out_features=768, bias=True)
              )
              (disrpt): Adapter(
                (non_linearity): Activation_Function_Class(
                  (f): ReLU()
                )
                (adapter_down): Sequential(
                  (0): Linear(in_features=768, out_features=48, bias=True)
                  (1): Activation_Function_Class(
                    (f): ReLU()
                  )
                )
                (adapter_up): Linear(in_features=48, out_features=768, bias=True)
              )
            )
            (adapter_fusion_layer): ModuleDict()
          )
        )
        (10): BertLayer(
          (attention): BertAttention(
            (self): BertSelfAttention(
              (query): Linear(
                in_features=768, out_features=768, bias=True
                (loras): ModuleDict()
              )
              (key): Linear(
                in_features=768, out_features=768, bias=True
                (loras): ModuleDict()
              )
              (value): Linear(
                in_features=768, out_features=768, bias=True
                (loras): ModuleDict()
              )
              (dropout): Dropout(p=0.1, inplace=False)
              (prefix_tuning): PrefixTuningShim(
                (prefix_gates): ModuleDict()
                (pool): PrefixTuningPool(
                  (prefix_tunings): ModuleDict()
                )
              )
            )
            (output): BertSelfOutput(
              (dense): Linear(in_features=768, out_features=768, bias=True)
              (LayerNorm): LayerNorm((768,), eps=1e-12, elementwise_affine=True)
              (dropout): Dropout(p=0.1, inplace=False)
              (adapters): ModuleDict()
              (adapter_fusion_layer): ModuleDict()
            )
          )
          (intermediate): BertIntermediate(
            (dense): Linear(
              in_features=768, out_features=3072, bias=True
              (loras): ModuleDict()
            )
            (intermediate_act_fn): GELUActivation()
          )
          (output): BertOutput(
            (dense): Linear(
              in_features=3072, out_features=768, bias=True
              (loras): ModuleDict()
            )
            (LayerNorm): LayerNorm((768,), eps=1e-12, elementwise_affine=True)
            (dropout): Dropout(p=0.1, inplace=False)
            (adapters): ModuleDict(
              (en): Adapter(
                (non_linearity): Activation_Function_Class(
                  (f): ReLU()
                )
                (adapter_down): Sequential(
                  (0): Linear(in_features=768, out_features=384, bias=True)
                  (1): Activation_Function_Class(
                    (f): ReLU()
                  )
                )
                (adapter_up): Linear(in_features=384, out_features=768, bias=True)
              )
              (disrpt): Adapter(
                (non_linearity): Activation_Function_Class(
                  (f): ReLU()
                )
                (adapter_down): Sequential(
                  (0): Linear(in_features=768, out_features=48, bias=True)
                  (1): Activation_Function_Class(
                    (f): ReLU()
                  )
                )
                (adapter_up): Linear(in_features=48, out_features=768, bias=True)
              )
            )
            (adapter_fusion_layer): ModuleDict()
          )
        )
        (11): BertLayer(
          (attention): BertAttention(
            (self): BertSelfAttention(
              (query): Linear(
                in_features=768, out_features=768, bias=True
                (loras): ModuleDict()
              )
              (key): Linear(
                in_features=768, out_features=768, bias=True
                (loras): ModuleDict()
              )
              (value): Linear(
                in_features=768, out_features=768, bias=True
                (loras): ModuleDict()
              )
              (dropout): Dropout(p=0.1, inplace=False)
              (prefix_tuning): PrefixTuningShim(
                (prefix_gates): ModuleDict()
                (pool): PrefixTuningPool(
                  (prefix_tunings): ModuleDict()
                )
              )
            )
            (output): BertSelfOutput(
              (dense): Linear(in_features=768, out_features=768, bias=True)
              (LayerNorm): LayerNorm((768,), eps=1e-12, elementwise_affine=True)
              (dropout): Dropout(p=0.1, inplace=False)
              (adapters): ModuleDict()
              (adapter_fusion_layer): ModuleDict()
            )
          )
          (intermediate): BertIntermediate(
            (dense): Linear(
              in_features=768, out_features=3072, bias=True
              (loras): ModuleDict()
            )
            (intermediate_act_fn): GELUActivation()
          )
          (output): BertOutput(
            (dense): Linear(
              in_features=3072, out_features=768, bias=True
              (loras): ModuleDict()
            )
            (LayerNorm): LayerNorm((768,), eps=1e-12, elementwise_affine=True)
            (dropout): Dropout(p=0.1, inplace=False)
            (adapters): ModuleDict(
              (en): Adapter(
                (non_linearity): Activation_Function_Class(
                  (f): ReLU()
                )
                (adapter_down): Sequential(
                  (0): Linear(in_features=768, out_features=384, bias=True)
                  (1): Activation_Function_Class(
                    (f): ReLU()
                  )
                )
                (adapter_up): Linear(in_features=384, out_features=768, bias=True)
              )
              (disrpt): Adapter(
                (non_linearity): Activation_Function_Class(
                  (f): ReLU()
                )
                (adapter_down): Sequential(
                  (0): Linear(in_features=768, out_features=48, bias=True)
                  (1): Activation_Function_Class(
                    (f): ReLU()
                  )
                )
                (adapter_up): Linear(in_features=48, out_features=768, bias=True)
              )
            )
            (adapter_fusion_layer): ModuleDict()
          )
        )
      )
    )
    (pooler): BertPooler(
      (dense): Linear(in_features=768, out_features=768, bias=True)
      (activation): Tanh()
    )
    (prefix_tuning): PrefixTuningPool(
      (prefix_tunings): ModuleDict()
    )
  )
  (heads): ModuleDict(
    (disrpt): ClassificationHead(
      (0): Dropout(p=0.1, inplace=False)
      (1): Linear(in_features=768, out_features=768, bias=True)
      (2): Activation_Function_Class(
        (f): Tanh()
      )
      (3): Dropout(p=0.1, inplace=False)
      (4): Linear(in_features=768, out_features=40, bias=True)
    )
  )
)
{'train@eng.rst.rstdt_loss': 1.7409735918045044, 'train@eng.rst.rstdt_accuracy@eng.rst.rstdt': 0.509936257967754, 'train@eng.rst.rstdt_f1@eng.rst.rstdt': 0.08224231012679141, 'train@eng.rst.rstdt_precision@eng.rst.rstdt': 0.11002635276349158, 'train@eng.rst.rstdt_recall@eng.rst.rstdt': 0.11054840888435429, 'train@eng.rst.rstdt_loss@eng.rst.rstdt': 1.7409734725952148, 'train@eng.rst.rstdt_runtime': 188.1076, 'train@eng.rst.rstdt_samples_per_second': 85.068, 'train@eng.rst.rstdt_steps_per_second': 2.663, 'epoch': 1.0}
…
Lang1:  eng.sdrt.stac    Lang2:  eng.pdtb.pdtb
Saving run to:  runs/full_shot/FullShot=v4_eng.sdrt.stac_eng.pdtb.pdtb_lrfunc=Adafactor_lr=2e-05_plm=bert-base-multilingual-cased
Running with params: BERT_MODEL=bert-base-multilingual-cased lr=2e-05
read 9580 examples
read 1145 examples
read 1510 examples
read 43920 examples
read 1674 examples
read 2257 examples
Total prediction labels:  39
BertAdapterModel(
  (shared_parameters): ModuleDict()
  (bert): BertModel(
    (shared_parameters): ModuleDict()
    (invertible_adapters): ModuleDict(
      (en): NICECouplingBlock(
        (F): Sequential(
          (0): Linear(in_features=384, out_features=192, bias=True)
          (1): Activation_Function_Class(
            (f): ReLU()
          )
          (2): Linear(in_features=192, out_features=384, bias=True)
        )
        (G): Sequential(
          (0): Linear(in_features=384, out_features=192, bias=True)
          (1): Activation_Function_Class(
            (f): ReLU()
          )
          (2): Linear(in_features=192, out_features=384, bias=True)
        )
      )
    )
    (embeddings): BertEmbeddings(
      (word_embeddings): Embedding(119547, 768, padding_idx=0)
      (position_embeddings): Embedding(512, 768)
      (token_type_embeddings): Embedding(2, 768)
      (LayerNorm): LayerNorm((768,), eps=1e-12, elementwise_affine=True)
      (dropout): Dropout(p=0.1, inplace=False)
    )
    (encoder): BertEncoder(
      (layer): ModuleList(
        (0): BertLayer(
          (attention): BertAttention(
            (self): BertSelfAttention(
              (query): Linear(
                in_features=768, out_features=768, bias=True
                (loras): ModuleDict()
              )
              (key): Linear(
                in_features=768, out_features=768, bias=True
                (loras): ModuleDict()
              )
              (value): Linear(
                in_features=768, out_features=768, bias=True
                (loras): ModuleDict()
              )
              (dropout): Dropout(p=0.1, inplace=False)
              (prefix_tuning): PrefixTuningShim(
                (prefix_gates): ModuleDict()
                (pool): PrefixTuningPool(
                  (prefix_tunings): ModuleDict()
                )
              )
            )
            (output): BertSelfOutput(
              (dense): Linear(in_features=768, out_features=768, bias=True)
              (LayerNorm): LayerNorm((768,), eps=1e-12, elementwise_affine=True)
              (dropout): Dropout(p=0.1, inplace=False)
              (adapters): ModuleDict()
              (adapter_fusion_layer): ModuleDict()
            )
          )
          (intermediate): BertIntermediate(
            (dense): Linear(
              in_features=768, out_features=3072, bias=True
              (loras): ModuleDict()
            )
            (intermediate_act_fn): GELUActivation()
          )
          (output): BertOutput(
            (dense): Linear(
              in_features=3072, out_features=768, bias=True
              (loras): ModuleDict()
            )
            (LayerNorm): LayerNorm((768,), eps=1e-12, elementwise_affine=True)
            (dropout): Dropout(p=0.1, inplace=False)
            (adapters): ModuleDict(
              (en): Adapter(
                (non_linearity): Activation_Function_Class(
                  (f): ReLU()
                )
                (adapter_down): Sequential(
                  (0): Linear(in_features=768, out_features=384, bias=True)
                  (1): Activation_Function_Class(
                    (f): ReLU()
                  )
                )
                (adapter_up): Linear(in_features=384, out_features=768, bias=True)
              )
              (disrpt): Adapter(
                (non_linearity): Activation_Function_Class(
                  (f): ReLU()
                )
                (adapter_down): Sequential(
                  (0): Linear(in_features=768, out_features=48, bias=True)
                  (1): Activation_Function_Class(
                    (f): ReLU()
                  )
                )
                (adapter_up): Linear(in_features=48, out_features=768, bias=True)
              )
            )
            (adapter_fusion_layer): ModuleDict()
          )
        )
        (1): BertLayer(
          (attention): BertAttention(
            (self): BertSelfAttention(
              (query): Linear(
                in_features=768, out_features=768, bias=True
                (loras): ModuleDict()
              )
              (key): Linear(
                in_features=768, out_features=768, bias=True
                (loras): ModuleDict()
              )
              (value): Linear(
                in_features=768, out_features=768, bias=True
                (loras): ModuleDict()
              )
              (dropout): Dropout(p=0.1, inplace=False)
              (prefix_tuning): PrefixTuningShim(
                (prefix_gates): ModuleDict()
                (pool): PrefixTuningPool(
                  (prefix_tunings): ModuleDict()
                )
              )
            )
            (output): BertSelfOutput(
              (dense): Linear(in_features=768, out_features=768, bias=True)
              (LayerNorm): LayerNorm((768,), eps=1e-12, elementwise_affine=True)
              (dropout): Dropout(p=0.1, inplace=False)
              (adapters): ModuleDict()
              (adapter_fusion_layer): ModuleDict()
            )
          )
          (intermediate): BertIntermediate(
            (dense): Linear(
              in_features=768, out_features=3072, bias=True
              (loras): ModuleDict()
            )
            (intermediate_act_fn): GELUActivation()
          )
          (output): BertOutput(
            (dense): Linear(
              in_features=3072, out_features=768, bias=True
              (loras): ModuleDict()
            )
            (LayerNorm): LayerNorm((768,), eps=1e-12, elementwise_affine=True)
            (dropout): Dropout(p=0.1, inplace=False)
            (adapters): ModuleDict(
              (en): Adapter(
                (non_linearity): Activation_Function_Class(
                  (f): ReLU()
                )
                (adapter_down): Sequential(
                  (0): Linear(in_features=768, out_features=384, bias=True)
                  (1): Activation_Function_Class(
                    (f): ReLU()
                  )
                )
                (adapter_up): Linear(in_features=384, out_features=768, bias=True)
              )
              (disrpt): Adapter(
                (non_linearity): Activation_Function_Class(
                  (f): ReLU()
                )
                (adapter_down): Sequential(
                  (0): Linear(in_features=768, out_features=48, bias=True)
                  (1): Activation_Function_Class(
                    (f): ReLU()
                  )
                )
                (adapter_up): Linear(in_features=48, out_features=768, bias=True)
              )
            )
            (adapter_fusion_layer): ModuleDict()
          )
        )
        (2): BertLayer(
          (attention): BertAttention(
            (self): BertSelfAttention(
              (query): Linear(
                in_features=768, out_features=768, bias=True
                (loras): ModuleDict()
              )
              (key): Linear(
                in_features=768, out_features=768, bias=True
                (loras): ModuleDict()
              )
              (value): Linear(
                in_features=768, out_features=768, bias=True
                (loras): ModuleDict()
              )
              (dropout): Dropout(p=0.1, inplace=False)
              (prefix_tuning): PrefixTuningShim(
                (prefix_gates): ModuleDict()
                (pool): PrefixTuningPool(
                  (prefix_tunings): ModuleDict()
                )
              )
            )
            (output): BertSelfOutput(
              (dense): Linear(in_features=768, out_features=768, bias=True)
              (LayerNorm): LayerNorm((768,), eps=1e-12, elementwise_affine=True)
              (dropout): Dropout(p=0.1, inplace=False)
              (adapters): ModuleDict()
              (adapter_fusion_layer): ModuleDict()
            )
          )
          (intermediate): BertIntermediate(
            (dense): Linear(
              in_features=768, out_features=3072, bias=True
              (loras): ModuleDict()
            )
            (intermediate_act_fn): GELUActivation()
          )
          (output): BertOutput(
            (dense): Linear(
              in_features=3072, out_features=768, bias=True
              (loras): ModuleDict()
            )
            (LayerNorm): LayerNorm((768,), eps=1e-12, elementwise_affine=True)
            (dropout): Dropout(p=0.1, inplace=False)
            (adapters): ModuleDict(
              (en): Adapter(
                (non_linearity): Activation_Function_Class(
                  (f): ReLU()
                )
                (adapter_down): Sequential(
                  (0): Linear(in_features=768, out_features=384, bias=True)
                  (1): Activation_Function_Class(
                    (f): ReLU()
                  )
                )
                (adapter_up): Linear(in_features=384, out_features=768, bias=True)
              )
              (disrpt): Adapter(
                (non_linearity): Activation_Function_Class(
                  (f): ReLU()
                )
                (adapter_down): Sequential(
                  (0): Linear(in_features=768, out_features=48, bias=True)
                  (1): Activation_Function_Class(
                    (f): ReLU()
                  )
                )
                (adapter_up): Linear(in_features=48, out_features=768, bias=True)
              )
            )
            (adapter_fusion_layer): ModuleDict()
          )
        )
        (3): BertLayer(
          (attention): BertAttention(
            (self): BertSelfAttention(
              (query): Linear(
                in_features=768, out_features=768, bias=True
                (loras): ModuleDict()
              )
              (key): Linear(
                in_features=768, out_features=768, bias=True
                (loras): ModuleDict()
              )
              (value): Linear(
                in_features=768, out_features=768, bias=True
                (loras): ModuleDict()
              )
              (dropout): Dropout(p=0.1, inplace=False)
              (prefix_tuning): PrefixTuningShim(
                (prefix_gates): ModuleDict()
                (pool): PrefixTuningPool(
                  (prefix_tunings): ModuleDict()
                )
              )
            )
            (output): BertSelfOutput(
              (dense): Linear(in_features=768, out_features=768, bias=True)
              (LayerNorm): LayerNorm((768,), eps=1e-12, elementwise_affine=True)
              (dropout): Dropout(p=0.1, inplace=False)
              (adapters): ModuleDict()
              (adapter_fusion_layer): ModuleDict()
            )
          )
          (intermediate): BertIntermediate(
            (dense): Linear(
              in_features=768, out_features=3072, bias=True
              (loras): ModuleDict()
            )
            (intermediate_act_fn): GELUActivation()
          )
          (output): BertOutput(
            (dense): Linear(
              in_features=3072, out_features=768, bias=True
              (loras): ModuleDict()
            )
            (LayerNorm): LayerNorm((768,), eps=1e-12, elementwise_affine=True)
            (dropout): Dropout(p=0.1, inplace=False)
            (adapters): ModuleDict(
              (en): Adapter(
                (non_linearity): Activation_Function_Class(
                  (f): ReLU()
                )
                (adapter_down): Sequential(
                  (0): Linear(in_features=768, out_features=384, bias=True)
                  (1): Activation_Function_Class(
                    (f): ReLU()
                  )
                )
                (adapter_up): Linear(in_features=384, out_features=768, bias=True)
              )
              (disrpt): Adapter(
                (non_linearity): Activation_Function_Class(
                  (f): ReLU()
                )
                (adapter_down): Sequential(
                  (0): Linear(in_features=768, out_features=48, bias=True)
                  (1): Activation_Function_Class(
                    (f): ReLU()
                  )
                )
                (adapter_up): Linear(in_features=48, out_features=768, bias=True)
              )
            )
            (adapter_fusion_layer): ModuleDict()
          )
        )
        (4): BertLayer(
          (attention): BertAttention(
            (self): BertSelfAttention(
              (query): Linear(
                in_features=768, out_features=768, bias=True
                (loras): ModuleDict()
              )
              (key): Linear(
                in_features=768, out_features=768, bias=True
                (loras): ModuleDict()
              )
              (value): Linear(
                in_features=768, out_features=768, bias=True
                (loras): ModuleDict()
              )
              (dropout): Dropout(p=0.1, inplace=False)
              (prefix_tuning): PrefixTuningShim(
                (prefix_gates): ModuleDict()
                (pool): PrefixTuningPool(
                  (prefix_tunings): ModuleDict()
                )
              )
            )
            (output): BertSelfOutput(
              (dense): Linear(in_features=768, out_features=768, bias=True)
              (LayerNorm): LayerNorm((768,), eps=1e-12, elementwise_affine=True)
              (dropout): Dropout(p=0.1, inplace=False)
              (adapters): ModuleDict()
              (adapter_fusion_layer): ModuleDict()
            )
          )
          (intermediate): BertIntermediate(
            (dense): Linear(
              in_features=768, out_features=3072, bias=True
              (loras): ModuleDict()
            )
            (intermediate_act_fn): GELUActivation()
          )
          (output): BertOutput(
            (dense): Linear(
              in_features=3072, out_features=768, bias=True
              (loras): ModuleDict()
            )
            (LayerNorm): LayerNorm((768,), eps=1e-12, elementwise_affine=True)
            (dropout): Dropout(p=0.1, inplace=False)
            (adapters): ModuleDict(
              (en): Adapter(
                (non_linearity): Activation_Function_Class(
                  (f): ReLU()
                )
                (adapter_down): Sequential(
                  (0): Linear(in_features=768, out_features=384, bias=True)
                  (1): Activation_Function_Class(
                    (f): ReLU()
                  )
                )
                (adapter_up): Linear(in_features=384, out_features=768, bias=True)
              )
              (disrpt): Adapter(
                (non_linearity): Activation_Function_Class(
                  (f): ReLU()
                )
                (adapter_down): Sequential(
                  (0): Linear(in_features=768, out_features=48, bias=True)
                  (1): Activation_Function_Class(
                    (f): ReLU()
                  )
                )
                (adapter_up): Linear(in_features=48, out_features=768, bias=True)
              )
            )
            (adapter_fusion_layer): ModuleDict()
          )
        )
        (5): BertLayer(
          (attention): BertAttention(
            (self): BertSelfAttention(
              (query): Linear(
                in_features=768, out_features=768, bias=True
                (loras): ModuleDict()
              )
              (key): Linear(
                in_features=768, out_features=768, bias=True
                (loras): ModuleDict()
              )
              (value): Linear(
                in_features=768, out_features=768, bias=True
                (loras): ModuleDict()
              )
              (dropout): Dropout(p=0.1, inplace=False)
              (prefix_tuning): PrefixTuningShim(
                (prefix_gates): ModuleDict()
                (pool): PrefixTuningPool(
                  (prefix_tunings): ModuleDict()
                )
              )
            )
            (output): BertSelfOutput(
              (dense): Linear(in_features=768, out_features=768, bias=True)
              (LayerNorm): LayerNorm((768,), eps=1e-12, elementwise_affine=True)
              (dropout): Dropout(p=0.1, inplace=False)
              (adapters): ModuleDict()
              (adapter_fusion_layer): ModuleDict()
            )
          )
          (intermediate): BertIntermediate(
            (dense): Linear(
              in_features=768, out_features=3072, bias=True
              (loras): ModuleDict()
            )
            (intermediate_act_fn): GELUActivation()
          )
          (output): BertOutput(
            (dense): Linear(
              in_features=3072, out_features=768, bias=True
              (loras): ModuleDict()
            )
            (LayerNorm): LayerNorm((768,), eps=1e-12, elementwise_affine=True)
            (dropout): Dropout(p=0.1, inplace=False)
            (adapters): ModuleDict(
              (en): Adapter(
                (non_linearity): Activation_Function_Class(
                  (f): ReLU()
                )
                (adapter_down): Sequential(
                  (0): Linear(in_features=768, out_features=384, bias=True)
                  (1): Activation_Function_Class(
                    (f): ReLU()
                  )
                )
                (adapter_up): Linear(in_features=384, out_features=768, bias=True)
              )
              (disrpt): Adapter(
                (non_linearity): Activation_Function_Class(
                  (f): ReLU()
                )
                (adapter_down): Sequential(
                  (0): Linear(in_features=768, out_features=48, bias=True)
                  (1): Activation_Function_Class(
                    (f): ReLU()
                  )
                )
                (adapter_up): Linear(in_features=48, out_features=768, bias=True)
              )
            )
            (adapter_fusion_layer): ModuleDict()
          )
        )
        (6): BertLayer(
          (attention): BertAttention(
            (self): BertSelfAttention(
              (query): Linear(
                in_features=768, out_features=768, bias=True
                (loras): ModuleDict()
              )
              (key): Linear(
                in_features=768, out_features=768, bias=True
                (loras): ModuleDict()
              )
              (value): Linear(
                in_features=768, out_features=768, bias=True
                (loras): ModuleDict()
              )
              (dropout): Dropout(p=0.1, inplace=False)
              (prefix_tuning): PrefixTuningShim(
                (prefix_gates): ModuleDict()
                (pool): PrefixTuningPool(
                  (prefix_tunings): ModuleDict()
                )
              )
            )
            (output): BertSelfOutput(
              (dense): Linear(in_features=768, out_features=768, bias=True)
              (LayerNorm): LayerNorm((768,), eps=1e-12, elementwise_affine=True)
              (dropout): Dropout(p=0.1, inplace=False)
              (adapters): ModuleDict()
              (adapter_fusion_layer): ModuleDict()
            )
          )
          (intermediate): BertIntermediate(
            (dense): Linear(
              in_features=768, out_features=3072, bias=True
              (loras): ModuleDict()
            )
            (intermediate_act_fn): GELUActivation()
          )
          (output): BertOutput(
            (dense): Linear(
              in_features=3072, out_features=768, bias=True
              (loras): ModuleDict()
            )
            (LayerNorm): LayerNorm((768,), eps=1e-12, elementwise_affine=True)
            (dropout): Dropout(p=0.1, inplace=False)
            (adapters): ModuleDict(
              (en): Adapter(
                (non_linearity): Activation_Function_Class(
                  (f): ReLU()
                )
                (adapter_down): Sequential(
                  (0): Linear(in_features=768, out_features=384, bias=True)
                  (1): Activation_Function_Class(
                    (f): ReLU()
                  )
                )
                (adapter_up): Linear(in_features=384, out_features=768, bias=True)
              )
              (disrpt): Adapter(
                (non_linearity): Activation_Function_Class(
                  (f): ReLU()
                )
                (adapter_down): Sequential(
                  (0): Linear(in_features=768, out_features=48, bias=True)
                  (1): Activation_Function_Class(
                    (f): ReLU()
                  )
                )
                (adapter_up): Linear(in_features=48, out_features=768, bias=True)
              )
            )
            (adapter_fusion_layer): ModuleDict()
          )
        )
        (7): BertLayer(
          (attention): BertAttention(
            (self): BertSelfAttention(
              (query): Linear(
                in_features=768, out_features=768, bias=True
                (loras): ModuleDict()
              )
              (key): Linear(
                in_features=768, out_features=768, bias=True
                (loras): ModuleDict()
              )
              (value): Linear(
                in_features=768, out_features=768, bias=True
                (loras): ModuleDict()
              )
              (dropout): Dropout(p=0.1, inplace=False)
              (prefix_tuning): PrefixTuningShim(
                (prefix_gates): ModuleDict()
                (pool): PrefixTuningPool(
                  (prefix_tunings): ModuleDict()
                )
              )
            )
            (output): BertSelfOutput(
              (dense): Linear(in_features=768, out_features=768, bias=True)
              (LayerNorm): LayerNorm((768,), eps=1e-12, elementwise_affine=True)
              (dropout): Dropout(p=0.1, inplace=False)
              (adapters): ModuleDict()
              (adapter_fusion_layer): ModuleDict()
            )
          )
          (intermediate): BertIntermediate(
            (dense): Linear(
              in_features=768, out_features=3072, bias=True
              (loras): ModuleDict()
            )
            (intermediate_act_fn): GELUActivation()
          )
          (output): BertOutput(
            (dense): Linear(
              in_features=3072, out_features=768, bias=True
              (loras): ModuleDict()
            )
            (LayerNorm): LayerNorm((768,), eps=1e-12, elementwise_affine=True)
            (dropout): Dropout(p=0.1, inplace=False)
            (adapters): ModuleDict(
              (en): Adapter(
                (non_linearity): Activation_Function_Class(
                  (f): ReLU()
                )
                (adapter_down): Sequential(
                  (0): Linear(in_features=768, out_features=384, bias=True)
                  (1): Activation_Function_Class(
                    (f): ReLU()
                  )
                )
                (adapter_up): Linear(in_features=384, out_features=768, bias=True)
              )
              (disrpt): Adapter(
                (non_linearity): Activation_Function_Class(
                  (f): ReLU()
                )
                (adapter_down): Sequential(
                  (0): Linear(in_features=768, out_features=48, bias=True)
                  (1): Activation_Function_Class(
                    (f): ReLU()
                  )
                )
                (adapter_up): Linear(in_features=48, out_features=768, bias=True)
              )
            )
            (adapter_fusion_layer): ModuleDict()
          )
        )
        (8): BertLayer(
          (attention): BertAttention(
            (self): BertSelfAttention(
              (query): Linear(
                in_features=768, out_features=768, bias=True
                (loras): ModuleDict()
              )
              (key): Linear(
                in_features=768, out_features=768, bias=True
                (loras): ModuleDict()
              )
              (value): Linear(
                in_features=768, out_features=768, bias=True
                (loras): ModuleDict()
              )
              (dropout): Dropout(p=0.1, inplace=False)
              (prefix_tuning): PrefixTuningShim(
                (prefix_gates): ModuleDict()
                (pool): PrefixTuningPool(
                  (prefix_tunings): ModuleDict()
                )
              )
            )
            (output): BertSelfOutput(
              (dense): Linear(in_features=768, out_features=768, bias=True)
              (LayerNorm): LayerNorm((768,), eps=1e-12, elementwise_affine=True)
              (dropout): Dropout(p=0.1, inplace=False)
              (adapters): ModuleDict()
              (adapter_fusion_layer): ModuleDict()
            )
          )
          (intermediate): BertIntermediate(
            (dense): Linear(
              in_features=768, out_features=3072, bias=True
              (loras): ModuleDict()
            )
            (intermediate_act_fn): GELUActivation()
          )
          (output): BertOutput(
            (dense): Linear(
              in_features=3072, out_features=768, bias=True
              (loras): ModuleDict()
            )
            (LayerNorm): LayerNorm((768,), eps=1e-12, elementwise_affine=True)
            (dropout): Dropout(p=0.1, inplace=False)
            (adapters): ModuleDict(
              (en): Adapter(
                (non_linearity): Activation_Function_Class(
                  (f): ReLU()
                )
                (adapter_down): Sequential(
                  (0): Linear(in_features=768, out_features=384, bias=True)
                  (1): Activation_Function_Class(
                    (f): ReLU()
                  )
                )
                (adapter_up): Linear(in_features=384, out_features=768, bias=True)
              )
              (disrpt): Adapter(
                (non_linearity): Activation_Function_Class(
                  (f): ReLU()
                )
                (adapter_down): Sequential(
                  (0): Linear(in_features=768, out_features=48, bias=True)
                  (1): Activation_Function_Class(
                    (f): ReLU()
                  )
                )
                (adapter_up): Linear(in_features=48, out_features=768, bias=True)
              )
            )
            (adapter_fusion_layer): ModuleDict()
          )
        )
        (9): BertLayer(
          (attention): BertAttention(
            (self): BertSelfAttention(
              (query): Linear(
                in_features=768, out_features=768, bias=True
                (loras): ModuleDict()
              )
              (key): Linear(
                in_features=768, out_features=768, bias=True
                (loras): ModuleDict()
              )
              (value): Linear(
                in_features=768, out_features=768, bias=True
                (loras): ModuleDict()
              )
              (dropout): Dropout(p=0.1, inplace=False)
              (prefix_tuning): PrefixTuningShim(
                (prefix_gates): ModuleDict()
                (pool): PrefixTuningPool(
                  (prefix_tunings): ModuleDict()
                )
              )
            )
            (output): BertSelfOutput(
              (dense): Linear(in_features=768, out_features=768, bias=True)
              (LayerNorm): LayerNorm((768,), eps=1e-12, elementwise_affine=True)
              (dropout): Dropout(p=0.1, inplace=False)
              (adapters): ModuleDict()
              (adapter_fusion_layer): ModuleDict()
            )
          )
          (intermediate): BertIntermediate(
            (dense): Linear(
              in_features=768, out_features=3072, bias=True
              (loras): ModuleDict()
            )
            (intermediate_act_fn): GELUActivation()
          )
          (output): BertOutput(
            (dense): Linear(
              in_features=3072, out_features=768, bias=True
              (loras): ModuleDict()
            )
            (LayerNorm): LayerNorm((768,), eps=1e-12, elementwise_affine=True)
            (dropout): Dropout(p=0.1, inplace=False)
            (adapters): ModuleDict(
              (en): Adapter(
                (non_linearity): Activation_Function_Class(
                  (f): ReLU()
                )
                (adapter_down): Sequential(
                  (0): Linear(in_features=768, out_features=384, bias=True)
                  (1): Activation_Function_Class(
                    (f): ReLU()
                  )
                )
                (adapter_up): Linear(in_features=384, out_features=768, bias=True)
              )
              (disrpt): Adapter(
                (non_linearity): Activation_Function_Class(
                  (f): ReLU()
                )
                (adapter_down): Sequential(
                  (0): Linear(in_features=768, out_features=48, bias=True)
                  (1): Activation_Function_Class(
                    (f): ReLU()
                  )
                )
                (adapter_up): Linear(in_features=48, out_features=768, bias=True)
              )
            )
            (adapter_fusion_layer): ModuleDict()
          )
        )
        (10): BertLayer(
          (attention): BertAttention(
            (self): BertSelfAttention(
              (query): Linear(
                in_features=768, out_features=768, bias=True
                (loras): ModuleDict()
              )
              (key): Linear(
                in_features=768, out_features=768, bias=True
                (loras): ModuleDict()
              )
              (value): Linear(
                in_features=768, out_features=768, bias=True
                (loras): ModuleDict()
              )
              (dropout): Dropout(p=0.1, inplace=False)
              (prefix_tuning): PrefixTuningShim(
                (prefix_gates): ModuleDict()
                (pool): PrefixTuningPool(
                  (prefix_tunings): ModuleDict()
                )
              )
            )
            (output): BertSelfOutput(
              (dense): Linear(in_features=768, out_features=768, bias=True)
              (LayerNorm): LayerNorm((768,), eps=1e-12, elementwise_affine=True)
              (dropout): Dropout(p=0.1, inplace=False)
              (adapters): ModuleDict()
              (adapter_fusion_layer): ModuleDict()
            )
          )
          (intermediate): BertIntermediate(
            (dense): Linear(
              in_features=768, out_features=3072, bias=True
              (loras): ModuleDict()
            )
            (intermediate_act_fn): GELUActivation()
          )
          (output): BertOutput(
            (dense): Linear(
              in_features=3072, out_features=768, bias=True
              (loras): ModuleDict()
            )
            (LayerNorm): LayerNorm((768,), eps=1e-12, elementwise_affine=True)
            (dropout): Dropout(p=0.1, inplace=False)
            (adapters): ModuleDict(
              (en): Adapter(
                (non_linearity): Activation_Function_Class(
                  (f): ReLU()
                )
                (adapter_down): Sequential(
                  (0): Linear(in_features=768, out_features=384, bias=True)
                  (1): Activation_Function_Class(
                    (f): ReLU()
                  )
                )
                (adapter_up): Linear(in_features=384, out_features=768, bias=True)
              )
              (disrpt): Adapter(
                (non_linearity): Activation_Function_Class(
                  (f): ReLU()
                )
                (adapter_down): Sequential(
                  (0): Linear(in_features=768, out_features=48, bias=True)
                  (1): Activation_Function_Class(
                    (f): ReLU()
                  )
                )
                (adapter_up): Linear(in_features=48, out_features=768, bias=True)
              )
            )
            (adapter_fusion_layer): ModuleDict()
          )
        )
        (11): BertLayer(
          (attention): BertAttention(
            (self): BertSelfAttention(
              (query): Linear(
                in_features=768, out_features=768, bias=True
                (loras): ModuleDict()
              )
              (key): Linear(
                in_features=768, out_features=768, bias=True
                (loras): ModuleDict()
              )
              (value): Linear(
                in_features=768, out_features=768, bias=True
                (loras): ModuleDict()
              )
              (dropout): Dropout(p=0.1, inplace=False)
              (prefix_tuning): PrefixTuningShim(
                (prefix_gates): ModuleDict()
                (pool): PrefixTuningPool(
                  (prefix_tunings): ModuleDict()
                )
              )
            )
            (output): BertSelfOutput(
              (dense): Linear(in_features=768, out_features=768, bias=True)
              (LayerNorm): LayerNorm((768,), eps=1e-12, elementwise_affine=True)
              (dropout): Dropout(p=0.1, inplace=False)
              (adapters): ModuleDict()
              (adapter_fusion_layer): ModuleDict()
            )
          )
          (intermediate): BertIntermediate(
            (dense): Linear(
              in_features=768, out_features=3072, bias=True
              (loras): ModuleDict()
            )
            (intermediate_act_fn): GELUActivation()
          )
          (output): BertOutput(
            (dense): Linear(
              in_features=3072, out_features=768, bias=True
              (loras): ModuleDict()
            )
            (LayerNorm): LayerNorm((768,), eps=1e-12, elementwise_affine=True)
            (dropout): Dropout(p=0.1, inplace=False)
            (adapters): ModuleDict(
              (en): Adapter(
                (non_linearity): Activation_Function_Class(
                  (f): ReLU()
                )
                (adapter_down): Sequential(
…
              (LayerNorm): LayerNorm((768,), eps=1e-12, elementwise_affine=True)
              (dropout): Dropout(p=0.1, inplace=False)
              (adapters): ModuleDict()
              (adapter_fusion_layer): ModuleDict()
            )
          )
          (intermediate): BertIntermediate(
            (dense): Linear(
              in_features=768, out_features=3072, bias=True
              (loras): ModuleDict()
            )
            (intermediate_act_fn): GELUActivation()
          )
          (output): BertOutput(
            (dense): Linear(
              in_features=3072, out_features=768, bias=True
              (loras): ModuleDict()
            )
            (LayerNorm): LayerNorm((768,), eps=1e-12, elementwise_affine=True)
            (dropout): Dropout(p=0.1, inplace=False)
            (adapters): ModuleDict(
              (es): Adapter(
                (non_linearity): Activation_Function_Class(
                  (f): NewGELUActivation()
                )
                (adapter_down): Sequential(
                  (0): Linear(in_features=768, out_features=384, bias=True)
                  (1): Activation_Function_Class(
                    (f): NewGELUActivation()
                  )
                )
                (adapter_up): Linear(in_features=384, out_features=768, bias=True)
              )
              (en): Adapter(
                (non_linearity): Activation_Function_Class(
                  (f): ReLU()
                )
                (adapter_down): Sequential(
                  (0): Linear(in_features=768, out_features=384, bias=True)
                  (1): Activation_Function_Class(
                    (f): ReLU()
                  )
                )
                (adapter_up): Linear(in_features=384, out_features=768, bias=True)
              )
              (disrpt): Adapter(
                (non_linearity): Activation_Function_Class(
                  (f): ReLU()
                )
                (adapter_down): Sequential(
                  (0): Linear(in_features=768, out_features=48, bias=True)
                  (1): Activation_Function_Class(
                    (f): ReLU()
                  )
                )
                (adapter_up): Linear(in_features=48, out_features=768, bias=True)
              )
            )
            (adapter_fusion_layer): ModuleDict()
          )
        )
        (11): BertLayer(
          (attention): BertAttention(
            (self): BertSelfAttention(
              (query): Linear(
                in_features=768, out_features=768, bias=True
                (loras): ModuleDict()
              )
              (key): Linear(
                in_features=768, out_features=768, bias=True
                (loras): ModuleDict()
              )
              (value): Linear(
                in_features=768, out_features=768, bias=True
                (loras): ModuleDict()
              )
              (dropout): Dropout(p=0.1, inplace=False)
              (prefix_tuning): PrefixTuningShim(
                (prefix_gates): ModuleDict()
                (pool): PrefixTuningPool(
                  (prefix_tunings): ModuleDict()
                )
              )
            )
            (output): BertSelfOutput(
              (dense): Linear(in_features=768, out_features=768, bias=True)
              (LayerNorm): LayerNorm((768,), eps=1e-12, elementwise_affine=True)
              (dropout): Dropout(p=0.1, inplace=False)
              (adapters): ModuleDict()
              (adapter_fusion_layer): ModuleDict()
            )
          )
          (intermediate): BertIntermediate(
            (dense): Linear(
              in_features=768, out_features=3072, bias=True
              (loras): ModuleDict()
            )
            (intermediate_act_fn): GELUActivation()
          )
          (output): BertOutput(
            (dense): Linear(
              in_features=3072, out_features=768, bias=True
              (loras): ModuleDict()
            )
            (LayerNorm): LayerNorm((768,), eps=1e-12, elementwise_affine=True)
            (dropout): Dropout(p=0.1, inplace=False)
            (adapters): ModuleDict(
              (es): Adapter(
                (non_linearity): Activation_Function_Class(
                  (f): NewGELUActivation()
                )
                (adapter_down): Sequential(
                  (0): Linear(in_features=768, out_features=384, bias=True)
                  (1): Activation_Function_Class(
                    (f): NewGELUActivation()
                  )
                )
                (adapter_up): Linear(in_features=384, out_features=768, bias=True)
              )
              (en): Adapter(
                (non_linearity): Activation_Function_Class(
                  (f): ReLU()
                )
                (adapter_down): Sequential(
                  (0): Linear(in_features=768, out_features=384, bias=True)
                  (1): Activation_Function_Class(
                    (f): ReLU()
                  )
                )
                (adapter_up): Linear(in_features=384, out_features=768, bias=True)
              )
              (disrpt): Adapter(
                (non_linearity): Activation_Function_Class(
                  (f): ReLU()
                )
                (adapter_down): Sequential(
                  (0): Linear(in_features=768, out_features=48, bias=True)
                  (1): Activation_Function_Class(
                    (f): ReLU()
                  )
                )
                (adapter_up): Linear(in_features=48, out_features=768, bias=True)
              )
            )
            (adapter_fusion_layer): ModuleDict()
          )
        )
      )
    )
    (pooler): BertPooler(
      (dense): Linear(in_features=768, out_features=768, bias=True)
      (activation): Tanh()
    )
    (prefix_tuning): PrefixTuningPool(
      (prefix_tunings): ModuleDict()
    )
  )
  (heads): ModuleDict(
    (disrpt): ClassificationHead(
      (0): Dropout(p=0.1, inplace=False)
      (1): Linear(in_features=768, out_features=768, bias=True)
      (2): Activation_Function_Class(
        (f): Tanh()
      )
      (3): Dropout(p=0.1, inplace=False)
      (4): Linear(in_features=768, out_features=48, bias=True)
    )
  )
)
{'train@spa.rst.sctb_loss': 3.645022392272949, 'train@spa.rst.sctb_accuracy@spa.rst.sctb': 0.3439635535307517, 'train@spa.rst.sctb_f1@spa.rst.sctb': 0.022475471282107817, 'train@spa.rst.sctb_precision@spa.rst.sctb': 0.05623543123543123, 'train@spa.rst.sctb_recall@spa.rst.sctb': 0.042114695340501794, 'train@spa.rst.sctb_loss@spa.rst.sctb': 3.645021677017212, 'train@spa.rst.sctb_runtime': 5.6272, 'train@spa.rst.sctb_samples_per_second': 78.014, 'train@spa.rst.sctb_steps_per_second': 2.488, 'epoch': 1.0}
…
Lang1:  tur.pdtb.tdb    Lang2:  eng.pdtb.pdtb
Saving run to:  runs/full_shot/FullShot=v4_tur.pdtb.tdb_eng.pdtb.pdtb_lrfunc=Adafactor_lr=2e-05_plm=bert-base-multilingual-cased
Running with params: BERT_MODEL=bert-base-multilingual-cased lr=2e-05
read 2451 examples
read 312 examples
read 422 examples
read 43920 examples
read 1674 examples
read 2257 examples
Total prediction labels:  25
BertAdapterModel(
  (shared_parameters): ModuleDict()
  (bert): BertModel(
    (shared_parameters): ModuleDict()
    (invertible_adapters): ModuleDict(
      (tr): NICECouplingBlock(
        (F): Sequential(
          (0): Linear(in_features=384, out_features=192, bias=True)
          (1): Activation_Function_Class(
            (f): NewGELUActivation()
          )
          (2): Linear(in_features=192, out_features=384, bias=True)
        )
        (G): Sequential(
          (0): Linear(in_features=384, out_features=192, bias=True)
          (1): Activation_Function_Class(
            (f): NewGELUActivation()
          )
          (2): Linear(in_features=192, out_features=384, bias=True)
        )
      )
      (en): NICECouplingBlock(
        (F): Sequential(
          (0): Linear(in_features=384, out_features=192, bias=True)
          (1): Activation_Function_Class(
            (f): ReLU()
          )
          (2): Linear(in_features=192, out_features=384, bias=True)
        )
        (G): Sequential(
          (0): Linear(in_features=384, out_features=192, bias=True)
          (1): Activation_Function_Class(
            (f): ReLU()
          )
          (2): Linear(in_features=192, out_features=384, bias=True)
        )
      )
    )
    (embeddings): BertEmbeddings(
      (word_embeddings): Embedding(119547, 768, padding_idx=0)
      (position_embeddings): Embedding(512, 768)
      (token_type_embeddings): Embedding(2, 768)
      (LayerNorm): LayerNorm((768,), eps=1e-12, elementwise_affine=True)
      (dropout): Dropout(p=0.1, inplace=False)
    )
    (encoder): BertEncoder(
      (layer): ModuleList(
        (0): BertLayer(
          (attention): BertAttention(
            (self): BertSelfAttention(
              (query): Linear(
                in_features=768, out_features=768, bias=True
                (loras): ModuleDict()
              )
              (key): Linear(
                in_features=768, out_features=768, bias=True
                (loras): ModuleDict()
              )
              (value): Linear(
                in_features=768, out_features=768, bias=True
                (loras): ModuleDict()
              )
              (dropout): Dropout(p=0.1, inplace=False)
              (prefix_tuning): PrefixTuningShim(
                (prefix_gates): ModuleDict()
                (pool): PrefixTuningPool(
                  (prefix_tunings): ModuleDict()
                )
              )
            )
            (output): BertSelfOutput(
              (dense): Linear(in_features=768, out_features=768, bias=True)
              (LayerNorm): LayerNorm((768,), eps=1e-12, elementwise_affine=True)
              (dropout): Dropout(p=0.1, inplace=False)
              (adapters): ModuleDict()
              (adapter_fusion_layer): ModuleDict()
            )
          )
          (intermediate): BertIntermediate(
            (dense): Linear(
              in_features=768, out_features=3072, bias=True
              (loras): ModuleDict()
            )
            (intermediate_act_fn): GELUActivation()
          )
          (output): BertOutput(
            (dense): Linear(
              in_features=3072, out_features=768, bias=True
              (loras): ModuleDict()
            )
            (LayerNorm): LayerNorm((768,), eps=1e-12, elementwise_affine=True)
            (dropout): Dropout(p=0.1, inplace=False)
            (adapters): ModuleDict(
              (tr): Adapter(
                (non_linearity): Activation_Function_Class(
                  (f): NewGELUActivation()
                )
                (adapter_down): Sequential(
                  (0): Linear(in_features=768, out_features=384, bias=True)
                  (1): Activation_Function_Class(
                    (f): NewGELUActivation()
                  )
                )
                (adapter_up): Linear(in_features=384, out_features=768, bias=True)
              )
              (en): Adapter(
                (non_linearity): Activation_Function_Class(
                  (f): ReLU()
                )
                (adapter_down): Sequential(
                  (0): Linear(in_features=768, out_features=384, bias=True)
                  (1): Activation_Function_Class(
                    (f): ReLU()
                  )
                )
                (adapter_up): Linear(in_features=384, out_features=768, bias=True)
              )
              (disrpt): Adapter(
                (non_linearity): Activation_Function_Class(
                  (f): ReLU()
                )
                (adapter_down): Sequential(
                  (0): Linear(in_features=768, out_features=48, bias=True)
                  (1): Activation_Function_Class(
                    (f): ReLU()
                  )
                )
                (adapter_up): Linear(in_features=48, out_features=768, bias=True)
              )
            )
            (adapter_fusion_layer): ModuleDict()
          )
        )
        (1): BertLayer(
          (attention): BertAttention(
            (self): BertSelfAttention(
              (query): Linear(
                in_features=768, out_features=768, bias=True
                (loras): ModuleDict()
              )
              (key): Linear(
                in_features=768, out_features=768, bias=True
                (loras): ModuleDict()
              )
              (value): Linear(
                in_features=768, out_features=768, bias=True
                (loras): ModuleDict()
              )
              (dropout): Dropout(p=0.1, inplace=False)
              (prefix_tuning): PrefixTuningShim(
                (prefix_gates): ModuleDict()
                (pool): PrefixTuningPool(
                  (prefix_tunings): ModuleDict()
                )
              )
            )
            (output): BertSelfOutput(
              (dense): Linear(in_features=768, out_features=768, bias=True)
              (LayerNorm): LayerNorm((768,), eps=1e-12, elementwise_affine=True)
              (dropout): Dropout(p=0.1, inplace=False)
              (adapters): ModuleDict()
              (adapter_fusion_layer): ModuleDict()
            )
          )
          (intermediate): BertIntermediate(
            (dense): Linear(
              in_features=768, out_features=3072, bias=True
              (loras): ModuleDict()
            )
            (intermediate_act_fn): GELUActivation()
          )
          (output): BertOutput(
            (dense): Linear(
              in_features=3072, out_features=768, bias=True
              (loras): ModuleDict()
            )
            (LayerNorm): LayerNorm((768,), eps=1e-12, elementwise_affine=True)
            (dropout): Dropout(p=0.1, inplace=False)
            (adapters): ModuleDict(
              (tr): Adapter(
                (non_linearity): Activation_Function_Class(
                  (f): NewGELUActivation()
                )
                (adapter_down): Sequential(
                  (0): Linear(in_features=768, out_features=384, bias=True)
                  (1): Activation_Function_Class(
                    (f): NewGELUActivation()
                  )
                )
                (adapter_up): Linear(in_features=384, out_features=768, bias=True)
              )
              (en): Adapter(
                (non_linearity): Activation_Function_Class(
                  (f): ReLU()
                )
                (adapter_down): Sequential(
                  (0): Linear(in_features=768, out_features=384, bias=True)
                  (1): Activation_Function_Class(
                    (f): ReLU()
                  )
                )
                (adapter_up): Linear(in_features=384, out_features=768, bias=True)
              )
              (disrpt): Adapter(
                (non_linearity): Activation_Function_Class(
                  (f): ReLU()
                )
                (adapter_down): Sequential(
                  (0): Linear(in_features=768, out_features=48, bias=True)
                  (1): Activation_Function_Class(
                    (f): ReLU()
                  )
                )
                (adapter_up): Linear(in_features=48, out_features=768, bias=True)
              )
            )
            (adapter_fusion_layer): ModuleDict()
          )
        )
        (2): BertLayer(
          (attention): BertAttention(
            (self): BertSelfAttention(
              (query): Linear(
                in_features=768, out_features=768, bias=True
                (loras): ModuleDict()
              )
              (key): Linear(
                in_features=768, out_features=768, bias=True
                (loras): ModuleDict()
              )
              (value): Linear(
                in_features=768, out_features=768, bias=True
                (loras): ModuleDict()
              )
              (dropout): Dropout(p=0.1, inplace=False)
              (prefix_tuning): PrefixTuningShim(
                (prefix_gates): ModuleDict()
                (pool): PrefixTuningPool(
                  (prefix_tunings): ModuleDict()
                )
              )
            )
            (output): BertSelfOutput(
              (dense): Linear(in_features=768, out_features=768, bias=True)
              (LayerNorm): LayerNorm((768,), eps=1e-12, elementwise_affine=True)
              (dropout): Dropout(p=0.1, inplace=False)
              (adapters): ModuleDict()
              (adapter_fusion_layer): ModuleDict()
            )
          )
          (intermediate): BertIntermediate(
            (dense): Linear(
              in_features=768, out_features=3072, bias=True
              (loras): ModuleDict()
            )
            (intermediate_act_fn): GELUActivation()
          )
          (output): BertOutput(
            (dense): Linear(
              in_features=3072, out_features=768, bias=True
              (loras): ModuleDict()
            )
            (LayerNorm): LayerNorm((768,), eps=1e-12, elementwise_affine=True)
            (dropout): Dropout(p=0.1, inplace=False)
            (adapters): ModuleDict(
              (tr): Adapter(
                (non_linearity): Activation_Function_Class(
                  (f): NewGELUActivation()
                )
                (adapter_down): Sequential(
                  (0): Linear(in_features=768, out_features=384, bias=True)
                  (1): Activation_Function_Class(
                    (f): NewGELUActivation()
                  )
                )
                (adapter_up): Linear(in_features=384, out_features=768, bias=True)
              )
              (en): Adapter(
                (non_linearity): Activation_Function_Class(
                  (f): ReLU()
                )
                (adapter_down): Sequential(
                  (0): Linear(in_features=768, out_features=384, bias=True)
                  (1): Activation_Function_Class(
                    (f): ReLU()
                  )
                )
                (adapter_up): Linear(in_features=384, out_features=768, bias=True)
              )
              (disrpt): Adapter(
                (non_linearity): Activation_Function_Class(
                  (f): ReLU()
                )
                (adapter_down): Sequential(
                  (0): Linear(in_features=768, out_features=48, bias=True)
                  (1): Activation_Function_Class(
                    (f): ReLU()
                  )
                )
                (adapter_up): Linear(in_features=48, out_features=768, bias=True)
              )
            )
            (adapter_fusion_layer): ModuleDict()
          )
        )
        (3): BertLayer(
          (attention): BertAttention(
            (self): BertSelfAttention(
              (query): Linear(
                in_features=768, out_features=768, bias=True
                (loras): ModuleDict()
              )
              (key): Linear(
                in_features=768, out_features=768, bias=True
                (loras): ModuleDict()
              )
              (value): Linear(
                in_features=768, out_features=768, bias=True
                (loras): ModuleDict()
              )
              (dropout): Dropout(p=0.1, inplace=False)
              (prefix_tuning): PrefixTuningShim(
                (prefix_gates): ModuleDict()
                (pool): PrefixTuningPool(
                  (prefix_tunings): ModuleDict()
                )
              )
            )
            (output): BertSelfOutput(
              (dense): Linear(in_features=768, out_features=768, bias=True)
              (LayerNorm): LayerNorm((768,), eps=1e-12, elementwise_affine=True)
              (dropout): Dropout(p=0.1, inplace=False)
              (adapters): ModuleDict()
              (adapter_fusion_layer): ModuleDict()
            )
          )
          (intermediate): BertIntermediate(
            (dense): Linear(
              in_features=768, out_features=3072, bias=True
              (loras): ModuleDict()
            )
            (intermediate_act_fn): GELUActivation()
          )
          (output): BertOutput(
            (dense): Linear(
              in_features=3072, out_features=768, bias=True
              (loras): ModuleDict()
            )
            (LayerNorm): LayerNorm((768,), eps=1e-12, elementwise_affine=True)
            (dropout): Dropout(p=0.1, inplace=False)
            (adapters): ModuleDict(
              (tr): Adapter(
                (non_linearity): Activation_Function_Class(
                  (f): NewGELUActivation()
                )
                (adapter_down): Sequential(
                  (0): Linear(in_features=768, out_features=384, bias=True)
                  (1): Activation_Function_Class(
                    (f): NewGELUActivation()
                  )
                )
                (adapter_up): Linear(in_features=384, out_features=768, bias=True)
              )
              (en): Adapter(
                (non_linearity): Activation_Function_Class(
                  (f): ReLU()
                )
                (adapter_down): Sequential(
                  (0): Linear(in_features=768, out_features=384, bias=True)
                  (1): Activation_Function_Class(
                    (f): ReLU()
                  )
                )
                (adapter_up): Linear(in_features=384, out_features=768, bias=True)
              )
              (disrpt): Adapter(
                (non_linearity): Activation_Function_Class(
                  (f): ReLU()
                )
                (adapter_down): Sequential(
                  (0): Linear(in_features=768, out_features=48, bias=True)
                  (1): Activation_Function_Class(
                    (f): ReLU()
                  )
                )
                (adapter_up): Linear(in_features=48, out_features=768, bias=True)
              )
            )
            (adapter_fusion_layer): ModuleDict()
          )
        )
        (4): BertLayer(
          (attention): BertAttention(
            (self): BertSelfAttention(
              (query): Linear(
                in_features=768, out_features=768, bias=True
                (loras): ModuleDict()
              )
              (key): Linear(
                in_features=768, out_features=768, bias=True
                (loras): ModuleDict()
              )
              (value): Linear(
                in_features=768, out_features=768, bias=True
                (loras): ModuleDict()
              )
              (dropout): Dropout(p=0.1, inplace=False)
              (prefix_tuning): PrefixTuningShim(
                (prefix_gates): ModuleDict()
                (pool): PrefixTuningPool(
                  (prefix_tunings): ModuleDict()
                )
              )
            )
            (output): BertSelfOutput(
              (dense): Linear(in_features=768, out_features=768, bias=True)
              (LayerNorm): LayerNorm((768,), eps=1e-12, elementwise_affine=True)
              (dropout): Dropout(p=0.1, inplace=False)
              (adapters): ModuleDict()
              (adapter_fusion_layer): ModuleDict()
            )
          )
          (intermediate): BertIntermediate(
            (dense): Linear(
              in_features=768, out_features=3072, bias=True
              (loras): ModuleDict()
            )
            (intermediate_act_fn): GELUActivation()
          )
          (output): BertOutput(
            (dense): Linear(
              in_features=3072, out_features=768, bias=True
              (loras): ModuleDict()
            )
            (LayerNorm): LayerNorm((768,), eps=1e-12, elementwise_affine=True)
            (dropout): Dropout(p=0.1, inplace=False)
            (adapters): ModuleDict(
              (tr): Adapter(
                (non_linearity): Activation_Function_Class(
                  (f): NewGELUActivation()
                )
                (adapter_down): Sequential(
                  (0): Linear(in_features=768, out_features=384, bias=True)
                  (1): Activation_Function_Class(
                    (f): NewGELUActivation()
                  )
                )
                (adapter_up): Linear(in_features=384, out_features=768, bias=True)
              )
              (en): Adapter(
                (non_linearity): Activation_Function_Class(
                  (f): ReLU()
                )
                (adapter_down): Sequential(
                  (0): Linear(in_features=768, out_features=384, bias=True)
                  (1): Activation_Function_Class(
                    (f): ReLU()
                  )
                )
                (adapter_up): Linear(in_features=384, out_features=768, bias=True)
              )
              (disrpt): Adapter(
                (non_linearity): Activation_Function_Class(
                  (f): ReLU()
                )
                (adapter_down): Sequential(
                  (0): Linear(in_features=768, out_features=48, bias=True)
                  (1): Activation_Function_Class(
                    (f): ReLU()
                  )
                )
                (adapter_up): Linear(in_features=48, out_features=768, bias=True)
              )
            )
            (adapter_fusion_layer): ModuleDict()
          )
        )
        (5): BertLayer(
          (attention): BertAttention(
            (self): BertSelfAttention(
              (query): Linear(
                in_features=768, out_features=768, bias=True
                (loras): ModuleDict()
              )
              (key): Linear(
                in_features=768, out_features=768, bias=True
                (loras): ModuleDict()
              )
              (value): Linear(
                in_features=768, out_features=768, bias=True
                (loras): ModuleDict()
              )
              (dropout): Dropout(p=0.1, inplace=False)
              (prefix_tuning): PrefixTuningShim(
                (prefix_gates): ModuleDict()
                (pool): PrefixTuningPool(
                  (prefix_tunings): ModuleDict()
                )
              )
            )
            (output): BertSelfOutput(
              (dense): Linear(in_features=768, out_features=768, bias=True)
              (LayerNorm): LayerNorm((768,), eps=1e-12, elementwise_affine=True)
              (dropout): Dropout(p=0.1, inplace=False)
              (adapters): ModuleDict()
              (adapter_fusion_layer): ModuleDict()
            )
          )
          (intermediate): BertIntermediate(
            (dense): Linear(
              in_features=768, out_features=3072, bias=True
              (loras): ModuleDict()
            )
            (intermediate_act_fn): GELUActivation()
          )
          (output): BertOutput(
            (dense): Linear(
              in_features=3072, out_features=768, bias=True
              (loras): ModuleDict()
            )
            (LayerNorm): LayerNorm((768,), eps=1e-12, elementwise_affine=True)
            (dropout): Dropout(p=0.1, inplace=False)
            (adapters): ModuleDict(
              (tr): Adapter(
                (non_linearity): Activation_Function_Class(
                  (f): NewGELUActivation()
                )
                (adapter_down): Sequential(
                  (0): Linear(in_features=768, out_features=384, bias=True)
                  (1): Activation_Function_Class(
                    (f): NewGELUActivation()
                  )
                )
                (adapter_up): Linear(in_features=384, out_features=768, bias=True)
              )
              (en): Adapter(
                (non_linearity): Activation_Function_Class(
                  (f): ReLU()
                )
                (adapter_down): Sequential(
                  (0): Linear(in_features=768, out_features=384, bias=True)
                  (1): Activation_Function_Class(
                    (f): ReLU()
                  )
                )
                (adapter_up): Linear(in_features=384, out_features=768, bias=True)
              )
              (disrpt): Adapter(
                (non_linearity): Activation_Function_Class(
                  (f): ReLU()
                )
                (adapter_down): Sequential(
                  (0): Linear(in_features=768, out_features=48, bias=True)
                  (1): Activation_Function_Class(
                    (f): ReLU()
                  )
                )
                (adapter_up): Linear(in_features=48, out_features=768, bias=True)
              )
            )
            (adapter_fusion_layer): ModuleDict()
          )
        )
        (6): BertLayer(
          (attention): BertAttention(
            (self): BertSelfAttention(
              (query): Linear(
                in_features=768, out_features=768, bias=True
                (loras): ModuleDict()
              )
              (key): Linear(
                in_features=768, out_features=768, bias=True
                (loras): ModuleDict()
              )
              (value): Linear(
                in_features=768, out_features=768, bias=True
                (loras): ModuleDict()
              )
              (dropout): Dropout(p=0.1, inplace=False)
              (prefix_tuning): PrefixTuningShim(
                (prefix_gates): ModuleDict()
                (pool): PrefixTuningPool(
                  (prefix_tunings): ModuleDict()
                )
              )
            )
            (output): BertSelfOutput(
              (dense): Linear(in_features=768, out_features=768, bias=True)
              (LayerNorm): LayerNorm((768,), eps=1e-12, elementwise_affine=True)
              (dropout): Dropout(p=0.1, inplace=False)
              (adapters): ModuleDict()
              (adapter_fusion_layer): ModuleDict()
            )
          )
          (intermediate): BertIntermediate(
            (dense): Linear(
              in_features=768, out_features=3072, bias=True
              (loras): ModuleDict()
            )
            (intermediate_act_fn): GELUActivation()
          )
          (output): BertOutput(
            (dense): Linear(
              in_features=3072, out_features=768, bias=True
              (loras): ModuleDict()
            )
            (LayerNorm): LayerNorm((768,), eps=1e-12, elementwise_affine=True)
            (dropout): Dropout(p=0.1, inplace=False)
            (adapters): ModuleDict(
              (tr): Adapter(
                (non_linearity): Activation_Function_Class(
                  (f): NewGELUActivation()
                )
                (adapter_down): Sequential(
                  (0): Linear(in_features=768, out_features=384, bias=True)
                  (1): Activation_Function_Class(
                    (f): NewGELUActivation()
                  )
                )
                (adapter_up): Linear(in_features=384, out_features=768, bias=True)
              )
              (en): Adapter(
                (non_linearity): Activation_Function_Class(
                  (f): ReLU()
                )
                (adapter_down): Sequential(
                  (0): Linear(in_features=768, out_features=384, bias=True)
                  (1): Activation_Function_Class(
                    (f): ReLU()
                  )
                )
                (adapter_up): Linear(in_features=384, out_features=768, bias=True)
              )
              (disrpt): Adapter(
                (non_linearity): Activation_Function_Class(
                  (f): ReLU()
                )
                (adapter_down): Sequential(
                  (0): Linear(in_features=768, out_features=48, bias=True)
                  (1): Activation_Function_Class(
                    (f): ReLU()
                  )
                )
                (adapter_up): Linear(in_features=48, out_features=768, bias=True)
              )
            )
            (adapter_fusion_layer): ModuleDict()
          )
        )
        (7): BertLayer(
          (attention): BertAttention(
            (self): BertSelfAttention(
              (query): Linear(
                in_features=768, out_features=768, bias=True
                (loras): ModuleDict()
              )
              (key): Linear(
                in_features=768, out_features=768, bias=True
                (loras): ModuleDict()
              )
              (value): Linear(
                in_features=768, out_features=768, bias=True
                (loras): ModuleDict()
              )
              (dropout): Dropout(p=0.1, inplace=False)
              (prefix_tuning): PrefixTuningShim(
                (prefix_gates): ModuleDict()
                (pool): PrefixTuningPool(
                  (prefix_tunings): ModuleDict()
                )
              )
            )
            (output): BertSelfOutput(
              (dense): Linear(in_features=768, out_features=768, bias=True)
              (LayerNorm): LayerNorm((768,), eps=1e-12, elementwise_affine=True)
              (dropout): Dropout(p=0.1, inplace=False)
              (adapters): ModuleDict()
              (adapter_fusion_layer): ModuleDict()
            )
          )
          (intermediate): BertIntermediate(
            (dense): Linear(
              in_features=768, out_features=3072, bias=True
              (loras): ModuleDict()
            )
            (intermediate_act_fn): GELUActivation()
          )
          (output): BertOutput(
            (dense): Linear(
              in_features=3072, out_features=768, bias=True
              (loras): ModuleDict()
            )
            (LayerNorm): LayerNorm((768,), eps=1e-12, elementwise_affine=True)
            (dropout): Dropout(p=0.1, inplace=False)
            (adapters): ModuleDict(
              (tr): Adapter(
                (non_linearity): Activation_Function_Class(
                  (f): NewGELUActivation()
                )
                (adapter_down): Sequential(
                  (0): Linear(in_features=768, out_features=384, bias=True)
                  (1): Activation_Function_Class(
                    (f): NewGELUActivation()
                  )
                )
                (adapter_up): Linear(in_features=384, out_features=768, bias=True)
              )
              (en): Adapter(
                (non_linearity): Activation_Function_Class(
                  (f): ReLU()
                )
                (adapter_down): Sequential(
                  (0): Linear(in_features=768, out_features=384, bias=True)
                  (1): Activation_Function_Class(
                    (f): ReLU()
                  )
                )
                (adapter_up): Linear(in_features=384, out_features=768, bias=True)
              )
              (disrpt): Adapter(
                (non_linearity): Activation_Function_Class(
                  (f): ReLU()
                )
                (adapter_down): Sequential(
                  (0): Linear(in_features=768, out_features=48, bias=True)
                  (1): Activation_Function_Class(
                    (f): ReLU()
                  )
                )
                (adapter_up): Linear(in_features=48, out_features=768, bias=True)
              )
            )
            (adapter_fusion_layer): ModuleDict()
          )
        )
        (8): BertLayer(
          (attention): BertAttention(
            (self): BertSelfAttention(
              (query): Linear(
                in_features=768, out_features=768, bias=True
                (loras): ModuleDict()
              )
              (key): Linear(
                in_features=768, out_features=768, bias=True
                (loras): ModuleDict()
              )
              (value): Linear(
                in_features=768, out_features=768, bias=True
                (loras): ModuleDict()
              )
              (dropout): Dropout(p=0.1, inplace=False)
              (prefix_tuning): PrefixTuningShim(
                (prefix_gates): ModuleDict()
                (pool): PrefixTuningPool(
                  (prefix_tunings): ModuleDict()
                )
              )
            )
            (output): BertSelfOutput(
              (dense): Linear(in_features=768, out_features=768, bias=True)
              (LayerNorm): LayerNorm((768,), eps=1e-12, elementwise_affine=True)
              (dropout): Dropout(p=0.1, inplace=False)
              (adapters): ModuleDict()
              (adapter_fusion_layer): ModuleDict()
            )
          )
          (intermediate): BertIntermediate(
            (dense): Linear(
              in_features=768, out_features=3072, bias=True
              (loras): ModuleDict()
            )
            (intermediate_act_fn): GELUActivation()
          )
          (output): BertOutput(
            (dense): Linear(
              in_features=3072, out_features=768, bias=True
              (loras): ModuleDict()
            )
            (LayerNorm): LayerNorm((768,), eps=1e-12, elementwise_affine=True)
            (dropout): Dropout(p=0.1, inplace=False)
            (adapters): ModuleDict(
              (tr): Adapter(
                (non_linearity): Activation_Function_Class(
                  (f): NewGELUActivation()
                )
                (adapter_down): Sequential(
                  (0): Linear(in_features=768, out_features=384, bias=True)
                  (1): Activation_Function_Class(
                    (f): NewGELUActivation()
                  )
                )
                (adapter_up): Linear(in_features=384, out_features=768, bias=True)
              )
              (en): Adapter(
                (non_linearity): Activation_Function_Class(
                  (f): ReLU()
                )
                (adapter_down): Sequential(
                  (0): Linear(in_features=768, out_features=384, bias=True)
                  (1): Activation_Function_Class(
                    (f): ReLU()
                  )
                )
                (adapter_up): Linear(in_features=384, out_features=768, bias=True)
              )
              (disrpt): Adapter(
                (non_linearity): Activation_Function_Class(
                  (f): ReLU()
                )
                (adapter_down): Sequential(
                  (0): Linear(in_features=768, out_features=48, bias=True)
                  (1): Activation_Function_Class(
                    (f): ReLU()
                  )
                )
                (adapter_up): Linear(in_features=48, out_features=768, bias=True)
              )
            )
            (adapter_fusion_layer): ModuleDict()
          )
        )
        (9): BertLayer(
          (attention): BertAttention(
            (self): BertSelfAttention(
              (query): Linear(
                in_features=768, out_features=768, bias=True
                (loras): ModuleDict()
              )
              (key): Linear(
                in_features=768, out_features=768, bias=True
                (loras): ModuleDict()
              )
              (value): Linear(
                in_features=768, out_features=768, bias=True
                (loras): ModuleDict()
              )
              (dropout): Dropout(p=0.1, inplace=False)
              (prefix_tuning): PrefixTuningShim(
                (prefix_gates): ModuleDict()
                (pool): PrefixTuningPool(
                  (prefix_tunings): ModuleDict()
                )
              )
            )
            (output): BertSelfOutput(
              (dense): Linear(in_features=768, out_features=768, bias=True)
              (LayerNorm): LayerNorm((768,), eps=1e-12, elementwise_affine=True)
              (dropout): Dropout(p=0.1, inplace=False)
              (adapters): ModuleDict()
              (adapter_fusion_layer): ModuleDict()
            )
          )
          (intermediate): BertIntermediate(
            (dense): Linear(
              in_features=768, out_features=3072, bias=True
              (loras): ModuleDict()
            )
            (intermediate_act_fn): GELUActivation()
          )
          (output): BertOutput(
            (dense): Linear(
              in_features=3072, out_features=768, bias=True
              (loras): ModuleDict()
            )
            (LayerNorm): LayerNorm((768,), eps=1e-12, elementwise_affine=True)
            (dropout): Dropout(p=0.1, inplace=False)
            (adapters): ModuleDict(
              (tr): Adapter(
                (non_linearity): Activation_Function_Class(
                  (f): NewGELUActivation()
                )
                (adapter_down): Sequential(
                  (0): Linear(in_features=768, out_features=384, bias=True)
                  (1): Activation_Function_Class(
                    (f): NewGELUActivation()
                  )
                )
                (adapter_up): Linear(in_features=384, out_features=768, bias=True)
              )
              (en): Adapter(
                (non_linearity): Activation_Function_Class(
                  (f): ReLU()
                )
                (adapter_down): Sequential(
                  (0): Linear(in_features=768, out_features=384, bias=True)
                  (1): Activation_Function_Class(
                    (f): ReLU()
                  )
                )
                (adapter_up): Linear(in_features=384, out_features=768, bias=True)
              )
              (disrpt): Adapter(
                (non_linearity): Activation_Function_Class(
                  (f): ReLU()
                )
                (adapter_down): Sequential(
                  (0): Linear(in_features=768, out_features=48, bias=True)
                  (1): Activation_Function_Class(
                    (f): ReLU()
                  )
                )
                (adapter_up): Linear(in_features=48, out_features=768, bias=True)
              )
            )
            (adapter_fusion_layer): ModuleDict()
          )
        )
        (10): BertLayer(
          (attention): BertAttention(
            (self): BertSelfAttention(
              (query): Linear(
                in_features=768, out_features=768, bias=True
                (loras): ModuleDict()
              )
              (key): Linear(
                in_features=768, out_features=768, bias=True
                (loras): ModuleDict()
              )
              (value): Linear(
                in_features=768, out_features=768, bias=True
                (loras): ModuleDict()
              )
              (dropout): Dropout(p=0.1, inplace=False)
              (prefix_tuning): PrefixTuningShim(
                (prefix_gates): ModuleDict()
                (pool): PrefixTuningPool(
                  (prefix_tunings): ModuleDict()
                )
              )
            )
            (output): BertSelfOutput(
              (dense): Linear(in_features=768, out_features=768, bias=True)
              (LayerNorm): LayerNorm((768,), eps=1e-12, elementwise_affine=True)
              (dropout): Dropout(p=0.1, inplace=False)
              (adapters): ModuleDict()
              (adapter_fusion_layer): ModuleDict()
            )
          )
          (intermediate): BertIntermediate(
            (dense): Linear(
              in_features=768, out_features=3072, bias=True
              (loras): ModuleDict()
            )
            (intermediate_act_fn): GELUActivation()
          )
          (output): BertOutput(
            (dense): Linear(
              in_features=3072, out_features=768, bias=True
              (loras): ModuleDict()
            )
            (LayerNorm): LayerNorm((768,), eps=1e-12, elementwise_affine=True)
            (dropout): Dropout(p=0.1, inplace=False)
            (adapters): ModuleDict(
              (tr): Adapter(
                (non_linearity): Activation_Function_Class(
                  (f): NewGELUActivation()
                )
                (adapter_down): Sequential(
                  (0): Linear(in_features=768, out_features=384, bias=True)
                  (1): Activation_Function_Class(
                    (f): NewGELUActivation()
                  )
                )
                (adapter_up): Linear(in_features=384, out_features=768, bias=True)
              )
              (en): Adapter(
                (non_linearity): Activation_Function_Class(
                  (f): ReLU()
                )
                (adapter_down): Sequential(
                  (0): Linear(in_features=768, out_features=384, bias=True)
                  (1): Activation_Function_Class(
                    (f): ReLU()
                  )
                )
                (adapter_up): Linear(in_features=384, out_features=768, bias=True)
              )
              (disrpt): Adapter(
                (non_linearity): Activation_Function_Class(
                  (f): ReLU()
                )
                (adapter_down): Sequential(
                  (0): Linear(in_features=768, out_features=48, bias=True)
                  (1): Activation_Function_Class(
                    (f): ReLU()
                  )
                )
                (adapter_up): Linear(in_features=48, out_features=768, bias=True)
              )
            )
            (adapter_fusion_layer): ModuleDict()
          )
        )
        (11): BertLayer(
          (attention): BertAttention(
            (self): BertSelfAttention(
              (query): Linear(
                in_features=768, out_features=768, bias=True
                (loras): ModuleDict()
              )
              (key): Linear(
                in_features=768, out_features=768, bias=True
                (loras): ModuleDict()
              )
              (value): Linear(
                in_features=768, out_features=768, bias=True
                (loras): ModuleDict()
              )
              (dropout): Dropout(p=0.1, inplace=False)
              (prefix_tuning): PrefixTuningShim(
                (prefix_gates): ModuleDict()
                (pool): PrefixTuningPool(
                  (prefix_tunings): ModuleDict()
                )
              )
            )
            (output): BertSelfOutput(
              (dense): Linear(in_features=768, out_features=768, bias=True)
              (LayerNorm): LayerNorm((768,), eps=1e-12, elementwise_affine=True)
              (dropout): Dropout(p=0.1, inplace=False)
              (adapters): ModuleDict()
              (adapter_fusion_layer): ModuleDict()
            )
          )
          (intermediate): BertIntermediate(
            (dense): Linear(
              in_features=768, out_features=3072, bias=True
              (loras): ModuleDict()
            )
            (intermediate_act_fn): GELUActivation()
          )
          (output): BertOutput(
            (dense): Linear(
              in_features=3072, out_features=768, bias=True
              (loras): ModuleDict()
            )
            (LayerNorm): LayerNorm((768,), eps=1e-12, elementwise_affine=True)
            (dropout): Dropout(p=0.1, inplace=False)
            (adapters): ModuleDict(
              (tr): Adapter(
                (non_linearity): Activation_Function_Class(
                  (f): NewGELUActivation()
                )
                (adapter_down): Sequential(
                  (0): Linear(in_features=768, out_features=384, bias=True)
                  (1): Activation_Function_Class(
                    (f): NewGELUActivation()
                  )
                )
                (adapter_up): Linear(in_features=384, out_features=768, bias=True)
              )
              (en): Adapter(
                (non_linearity): Activation_Function_Class(
                  (f): ReLU()
                )
                (adapter_down): Sequential(
                  (0): Linear(in_features=768, out_features=384, bias=True)
                  (1): Activation_Function_Class(
                    (f): ReLU()
                  )
                )
                (adapter_up): Linear(in_features=384, out_features=768, bias=True)
              )
              (disrpt): Adapter(
                (non_linearity): Activation_Function_Class(
                  (f): ReLU()
                )
                (adapter_down): Sequential(
                  (0): Linear(in_features=768, out_features=48, bias=True)
                  (1): Activation_Function_Class(
                    (f): ReLU()
                  )
                )
                (adapter_up): Linear(in_features=48, out_features=768, bias=True)
              )
            )
            (adapter_fusion_layer): ModuleDict()
          )
        )
      )
    )
    (pooler): BertPooler(
      (dense): Linear(in_features=768, out_features=768, bias=True)
      (activation): Tanh()
    )
    (prefix_tuning): PrefixTuningPool(
      (prefix_tunings): ModuleDict()
    )
  )
  (heads): ModuleDict(
    (tr): BertStyleMaskedLMHead(
      (0): Linear(in_features=768, out_features=768, bias=True)
      (1): Activation_Function_Class(
        (f): GELUActivation()
      )
      (2): LayerNorm((768,), eps=1e-12, elementwise_affine=True)
      (3): Linear(in_features=768, out_features=119547, bias=True)
    )
    (disrpt): ClassificationHead(
      (0): Dropout(p=0.1, inplace=False)
      (1): Linear(in_features=768, out_features=768, bias=True)
      (2): Activation_Function_Class(
        (f): Tanh()
      )
      (3): Dropout(p=0.1, inplace=False)
      (4): Linear(in_features=768, out_features=25, bias=True)
    )
  )
)
{'train@tur.pdtb.tdb_loss': 2.573967456817627, 'train@tur.pdtb.tdb_accuracy@tur.pdtb.tdb': 0.25050999592003265, 'train@tur.pdtb.tdb_f1@tur.pdtb.tdb': 0.01741967515426626, 'train@tur.pdtb.tdb_precision@tur.pdtb.tdb': 0.010891738953044898, 'train@tur.pdtb.tdb_recall@tur.pdtb.tdb': 0.043478260869565216, 'train@tur.pdtb.tdb_loss@tur.pdtb.tdb': 2.573967456817627, 'train@tur.pdtb.tdb_runtime': 29.447, 'train@tur.pdtb.tdb_samples_per_second': 83.234, 'train@tur.pdtb.tdb_steps_per_second': 2.615, 'epoch': 1.0}
…
