…
Lang1:  deu.rst.pcc    Lang2:  eng.rst.gum
Saving run to:  runs/full_shot/FullShot=v4_deu.rst.pcc_eng.rst.gum_lrfunc=Adafactor_lr=2e-05_plm=bert-base-multilingual-cased
Running with params: BERT_MODEL=bert-base-multilingual-cased lr=2e-05
read 2164 examples
read 241 examples
read 260 examples
read 13897 examples
read 2149 examples
read 2091 examples
Total prediction labels:  32
BertAdapterModel(
  (shared_parameters): ModuleDict()
  (bert): BertModel(
    (shared_parameters): ModuleDict()
    (invertible_adapters): ModuleDict(
      (de): NICECouplingBlock(
        (F): Sequential(
          (0): Linear(in_features=384, out_features=192, bias=True)
          (1): Activation_Function_Class(
            (f): NewGELUActivation()
          )
          (2): Linear(in_features=192, out_features=384, bias=True)
        )
        (G): Sequential(
          (0): Linear(in_features=384, out_features=192, bias=True)
          (1): Activation_Function_Class(
            (f): NewGELUActivation()
          )
          (2): Linear(in_features=192, out_features=384, bias=True)
        )
      )
      (en): NICECouplingBlock(
        (F): Sequential(
          (0): Linear(in_features=384, out_features=192, bias=True)
          (1): Activation_Function_Class(
            (f): ReLU()
          )
          (2): Linear(in_features=192, out_features=384, bias=True)
        )
        (G): Sequential(
          (0): Linear(in_features=384, out_features=192, bias=True)
          (1): Activation_Function_Class(
            (f): ReLU()
          )
          (2): Linear(in_features=192, out_features=384, bias=True)
        )
      )
    )
    (embeddings): BertEmbeddings(
      (word_embeddings): Embedding(119547, 768, padding_idx=0)
      (position_embeddings): Embedding(512, 768)
      (token_type_embeddings): Embedding(2, 768)
      (LayerNorm): LayerNorm((768,), eps=1e-12, elementwise_affine=True)
      (dropout): Dropout(p=0.1, inplace=False)
    )
    (encoder): BertEncoder(
      (layer): ModuleList(
        (0): BertLayer(
          (attention): BertAttention(
            (self): BertSelfAttention(
              (query): Linear(
                in_features=768, out_features=768, bias=True
                (loras): ModuleDict()
              )
              (key): Linear(
                in_features=768, out_features=768, bias=True
                (loras): ModuleDict()
              )
              (value): Linear(
                in_features=768, out_features=768, bias=True
                (loras): ModuleDict()
              )
              (dropout): Dropout(p=0.1, inplace=False)
              (prefix_tuning): PrefixTuningShim(
                (prefix_gates): ModuleDict()
                (pool): PrefixTuningPool(
                  (prefix_tunings): ModuleDict()
                )
              )
            )
            (output): BertSelfOutput(
              (dense): Linear(in_features=768, out_features=768, bias=True)
              (LayerNorm): LayerNorm((768,), eps=1e-12, elementwise_affine=True)
              (dropout): Dropout(p=0.1, inplace=False)
              (adapters): ModuleDict()
              (adapter_fusion_layer): ModuleDict()
            )
          )
          (intermediate): BertIntermediate(
            (dense): Linear(
              in_features=768, out_features=3072, bias=True
              (loras): ModuleDict()
            )
            (intermediate_act_fn): GELUActivation()
          )
          (output): BertOutput(
            (dense): Linear(
              in_features=3072, out_features=768, bias=True
              (loras): ModuleDict()
            )
            (LayerNorm): LayerNorm((768,), eps=1e-12, elementwise_affine=True)
            (dropout): Dropout(p=0.1, inplace=False)
            (adapters): ModuleDict(
              (de): Adapter(
                (non_linearity): Activation_Function_Class(
                  (f): NewGELUActivation()
                )
                (adapter_down): Sequential(
                  (0): Linear(in_features=768, out_features=384, bias=True)
                  (1): Activation_Function_Class(
                    (f): NewGELUActivation()
                  )
                )
                (adapter_up): Linear(in_features=384, out_features=768, bias=True)
              )
              (en): Adapter(
                (non_linearity): Activation_Function_Class(
                  (f): ReLU()
                )
                (adapter_down): Sequential(
                  (0): Linear(in_features=768, out_features=384, bias=True)
                  (1): Activation_Function_Class(
                    (f): ReLU()
                  )
                )
                (adapter_up): Linear(in_features=384, out_features=768, bias=True)
              )
              (disrpt): Adapter(
                (non_linearity): Activation_Function_Class(
                  (f): ReLU()
                )
                (adapter_down): Sequential(
                  (0): Linear(in_features=768, out_features=48, bias=True)
                  (1): Activation_Function_Class(
                    (f): ReLU()
                  )
                )
                (adapter_up): Linear(in_features=48, out_features=768, bias=True)
              )
            )
            (adapter_fusion_layer): ModuleDict()
          )
        )
        (1): BertLayer(
          (attention): BertAttention(
            (self): BertSelfAttention(
              (query): Linear(
                in_features=768, out_features=768, bias=True
                (loras): ModuleDict()
              )
              (key): Linear(
                in_features=768, out_features=768, bias=True
                (loras): ModuleDict()
              )
              (value): Linear(
                in_features=768, out_features=768, bias=True
                (loras): ModuleDict()
              )
              (dropout): Dropout(p=0.1, inplace=False)
              (prefix_tuning): PrefixTuningShim(
                (prefix_gates): ModuleDict()
                (pool): PrefixTuningPool(
                  (prefix_tunings): ModuleDict()
                )
              )
            )
            (output): BertSelfOutput(
              (dense): Linear(in_features=768, out_features=768, bias=True)
              (LayerNorm): LayerNorm((768,), eps=1e-12, elementwise_affine=True)
              (dropout): Dropout(p=0.1, inplace=False)
              (adapters): ModuleDict()
              (adapter_fusion_layer): ModuleDict()
            )
          )
          (intermediate): BertIntermediate(
            (dense): Linear(
              in_features=768, out_features=3072, bias=True
              (loras): ModuleDict()
            )
            (intermediate_act_fn): GELUActivation()
          )
          (output): BertOutput(
            (dense): Linear(
              in_features=3072, out_features=768, bias=True
              (loras): ModuleDict()
            )
            (LayerNorm): LayerNorm((768,), eps=1e-12, elementwise_affine=True)
            (dropout): Dropout(p=0.1, inplace=False)
            (adapters): ModuleDict(
              (de): Adapter(
                (non_linearity): Activation_Function_Class(
                  (f): NewGELUActivation()
                )
                (adapter_down): Sequential(
                  (0): Linear(in_features=768, out_features=384, bias=True)
                  (1): Activation_Function_Class(
                    (f): NewGELUActivation()
                  )
                )
                (adapter_up): Linear(in_features=384, out_features=768, bias=True)
              )
              (en): Adapter(
                (non_linearity): Activation_Function_Class(
                  (f): ReLU()
                )
                (adapter_down): Sequential(
                  (0): Linear(in_features=768, out_features=384, bias=True)
                  (1): Activation_Function_Class(
                    (f): ReLU()
                  )
                )
                (adapter_up): Linear(in_features=384, out_features=768, bias=True)
              )
              (disrpt): Adapter(
                (non_linearity): Activation_Function_Class(
                  (f): ReLU()
                )
                (adapter_down): Sequential(
                  (0): Linear(in_features=768, out_features=48, bias=True)
                  (1): Activation_Function_Class(
                    (f): ReLU()
                  )
                )
                (adapter_up): Linear(in_features=48, out_features=768, bias=True)
              )
            )
            (adapter_fusion_layer): ModuleDict()
          )
        )
        (2): BertLayer(
          (attention): BertAttention(
            (self): BertSelfAttention(
              (query): Linear(
                in_features=768, out_features=768, bias=True
                (loras): ModuleDict()
              )
              (key): Linear(
                in_features=768, out_features=768, bias=True
                (loras): ModuleDict()
              )
              (value): Linear(
                in_features=768, out_features=768, bias=True
                (loras): ModuleDict()
              )
              (dropout): Dropout(p=0.1, inplace=False)
              (prefix_tuning): PrefixTuningShim(
                (prefix_gates): ModuleDict()
                (pool): PrefixTuningPool(
                  (prefix_tunings): ModuleDict()
                )
              )
            )
            (output): BertSelfOutput(
              (dense): Linear(in_features=768, out_features=768, bias=True)
              (LayerNorm): LayerNorm((768,), eps=1e-12, elementwise_affine=True)
              (dropout): Dropout(p=0.1, inplace=False)
              (adapters): ModuleDict()
              (adapter_fusion_layer): ModuleDict()
            )
          )
          (intermediate): BertIntermediate(
            (dense): Linear(
              in_features=768, out_features=3072, bias=True
              (loras): ModuleDict()
            )
            (intermediate_act_fn): GELUActivation()
          )
          (output): BertOutput(
            (dense): Linear(
              in_features=3072, out_features=768, bias=True
              (loras): ModuleDict()
            )
            (LayerNorm): LayerNorm((768,), eps=1e-12, elementwise_affine=True)
            (dropout): Dropout(p=0.1, inplace=False)
            (adapters): ModuleDict(
              (de): Adapter(
                (non_linearity): Activation_Function_Class(
                  (f): NewGELUActivation()
                )
                (adapter_down): Sequential(
                  (0): Linear(in_features=768, out_features=384, bias=True)
                  (1): Activation_Function_Class(
                    (f): NewGELUActivation()
                  )
                )
                (adapter_up): Linear(in_features=384, out_features=768, bias=True)
              )
              (en): Adapter(
                (non_linearity): Activation_Function_Class(
                  (f): ReLU()
                )
                (adapter_down): Sequential(
                  (0): Linear(in_features=768, out_features=384, bias=True)
                  (1): Activation_Function_Class(
                    (f): ReLU()
                  )
                )
                (adapter_up): Linear(in_features=384, out_features=768, bias=True)
              )
              (disrpt): Adapter(
                (non_linearity): Activation_Function_Class(
                  (f): ReLU()
                )
                (adapter_down): Sequential(
                  (0): Linear(in_features=768, out_features=48, bias=True)
                  (1): Activation_Function_Class(
                    (f): ReLU()
                  )
                )
                (adapter_up): Linear(in_features=48, out_features=768, bias=True)
              )
            )
            (adapter_fusion_layer): ModuleDict()
          )
        )
        (3): BertLayer(
          (attention): BertAttention(
            (self): BertSelfAttention(
              (query): Linear(
                in_features=768, out_features=768, bias=True
                (loras): ModuleDict()
              )
              (key): Linear(
                in_features=768, out_features=768, bias=True
                (loras): ModuleDict()
              )
              (value): Linear(
                in_features=768, out_features=768, bias=True
                (loras): ModuleDict()
              )
              (dropout): Dropout(p=0.1, inplace=False)
              (prefix_tuning): PrefixTuningShim(
                (prefix_gates): ModuleDict()
                (pool): PrefixTuningPool(
                  (prefix_tunings): ModuleDict()
                )
              )
            )
            (output): BertSelfOutput(
              (dense): Linear(in_features=768, out_features=768, bias=True)
              (LayerNorm): LayerNorm((768,), eps=1e-12, elementwise_affine=True)
              (dropout): Dropout(p=0.1, inplace=False)
              (adapters): ModuleDict()
              (adapter_fusion_layer): ModuleDict()
            )
          )
          (intermediate): BertIntermediate(
            (dense): Linear(
              in_features=768, out_features=3072, bias=True
              (loras): ModuleDict()
            )
            (intermediate_act_fn): GELUActivation()
          )
          (output): BertOutput(
            (dense): Linear(
              in_features=3072, out_features=768, bias=True
              (loras): ModuleDict()
            )
            (LayerNorm): LayerNorm((768,), eps=1e-12, elementwise_affine=True)
            (dropout): Dropout(p=0.1, inplace=False)
            (adapters): ModuleDict(
              (de): Adapter(
                (non_linearity): Activation_Function_Class(
                  (f): NewGELUActivation()
                )
                (adapter_down): Sequential(
                  (0): Linear(in_features=768, out_features=384, bias=True)
                  (1): Activation_Function_Class(
                    (f): NewGELUActivation()
                  )
                )
                (adapter_up): Linear(in_features=384, out_features=768, bias=True)
              )
              (en): Adapter(
                (non_linearity): Activation_Function_Class(
                  (f): ReLU()
                )
                (adapter_down): Sequential(
                  (0): Linear(in_features=768, out_features=384, bias=True)
                  (1): Activation_Function_Class(
                    (f): ReLU()
                  )
                )
                (adapter_up): Linear(in_features=384, out_features=768, bias=True)
              )
              (disrpt): Adapter(
                (non_linearity): Activation_Function_Class(
                  (f): ReLU()
                )
                (adapter_down): Sequential(
                  (0): Linear(in_features=768, out_features=48, bias=True)
                  (1): Activation_Function_Class(
                    (f): ReLU()
                  )
                )
                (adapter_up): Linear(in_features=48, out_features=768, bias=True)
              )
            )
            (adapter_fusion_layer): ModuleDict()
          )
        )
        (4): BertLayer(
          (attention): BertAttention(
            (self): BertSelfAttention(
              (query): Linear(
                in_features=768, out_features=768, bias=True
                (loras): ModuleDict()
              )
              (key): Linear(
                in_features=768, out_features=768, bias=True
                (loras): ModuleDict()
              )
              (value): Linear(
                in_features=768, out_features=768, bias=True
                (loras): ModuleDict()
              )
              (dropout): Dropout(p=0.1, inplace=False)
              (prefix_tuning): PrefixTuningShim(
                (prefix_gates): ModuleDict()
                (pool): PrefixTuningPool(
                  (prefix_tunings): ModuleDict()
                )
              )
            )
            (output): BertSelfOutput(
              (dense): Linear(in_features=768, out_features=768, bias=True)
              (LayerNorm): LayerNorm((768,), eps=1e-12, elementwise_affine=True)
              (dropout): Dropout(p=0.1, inplace=False)
              (adapters): ModuleDict()
              (adapter_fusion_layer): ModuleDict()
            )
          )
          (intermediate): BertIntermediate(
            (dense): Linear(
              in_features=768, out_features=3072, bias=True
              (loras): ModuleDict()
            )
            (intermediate_act_fn): GELUActivation()
          )
          (output): BertOutput(
            (dense): Linear(
              in_features=3072, out_features=768, bias=True
              (loras): ModuleDict()
            )
            (LayerNorm): LayerNorm((768,), eps=1e-12, elementwise_affine=True)
            (dropout): Dropout(p=0.1, inplace=False)
            (adapters): ModuleDict(
              (de): Adapter(
                (non_linearity): Activation_Function_Class(
                  (f): NewGELUActivation()
                )
                (adapter_down): Sequential(
                  (0): Linear(in_features=768, out_features=384, bias=True)
                  (1): Activation_Function_Class(
                    (f): NewGELUActivation()
                  )
                )
                (adapter_up): Linear(in_features=384, out_features=768, bias=True)
              )
              (en): Adapter(
                (non_linearity): Activation_Function_Class(
                  (f): ReLU()
                )
                (adapter_down): Sequential(
                  (0): Linear(in_features=768, out_features=384, bias=True)
                  (1): Activation_Function_Class(
                    (f): ReLU()
                  )
                )
                (adapter_up): Linear(in_features=384, out_features=768, bias=True)
              )
              (disrpt): Adapter(
                (non_linearity): Activation_Function_Class(
                  (f): ReLU()
                )
                (adapter_down): Sequential(
                  (0): Linear(in_features=768, out_features=48, bias=True)
                  (1): Activation_Function_Class(
                    (f): ReLU()
                  )
                )
                (adapter_up): Linear(in_features=48, out_features=768, bias=True)
              )
            )
            (adapter_fusion_layer): ModuleDict()
          )
        )
        (5): BertLayer(
          (attention): BertAttention(
            (self): BertSelfAttention(
              (query): Linear(
                in_features=768, out_features=768, bias=True
                (loras): ModuleDict()
              )
              (key): Linear(
                in_features=768, out_features=768, bias=True
                (loras): ModuleDict()
              )
              (value): Linear(
                in_features=768, out_features=768, bias=True
                (loras): ModuleDict()
              )
              (dropout): Dropout(p=0.1, inplace=False)
              (prefix_tuning): PrefixTuningShim(
                (prefix_gates): ModuleDict()
                (pool): PrefixTuningPool(
                  (prefix_tunings): ModuleDict()
                )
              )
            )
            (output): BertSelfOutput(
              (dense): Linear(in_features=768, out_features=768, bias=True)
              (LayerNorm): LayerNorm((768,), eps=1e-12, elementwise_affine=True)
              (dropout): Dropout(p=0.1, inplace=False)
              (adapters): ModuleDict()
              (adapter_fusion_layer): ModuleDict()
            )
          )
          (intermediate): BertIntermediate(
            (dense): Linear(
              in_features=768, out_features=3072, bias=True
              (loras): ModuleDict()
            )
            (intermediate_act_fn): GELUActivation()
          )
          (output): BertOutput(
            (dense): Linear(
              in_features=3072, out_features=768, bias=True
              (loras): ModuleDict()
            )
            (LayerNorm): LayerNorm((768,), eps=1e-12, elementwise_affine=True)
            (dropout): Dropout(p=0.1, inplace=False)
            (adapters): ModuleDict(
              (de): Adapter(
                (non_linearity): Activation_Function_Class(
                  (f): NewGELUActivation()
                )
                (adapter_down): Sequential(
                  (0): Linear(in_features=768, out_features=384, bias=True)
                  (1): Activation_Function_Class(
                    (f): NewGELUActivation()
                  )
                )
                (adapter_up): Linear(in_features=384, out_features=768, bias=True)
              )
              (en): Adapter(
                (non_linearity): Activation_Function_Class(
                  (f): ReLU()
                )
                (adapter_down): Sequential(
                  (0): Linear(in_features=768, out_features=384, bias=True)
                  (1): Activation_Function_Class(
                    (f): ReLU()
                  )
                )
                (adapter_up): Linear(in_features=384, out_features=768, bias=True)
              )
              (disrpt): Adapter(
                (non_linearity): Activation_Function_Class(
                  (f): ReLU()
                )
                (adapter_down): Sequential(
                  (0): Linear(in_features=768, out_features=48, bias=True)
                  (1): Activation_Function_Class(
                    (f): ReLU()
                  )
                )
                (adapter_up): Linear(in_features=48, out_features=768, bias=True)
              )
            )
            (adapter_fusion_layer): ModuleDict()
          )
        )
        (6): BertLayer(
          (attention): BertAttention(
            (self): BertSelfAttention(
              (query): Linear(
                in_features=768, out_features=768, bias=True
                (loras): ModuleDict()
              )
              (key): Linear(
                in_features=768, out_features=768, bias=True
                (loras): ModuleDict()
              )
              (value): Linear(
                in_features=768, out_features=768, bias=True
                (loras): ModuleDict()
              )
              (dropout): Dropout(p=0.1, inplace=False)
              (prefix_tuning): PrefixTuningShim(
                (prefix_gates): ModuleDict()
                (pool): PrefixTuningPool(
                  (prefix_tunings): ModuleDict()
                )
              )
            )
            (output): BertSelfOutput(
              (dense): Linear(in_features=768, out_features=768, bias=True)
              (LayerNorm): LayerNorm((768,), eps=1e-12, elementwise_affine=True)
              (dropout): Dropout(p=0.1, inplace=False)
              (adapters): ModuleDict()
              (adapter_fusion_layer): ModuleDict()
            )
          )
          (intermediate): BertIntermediate(
            (dense): Linear(
              in_features=768, out_features=3072, bias=True
              (loras): ModuleDict()
            )
            (intermediate_act_fn): GELUActivation()
          )
          (output): BertOutput(
            (dense): Linear(
              in_features=3072, out_features=768, bias=True
              (loras): ModuleDict()
            )
            (LayerNorm): LayerNorm((768,), eps=1e-12, elementwise_affine=True)
            (dropout): Dropout(p=0.1, inplace=False)
            (adapters): ModuleDict(
              (de): Adapter(
                (non_linearity): Activation_Function_Class(
                  (f): NewGELUActivation()
                )
                (adapter_down): Sequential(
                  (0): Linear(in_features=768, out_features=384, bias=True)
                  (1): Activation_Function_Class(
                    (f): NewGELUActivation()
                  )
                )
                (adapter_up): Linear(in_features=384, out_features=768, bias=True)
              )
              (en): Adapter(
                (non_linearity): Activation_Function_Class(
                  (f): ReLU()
                )
                (adapter_down): Sequential(
                  (0): Linear(in_features=768, out_features=384, bias=True)
                  (1): Activation_Function_Class(
                    (f): ReLU()
                  )
                )
                (adapter_up): Linear(in_features=384, out_features=768, bias=True)
              )
              (disrpt): Adapter(
                (non_linearity): Activation_Function_Class(
                  (f): ReLU()
                )
                (adapter_down): Sequential(
                  (0): Linear(in_features=768, out_features=48, bias=True)
                  (1): Activation_Function_Class(
                    (f): ReLU()
                  )
                )
                (adapter_up): Linear(in_features=48, out_features=768, bias=True)
              )
            )
            (adapter_fusion_layer): ModuleDict()
          )
        )
        (7): BertLayer(
          (attention): BertAttention(
            (self): BertSelfAttention(
              (query): Linear(
                in_features=768, out_features=768, bias=True
                (loras): ModuleDict()
              )
              (key): Linear(
                in_features=768, out_features=768, bias=True
                (loras): ModuleDict()
              )
              (value): Linear(
                in_features=768, out_features=768, bias=True
                (loras): ModuleDict()
              )
              (dropout): Dropout(p=0.1, inplace=False)
              (prefix_tuning): PrefixTuningShim(
                (prefix_gates): ModuleDict()
                (pool): PrefixTuningPool(
                  (prefix_tunings): ModuleDict()
                )
              )
            )
            (output): BertSelfOutput(
              (dense): Linear(in_features=768, out_features=768, bias=True)
              (LayerNorm): LayerNorm((768,), eps=1e-12, elementwise_affine=True)
              (dropout): Dropout(p=0.1, inplace=False)
              (adapters): ModuleDict()
              (adapter_fusion_layer): ModuleDict()
            )
          )
          (intermediate): BertIntermediate(
            (dense): Linear(
              in_features=768, out_features=3072, bias=True
              (loras): ModuleDict()
            )
            (intermediate_act_fn): GELUActivation()
          )
          (output): BertOutput(
            (dense): Linear(
              in_features=3072, out_features=768, bias=True
              (loras): ModuleDict()
            )
            (LayerNorm): LayerNorm((768,), eps=1e-12, elementwise_affine=True)
            (dropout): Dropout(p=0.1, inplace=False)
            (adapters): ModuleDict(
              (de): Adapter(
                (non_linearity): Activation_Function_Class(
                  (f): NewGELUActivation()
                )
                (adapter_down): Sequential(
                  (0): Linear(in_features=768, out_features=384, bias=True)
                  (1): Activation_Function_Class(
                    (f): NewGELUActivation()
                  )
                )
                (adapter_up): Linear(in_features=384, out_features=768, bias=True)
              )
              (en): Adapter(
                (non_linearity): Activation_Function_Class(
                  (f): ReLU()
                )
                (adapter_down): Sequential(
                  (0): Linear(in_features=768, out_features=384, bias=True)
                  (1): Activation_Function_Class(
                    (f): ReLU()
                  )
                )
                (adapter_up): Linear(in_features=384, out_features=768, bias=True)
              )
              (disrpt): Adapter(
                (non_linearity): Activation_Function_Class(
                  (f): ReLU()
                )
                (adapter_down): Sequential(
                  (0): Linear(in_features=768, out_features=48, bias=True)
                  (1): Activation_Function_Class(
                    (f): ReLU()
                  )
                )
                (adapter_up): Linear(in_features=48, out_features=768, bias=True)
              )
            )
            (adapter_fusion_layer): ModuleDict()
          )
        )
        (8): BertLayer(
          (attention): BertAttention(
            (self): BertSelfAttention(
              (query): Linear(
                in_features=768, out_features=768, bias=True
                (loras): ModuleDict()
              )
              (key): Linear(
                in_features=768, out_features=768, bias=True
                (loras): ModuleDict()
              )
              (value): Linear(
                in_features=768, out_features=768, bias=True
                (loras): ModuleDict()
              )
              (dropout): Dropout(p=0.1, inplace=False)
              (prefix_tuning): PrefixTuningShim(
                (prefix_gates): ModuleDict()
                (pool): PrefixTuningPool(
                  (prefix_tunings): ModuleDict()
                )
              )
            )
            (output): BertSelfOutput(
              (dense): Linear(in_features=768, out_features=768, bias=True)
              (LayerNorm): LayerNorm((768,), eps=1e-12, elementwise_affine=True)
              (dropout): Dropout(p=0.1, inplace=False)
              (adapters): ModuleDict()
              (adapter_fusion_layer): ModuleDict()
            )
          )
          (intermediate): BertIntermediate(
            (dense): Linear(
              in_features=768, out_features=3072, bias=True
              (loras): ModuleDict()
            )
            (intermediate_act_fn): GELUActivation()
          )
          (output): BertOutput(
            (dense): Linear(
              in_features=3072, out_features=768, bias=True
              (loras): ModuleDict()
            )
            (LayerNorm): LayerNorm((768,), eps=1e-12, elementwise_affine=True)
            (dropout): Dropout(p=0.1, inplace=False)
            (adapters): ModuleDict(
              (de): Adapter(
                (non_linearity): Activation_Function_Class(
                  (f): NewGELUActivation()
                )
                (adapter_down): Sequential(
                  (0): Linear(in_features=768, out_features=384, bias=True)
                  (1): Activation_Function_Class(
                    (f): NewGELUActivation()
                  )
                )
                (adapter_up): Linear(in_features=384, out_features=768, bias=True)
              )
              (en): Adapter(
                (non_linearity): Activation_Function_Class(
                  (f): ReLU()
                )
                (adapter_down): Sequential(
                  (0): Linear(in_features=768, out_features=384, bias=True)
                  (1): Activation_Function_Class(
                    (f): ReLU()
                  )
                )
                (adapter_up): Linear(in_features=384, out_features=768, bias=True)
              )
              (disrpt): Adapter(
                (non_linearity): Activation_Function_Class(
                  (f): ReLU()
                )
                (adapter_down): Sequential(
                  (0): Linear(in_features=768, out_features=48, bias=True)
                  (1): Activation_Function_Class(
                    (f): ReLU()
                  )
                )
                (adapter_up): Linear(in_features=48, out_features=768, bias=True)
              )
            )
            (adapter_fusion_layer): ModuleDict()
          )
        )
        (9): BertLayer(
          (attention): BertAttention(
            (self): BertSelfAttention(
              (query): Linear(
                in_features=768, out_features=768, bias=True
                (loras): ModuleDict()
              )
              (key): Linear(
                in_features=768, out_features=768, bias=True
                (loras): ModuleDict()
              )
              (value): Linear(
                in_features=768, out_features=768, bias=True
                (loras): ModuleDict()
              )
              (dropout): Dropout(p=0.1, inplace=False)
              (prefix_tuning): PrefixTuningShim(
                (prefix_gates): ModuleDict()
                (pool): PrefixTuningPool(
                  (prefix_tunings): ModuleDict()
                )
              )
            )
            (output): BertSelfOutput(
              (dense): Linear(in_features=768, out_features=768, bias=True)
              (LayerNorm): LayerNorm((768,), eps=1e-12, elementwise_affine=True)
              (dropout): Dropout(p=0.1, inplace=False)
              (adapters): ModuleDict()
              (adapter_fusion_layer): ModuleDict()
            )
          )
          (intermediate): BertIntermediate(
            (dense): Linear(
              in_features=768, out_features=3072, bias=True
              (loras): ModuleDict()
            )
            (intermediate_act_fn): GELUActivation()
          )
          (output): BertOutput(
            (dense): Linear(
              in_features=3072, out_features=768, bias=True
              (loras): ModuleDict()
            )
            (LayerNorm): LayerNorm((768,), eps=1e-12, elementwise_affine=True)
            (dropout): Dropout(p=0.1, inplace=False)
            (adapters): ModuleDict(
              (de): Adapter(
                (non_linearity): Activation_Function_Class(
                  (f): NewGELUActivation()
                )
                (adapter_down): Sequential(
                  (0): Linear(in_features=768, out_features=384, bias=True)
                  (1): Activation_Function_Class(
                    (f): NewGELUActivation()
                  )
                )
                (adapter_up): Linear(in_features=384, out_features=768, bias=True)
              )
              (en): Adapter(
                (non_linearity): Activation_Function_Class(
                  (f): ReLU()
                )
                (adapter_down): Sequential(
                  (0): Linear(in_features=768, out_features=384, bias=True)
                  (1): Activation_Function_Class(
                    (f): ReLU()
                  )
                )
                (adapter_up): Linear(in_features=384, out_features=768, bias=True)
              )
              (disrpt): Adapter(
                (non_linearity): Activation_Function_Class(
                  (f): ReLU()
                )
                (adapter_down): Sequential(
                  (0): Linear(in_features=768, out_features=48, bias=True)
                  (1): Activation_Function_Class(
                    (f): ReLU()
                  )
                )
                (adapter_up): Linear(in_features=48, out_features=768, bias=True)
              )
            )
            (adapter_fusion_layer): ModuleDict()
          )
        )
        (10): BertLayer(
          (attention): BertAttention(
            (self): BertSelfAttention(
              (query): Linear(
                in_features=768, out_features=768, bias=True
                (loras): ModuleDict()
              )
              (key): Linear(
                in_features=768, out_features=768, bias=True
                (loras): ModuleDict()
              )
              (value): Linear(
                in_features=768, out_features=768, bias=True
                (loras): ModuleDict()
              )
              (dropout): Dropout(p=0.1, inplace=False)
              (prefix_tuning): PrefixTuningShim(
                (prefix_gates): ModuleDict()
                (pool): PrefixTuningPool(
                  (prefix_tunings): ModuleDict()
                )
              )
            )
            (output): BertSelfOutput(
              (dense): Linear(in_features=768, out_features=768, bias=True)
              (LayerNorm): LayerNorm((768,), eps=1e-12, elementwise_affine=True)
              (dropout): Dropout(p=0.1, inplace=False)
              (adapters): ModuleDict()
              (adapter_fusion_layer): ModuleDict()
            )
          )
          (intermediate): BertIntermediate(
            (dense): Linear(
              in_features=768, out_features=3072, bias=True
              (loras): ModuleDict()
            )
            (intermediate_act_fn): GELUActivation()
          )
          (output): BertOutput(
            (dense): Linear(
              in_features=3072, out_features=768, bias=True
              (loras): ModuleDict()
            )
            (LayerNorm): LayerNorm((768,), eps=1e-12, elementwise_affine=True)
            (dropout): Dropout(p=0.1, inplace=False)
            (adapters): ModuleDict(
              (de): Adapter(
                (non_linearity): Activation_Function_Class(
                  (f): NewGELUActivation()
                )
                (adapter_down): Sequential(
                  (0): Linear(in_features=768, out_features=384, bias=True)
                  (1): Activation_Function_Class(
                    (f): NewGELUActivation()
                  )
                )
                (adapter_up): Linear(in_features=384, out_features=768, bias=True)
              )
              (en): Adapter(
                (non_linearity): Activation_Function_Class(
                  (f): ReLU()
                )
                (adapter_down): Sequential(
                  (0): Linear(in_features=768, out_features=384, bias=True)
                  (1): Activation_Function_Class(
                    (f): ReLU()
                  )
                )
                (adapter_up): Linear(in_features=384, out_features=768, bias=True)
              )
              (disrpt): Adapter(
                (non_linearity): Activation_Function_Class(
                  (f): ReLU()
                )
                (adapter_down): Sequential(
                  (0): Linear(in_features=768, out_features=48, bias=True)
                  (1): Activation_Function_Class(
                    (f): ReLU()
                  )
                )
                (adapter_up): Linear(in_features=48, out_features=768, bias=True)
              )
            )
            (adapter_fusion_layer): ModuleDict()
          )
        )
        (11): BertLayer(
          (attention): BertAttention(
            (self): BertSelfAttention(
              (query): Linear(
                in_features=768, out_features=768, bias=True
                (loras): ModuleDict()
              )
              (key): Linear(
                in_features=768, out_features=768, bias=True
                (loras): ModuleDict()
              )
              (value): Linear(
                in_features=768, out_features=768, bias=True
                (loras): ModuleDict()
              )
              (dropout): Dropout(p=0.1, inplace=False)
              (prefix_tuning): PrefixTuningShim(
                (prefix_gates): ModuleDict()
                (pool): PrefixTuningPool(
                  (prefix_tunings): ModuleDict()
                )
              )
            )
            (output): BertSelfOutput(
              (dense): Linear(in_features=768, out_features=768, bias=True)
              (LayerNorm): LayerNorm((768,), eps=1e-12, elementwise_affine=True)
              (dropout): Dropout(p=0.1, inplace=False)
              (adapters): ModuleDict()
              (adapter_fusion_layer): ModuleDict()
            )
          )
          (intermediate): BertIntermediate(
            (dense): Linear(
              in_features=768, out_features=3072, bias=True
              (loras): ModuleDict()
            )
            (intermediate_act_fn): GELUActivation()
          )
          (output): BertOutput(
            (dense): Linear(
              in_features=3072, out_features=768, bias=True
              (loras): ModuleDict()
            )
            (LayerNorm): LayerNorm((768,), eps=1e-12, elementwise_affine=True)
            (dropout): Dropout(p=0.1, inplace=False)
            (adapters): ModuleDict(
              (de): Adapter(
                (non_linearity): Activation_Function_Class(
                  (f): NewGELUActivation()
                )
                (adapter_down): Sequential(
                  (0): Linear(in_features=768, out_features=384, bias=True)
                  (1): Activation_Function_Class(
                    (f): NewGELUActivation()
                  )
                )
                (adapter_up): Linear(in_features=384, out_features=768, bias=True)
              )
              (en): Adapter(
                (non_linearity): Activation_Function_Class(
                  (f): ReLU()
                )
                (adapter_down): Sequential(
                  (0): Linear(in_features=768, out_features=384, bias=True)
                  (1): Activation_Function_Class(
                    (f): ReLU()
                  )
                )
                (adapter_up): Linear(in_features=384, out_features=768, bias=True)
              )
              (disrpt): Adapter(
                (non_linearity): Activation_Function_Class(
                  (f): ReLU()
                )
                (adapter_down): Sequential(
                  (0): Linear(in_features=768, out_features=48, bias=True)
                  (1): Activation_Function_Class(
                    (f): ReLU()
                  )
                )
                (adapter_up): Linear(in_features=48, out_features=768, bias=True)
              )
            )
            (adapter_fusion_layer): ModuleDict()
          )
        )
      )
    )
    (pooler): BertPooler(
      (dense): Linear(in_features=768, out_features=768, bias=True)
      (activation): Tanh()
    )
    (prefix_tuning): PrefixTuningPool(
      (prefix_tunings): ModuleDict()
    )
  )
  (heads): ModuleDict(
    (disrpt): ClassificationHead(
      (0): Dropout(p=0.1, inplace=False)
      (1): Linear(in_features=768, out_features=768, bias=True)
      (2): Activation_Function_Class(
        (f): Tanh()
      )
      (3): Dropout(p=0.1, inplace=False)
      (4): Linear(in_features=768, out_features=32, bias=True)
    )
  )
)
{'train@deu.rst.pcc_loss': 3.1309711933135986, 'train@deu.rst.pcc_accuracy@deu.rst.pcc': 0.10489833641404805, 'train@deu.rst.pcc_f1@deu.rst.pcc': 0.014395922258864598, 'train@deu.rst.pcc_precision@deu.rst.pcc': 0.02598877551344981, 'train@deu.rst.pcc_recall@deu.rst.pcc': 0.04180462324129585, 'train@deu.rst.pcc_loss@deu.rst.pcc': 3.1309709548950195, 'train@deu.rst.pcc_runtime': 27.3768, 'train@deu.rst.pcc_samples_per_second': 79.045, 'train@deu.rst.pcc_steps_per_second': 2.484, 'epoch': 1.0}
…
Lang1:  eng.pdtb.pdtb    Lang2:  eng.rst.gum
Saving run to:  runs/full_shot/FullShot=v4_eng.pdtb.pdtb_eng.rst.gum_lrfunc=Adafactor_lr=2e-05_plm=bert-base-multilingual-cased
Running with params: BERT_MODEL=bert-base-multilingual-cased lr=2e-05
read 43920 examples
read 1674 examples
read 2257 examples
read 13897 examples
read 2149 examples
read 2091 examples
Total prediction labels:  46
BertAdapterModel(
  (shared_parameters): ModuleDict()
  (bert): BertModel(
    (shared_parameters): ModuleDict()
    (invertible_adapters): ModuleDict(
      (en): NICECouplingBlock(
        (F): Sequential(
          (0): Linear(in_features=384, out_features=192, bias=True)
          (1): Activation_Function_Class(
            (f): ReLU()
          )
          (2): Linear(in_features=192, out_features=384, bias=True)
        )
        (G): Sequential(
          (0): Linear(in_features=384, out_features=192, bias=True)
          (1): Activation_Function_Class(
            (f): ReLU()
          )
          (2): Linear(in_features=192, out_features=384, bias=True)
        )
      )
    )
    (embeddings): BertEmbeddings(
      (word_embeddings): Embedding(119547, 768, padding_idx=0)
      (position_embeddings): Embedding(512, 768)
      (token_type_embeddings): Embedding(2, 768)
      (LayerNorm): LayerNorm((768,), eps=1e-12, elementwise_affine=True)
      (dropout): Dropout(p=0.1, inplace=False)
    )
    (encoder): BertEncoder(
      (layer): ModuleList(
        (0): BertLayer(
          (attention): BertAttention(
            (self): BertSelfAttention(
              (query): Linear(
                in_features=768, out_features=768, bias=True
                (loras): ModuleDict()
              )
              (key): Linear(
                in_features=768, out_features=768, bias=True
                (loras): ModuleDict()
              )
              (value): Linear(
                in_features=768, out_features=768, bias=True
                (loras): ModuleDict()
              )
              (dropout): Dropout(p=0.1, inplace=False)
              (prefix_tuning): PrefixTuningShim(
                (prefix_gates): ModuleDict()
                (pool): PrefixTuningPool(
                  (prefix_tunings): ModuleDict()
                )
              )
            )
            (output): BertSelfOutput(
              (dense): Linear(in_features=768, out_features=768, bias=True)
              (LayerNorm): LayerNorm((768,), eps=1e-12, elementwise_affine=True)
              (dropout): Dropout(p=0.1, inplace=False)
              (adapters): ModuleDict()
              (adapter_fusion_layer): ModuleDict()
            )
          )
          (intermediate): BertIntermediate(
            (dense): Linear(
              in_features=768, out_features=3072, bias=True
              (loras): ModuleDict()
            )
            (intermediate_act_fn): GELUActivation()
          )
          (output): BertOutput(
            (dense): Linear(
              in_features=3072, out_features=768, bias=True
              (loras): ModuleDict()
            )
            (LayerNorm): LayerNorm((768,), eps=1e-12, elementwise_affine=True)
            (dropout): Dropout(p=0.1, inplace=False)
            (adapters): ModuleDict(
              (en): Adapter(
                (non_linearity): Activation_Function_Class(
                  (f): ReLU()
                )
                (adapter_down): Sequential(
                  (0): Linear(in_features=768, out_features=384, bias=True)
                  (1): Activation_Function_Class(
                    (f): ReLU()
                  )
                )
                (adapter_up): Linear(in_features=384, out_features=768, bias=True)
              )
              (disrpt): Adapter(
                (non_linearity): Activation_Function_Class(
                  (f): ReLU()
                )
                (adapter_down): Sequential(
                  (0): Linear(in_features=768, out_features=48, bias=True)
                  (1): Activation_Function_Class(
                    (f): ReLU()
                  )
                )
                (adapter_up): Linear(in_features=48, out_features=768, bias=True)
              )
            )
            (adapter_fusion_layer): ModuleDict()
          )
        )
        (1): BertLayer(
          (attention): BertAttention(
            (self): BertSelfAttention(
              (query): Linear(
                in_features=768, out_features=768, bias=True
                (loras): ModuleDict()
              )
              (key): Linear(
                in_features=768, out_features=768, bias=True
                (loras): ModuleDict()
              )
              (value): Linear(
                in_features=768, out_features=768, bias=True
                (loras): ModuleDict()
              )
              (dropout): Dropout(p=0.1, inplace=False)
              (prefix_tuning): PrefixTuningShim(
                (prefix_gates): ModuleDict()
                (pool): PrefixTuningPool(
                  (prefix_tunings): ModuleDict()
                )
              )
            )
            (output): BertSelfOutput(
              (dense): Linear(in_features=768, out_features=768, bias=True)
              (LayerNorm): LayerNorm((768,), eps=1e-12, elementwise_affine=True)
              (dropout): Dropout(p=0.1, inplace=False)
              (adapters): ModuleDict()
              (adapter_fusion_layer): ModuleDict()
            )
          )
          (intermediate): BertIntermediate(
            (dense): Linear(
              in_features=768, out_features=3072, bias=True
              (loras): ModuleDict()
            )
            (intermediate_act_fn): GELUActivation()
          )
          (output): BertOutput(
            (dense): Linear(
              in_features=3072, out_features=768, bias=True
              (loras): ModuleDict()
            )
            (LayerNorm): LayerNorm((768,), eps=1e-12, elementwise_affine=True)
            (dropout): Dropout(p=0.1, inplace=False)
            (adapters): ModuleDict(
              (en): Adapter(
                (non_linearity): Activation_Function_Class(
                  (f): ReLU()
                )
                (adapter_down): Sequential(
                  (0): Linear(in_features=768, out_features=384, bias=True)
                  (1): Activation_Function_Class(
                    (f): ReLU()
                  )
                )
                (adapter_up): Linear(in_features=384, out_features=768, bias=True)
              )
              (disrpt): Adapter(
                (non_linearity): Activation_Function_Class(
                  (f): ReLU()
                )
                (adapter_down): Sequential(
                  (0): Linear(in_features=768, out_features=48, bias=True)
                  (1): Activation_Function_Class(
                    (f): ReLU()
                  )
                )
                (adapter_up): Linear(in_features=48, out_features=768, bias=True)
              )
            )
            (adapter_fusion_layer): ModuleDict()
          )
        )
        (2): BertLayer(
          (attention): BertAttention(
            (self): BertSelfAttention(
              (query): Linear(
                in_features=768, out_features=768, bias=True
                (loras): ModuleDict()
              )
              (key): Linear(
                in_features=768, out_features=768, bias=True
                (loras): ModuleDict()
              )
              (value): Linear(
                in_features=768, out_features=768, bias=True
                (loras): ModuleDict()
              )
              (dropout): Dropout(p=0.1, inplace=False)
              (prefix_tuning): PrefixTuningShim(
                (prefix_gates): ModuleDict()
                (pool): PrefixTuningPool(
                  (prefix_tunings): ModuleDict()
                )
              )
            )
            (output): BertSelfOutput(
              (dense): Linear(in_features=768, out_features=768, bias=True)
              (LayerNorm): LayerNorm((768,), eps=1e-12, elementwise_affine=True)
              (dropout): Dropout(p=0.1, inplace=False)
              (adapters): ModuleDict()
              (adapter_fusion_layer): ModuleDict()
            )
          )
          (intermediate): BertIntermediate(
            (dense): Linear(
              in_features=768, out_features=3072, bias=True
              (loras): ModuleDict()
            )
            (intermediate_act_fn): GELUActivation()
          )
          (output): BertOutput(
            (dense): Linear(
              in_features=3072, out_features=768, bias=True
              (loras): ModuleDict()
            )
            (LayerNorm): LayerNorm((768,), eps=1e-12, elementwise_affine=True)
            (dropout): Dropout(p=0.1, inplace=False)
            (adapters): ModuleDict(
              (en): Adapter(
                (non_linearity): Activation_Function_Class(
                  (f): ReLU()
                )
                (adapter_down): Sequential(
                  (0): Linear(in_features=768, out_features=384, bias=True)
                  (1): Activation_Function_Class(
                    (f): ReLU()
                  )
                )
                (adapter_up): Linear(in_features=384, out_features=768, bias=True)
              )
              (disrpt): Adapter(
                (non_linearity): Activation_Function_Class(
                  (f): ReLU()
                )
                (adapter_down): Sequential(
                  (0): Linear(in_features=768, out_features=48, bias=True)
                  (1): Activation_Function_Class(
                    (f): ReLU()
                  )
                )
                (adapter_up): Linear(in_features=48, out_features=768, bias=True)
              )
            )
            (adapter_fusion_layer): ModuleDict()
          )
        )
        (3): BertLayer(
          (attention): BertAttention(
            (self): BertSelfAttention(
              (query): Linear(
                in_features=768, out_features=768, bias=True
                (loras): ModuleDict()
              )
              (key): Linear(
                in_features=768, out_features=768, bias=True
                (loras): ModuleDict()
              )
              (value): Linear(
                in_features=768, out_features=768, bias=True
                (loras): ModuleDict()
              )
              (dropout): Dropout(p=0.1, inplace=False)
              (prefix_tuning): PrefixTuningShim(
                (prefix_gates): ModuleDict()
                (pool): PrefixTuningPool(
                  (prefix_tunings): ModuleDict()
                )
              )
            )
            (output): BertSelfOutput(
              (dense): Linear(in_features=768, out_features=768, bias=True)
              (LayerNorm): LayerNorm((768,), eps=1e-12, elementwise_affine=True)
              (dropout): Dropout(p=0.1, inplace=False)
              (adapters): ModuleDict()
              (adapter_fusion_layer): ModuleDict()
            )
          )
          (intermediate): BertIntermediate(
            (dense): Linear(
              in_features=768, out_features=3072, bias=True
              (loras): ModuleDict()
            )
            (intermediate_act_fn): GELUActivation()
          )
          (output): BertOutput(
            (dense): Linear(
              in_features=3072, out_features=768, bias=True
              (loras): ModuleDict()
            )
            (LayerNorm): LayerNorm((768,), eps=1e-12, elementwise_affine=True)
            (dropout): Dropout(p=0.1, inplace=False)
            (adapters): ModuleDict(
              (en): Adapter(
                (non_linearity): Activation_Function_Class(
                  (f): ReLU()
                )
                (adapter_down): Sequential(
                  (0): Linear(in_features=768, out_features=384, bias=True)
                  (1): Activation_Function_Class(
                    (f): ReLU()
                  )
                )
                (adapter_up): Linear(in_features=384, out_features=768, bias=True)
              )
              (disrpt): Adapter(
                (non_linearity): Activation_Function_Class(
                  (f): ReLU()
                )
                (adapter_down): Sequential(
                  (0): Linear(in_features=768, out_features=48, bias=True)
                  (1): Activation_Function_Class(
                    (f): ReLU()
                  )
                )
                (adapter_up): Linear(in_features=48, out_features=768, bias=True)
              )
            )
            (adapter_fusion_layer): ModuleDict()
          )
        )
        (4): BertLayer(
          (attention): BertAttention(
            (self): BertSelfAttention(
              (query): Linear(
                in_features=768, out_features=768, bias=True
                (loras): ModuleDict()
              )
              (key): Linear(
                in_features=768, out_features=768, bias=True
                (loras): ModuleDict()
              )
              (value): Linear(
                in_features=768, out_features=768, bias=True
                (loras): ModuleDict()
              )
              (dropout): Dropout(p=0.1, inplace=False)
              (prefix_tuning): PrefixTuningShim(
                (prefix_gates): ModuleDict()
                (pool): PrefixTuningPool(
                  (prefix_tunings): ModuleDict()
                )
              )
            )
            (output): BertSelfOutput(
              (dense): Linear(in_features=768, out_features=768, bias=True)
              (LayerNorm): LayerNorm((768,), eps=1e-12, elementwise_affine=True)
              (dropout): Dropout(p=0.1, inplace=False)
              (adapters): ModuleDict()
              (adapter_fusion_layer): ModuleDict()
            )
          )
          (intermediate): BertIntermediate(
            (dense): Linear(
              in_features=768, out_features=3072, bias=True
              (loras): ModuleDict()
            )
            (intermediate_act_fn): GELUActivation()
          )
          (output): BertOutput(
            (dense): Linear(
              in_features=3072, out_features=768, bias=True
              (loras): ModuleDict()
            )
            (LayerNorm): LayerNorm((768,), eps=1e-12, elementwise_affine=True)
            (dropout): Dropout(p=0.1, inplace=False)
            (adapters): ModuleDict(
              (en): Adapter(
                (non_linearity): Activation_Function_Class(
                  (f): ReLU()
                )
                (adapter_down): Sequential(
                  (0): Linear(in_features=768, out_features=384, bias=True)
                  (1): Activation_Function_Class(
                    (f): ReLU()
                  )
                )
                (adapter_up): Linear(in_features=384, out_features=768, bias=True)
              )
              (disrpt): Adapter(
                (non_linearity): Activation_Function_Class(
                  (f): ReLU()
                )
                (adapter_down): Sequential(
                  (0): Linear(in_features=768, out_features=48, bias=True)
                  (1): Activation_Function_Class(
                    (f): ReLU()
                  )
                )
                (adapter_up): Linear(in_features=48, out_features=768, bias=True)
              )
            )
            (adapter_fusion_layer): ModuleDict()
          )
        )
        (5): BertLayer(
          (attention): BertAttention(
            (self): BertSelfAttention(
              (query): Linear(
                in_features=768, out_features=768, bias=True
                (loras): ModuleDict()
              )
              (key): Linear(
                in_features=768, out_features=768, bias=True
                (loras): ModuleDict()
              )
              (value): Linear(
                in_features=768, out_features=768, bias=True
                (loras): ModuleDict()
              )
              (dropout): Dropout(p=0.1, inplace=False)
              (prefix_tuning): PrefixTuningShim(
                (prefix_gates): ModuleDict()
                (pool): PrefixTuningPool(
                  (prefix_tunings): ModuleDict()
                )
              )
            )
            (output): BertSelfOutput(
              (dense): Linear(in_features=768, out_features=768, bias=True)
              (LayerNorm): LayerNorm((768,), eps=1e-12, elementwise_affine=True)
              (dropout): Dropout(p=0.1, inplace=False)
              (adapters): ModuleDict()
              (adapter_fusion_layer): ModuleDict()
            )
          )
          (intermediate): BertIntermediate(
            (dense): Linear(
              in_features=768, out_features=3072, bias=True
              (loras): ModuleDict()
            )
            (intermediate_act_fn): GELUActivation()
          )
          (output): BertOutput(
            (dense): Linear(
              in_features=3072, out_features=768, bias=True
              (loras): ModuleDict()
            )
            (LayerNorm): LayerNorm((768,), eps=1e-12, elementwise_affine=True)
            (dropout): Dropout(p=0.1, inplace=False)
            (adapters): ModuleDict(
              (en): Adapter(
                (non_linearity): Activation_Function_Class(
                  (f): ReLU()
                )
                (adapter_down): Sequential(
                  (0): Linear(in_features=768, out_features=384, bias=True)
                  (1): Activation_Function_Class(
                    (f): ReLU()
                  )
                )
                (adapter_up): Linear(in_features=384, out_features=768, bias=True)
              )
              (disrpt): Adapter(
                (non_linearity): Activation_Function_Class(
                  (f): ReLU()
                )
                (adapter_down): Sequential(
                  (0): Linear(in_features=768, out_features=48, bias=True)
                  (1): Activation_Function_Class(
                    (f): ReLU()
                  )
                )
                (adapter_up): Linear(in_features=48, out_features=768, bias=True)
              )
            )
            (adapter_fusion_layer): ModuleDict()
          )
        )
        (6): BertLayer(
          (attention): BertAttention(
            (self): BertSelfAttention(
              (query): Linear(
                in_features=768, out_features=768, bias=True
                (loras): ModuleDict()
              )
              (key): Linear(
                in_features=768, out_features=768, bias=True
                (loras): ModuleDict()
              )
              (value): Linear(
                in_features=768, out_features=768, bias=True
                (loras): ModuleDict()
              )
              (dropout): Dropout(p=0.1, inplace=False)
              (prefix_tuning): PrefixTuningShim(
                (prefix_gates): ModuleDict()
                (pool): PrefixTuningPool(
                  (prefix_tunings): ModuleDict()
                )
              )
            )
            (output): BertSelfOutput(
              (dense): Linear(in_features=768, out_features=768, bias=True)
              (LayerNorm): LayerNorm((768,), eps=1e-12, elementwise_affine=True)
              (dropout): Dropout(p=0.1, inplace=False)
              (adapters): ModuleDict()
              (adapter_fusion_layer): ModuleDict()
            )
          )
          (intermediate): BertIntermediate(
            (dense): Linear(
              in_features=768, out_features=3072, bias=True
              (loras): ModuleDict()
            )
            (intermediate_act_fn): GELUActivation()
          )
          (output): BertOutput(
            (dense): Linear(
              in_features=3072, out_features=768, bias=True
              (loras): ModuleDict()
            )
            (LayerNorm): LayerNorm((768,), eps=1e-12, elementwise_affine=True)
            (dropout): Dropout(p=0.1, inplace=False)
            (adapters): ModuleDict(
              (en): Adapter(
                (non_linearity): Activation_Function_Class(
                  (f): ReLU()
                )
                (adapter_down): Sequential(
                  (0): Linear(in_features=768, out_features=384, bias=True)
                  (1): Activation_Function_Class(
                    (f): ReLU()
                  )
                )
                (adapter_up): Linear(in_features=384, out_features=768, bias=True)
              )
              (disrpt): Adapter(
                (non_linearity): Activation_Function_Class(
                  (f): ReLU()
                )
                (adapter_down): Sequential(
                  (0): Linear(in_features=768, out_features=48, bias=True)
                  (1): Activation_Function_Class(
                    (f): ReLU()
                  )
                )
                (adapter_up): Linear(in_features=48, out_features=768, bias=True)
              )
            )
            (adapter_fusion_layer): ModuleDict()
          )
        )
        (7): BertLayer(
          (attention): BertAttention(
            (self): BertSelfAttention(
              (query): Linear(
                in_features=768, out_features=768, bias=True
                (loras): ModuleDict()
              )
              (key): Linear(
                in_features=768, out_features=768, bias=True
                (loras): ModuleDict()
              )
              (value): Linear(
                in_features=768, out_features=768, bias=True
                (loras): ModuleDict()
              )
              (dropout): Dropout(p=0.1, inplace=False)
              (prefix_tuning): PrefixTuningShim(
                (prefix_gates): ModuleDict()
                (pool): PrefixTuningPool(
                  (prefix_tunings): ModuleDict()
                )
              )
            )
            (output): BertSelfOutput(
              (dense): Linear(in_features=768, out_features=768, bias=True)
              (LayerNorm): LayerNorm((768,), eps=1e-12, elementwise_affine=True)
              (dropout): Dropout(p=0.1, inplace=False)
              (adapters): ModuleDict()
              (adapter_fusion_layer): ModuleDict()
            )
          )
          (intermediate): BertIntermediate(
            (dense): Linear(
              in_features=768, out_features=3072, bias=True
              (loras): ModuleDict()
            )
            (intermediate_act_fn): GELUActivation()
          )
          (output): BertOutput(
            (dense): Linear(
              in_features=3072, out_features=768, bias=True
              (loras): ModuleDict()
            )
            (LayerNorm): LayerNorm((768,), eps=1e-12, elementwise_affine=True)
            (dropout): Dropout(p=0.1, inplace=False)
            (adapters): ModuleDict(
              (en): Adapter(
                (non_linearity): Activation_Function_Class(
                  (f): ReLU()
                )
                (adapter_down): Sequential(
                  (0): Linear(in_features=768, out_features=384, bias=True)
                  (1): Activation_Function_Class(
                    (f): ReLU()
                  )
                )
                (adapter_up): Linear(in_features=384, out_features=768, bias=True)
              )
              (disrpt): Adapter(
                (non_linearity): Activation_Function_Class(
                  (f): ReLU()
                )
                (adapter_down): Sequential(
                  (0): Linear(in_features=768, out_features=48, bias=True)
                  (1): Activation_Function_Class(
                    (f): ReLU()
                  )
                )
                (adapter_up): Linear(in_features=48, out_features=768, bias=True)
              )
            )
            (adapter_fusion_layer): ModuleDict()
          )
        )
        (8): BertLayer(
          (attention): BertAttention(
            (self): BertSelfAttention(
              (query): Linear(
                in_features=768, out_features=768, bias=True
                (loras): ModuleDict()
              )
              (key): Linear(
                in_features=768, out_features=768, bias=True
                (loras): ModuleDict()
              )
              (value): Linear(
                in_features=768, out_features=768, bias=True
                (loras): ModuleDict()
              )
              (dropout): Dropout(p=0.1, inplace=False)
              (prefix_tuning): PrefixTuningShim(
                (prefix_gates): ModuleDict()
                (pool): PrefixTuningPool(
                  (prefix_tunings): ModuleDict()
                )
              )
            )
            (output): BertSelfOutput(
              (dense): Linear(in_features=768, out_features=768, bias=True)
              (LayerNorm): LayerNorm((768,), eps=1e-12, elementwise_affine=True)
              (dropout): Dropout(p=0.1, inplace=False)
              (adapters): ModuleDict()
              (adapter_fusion_layer): ModuleDict()
            )
          )
          (intermediate): BertIntermediate(
            (dense): Linear(
              in_features=768, out_features=3072, bias=True
              (loras): ModuleDict()
            )
            (intermediate_act_fn): GELUActivation()
          )
          (output): BertOutput(
            (dense): Linear(
              in_features=3072, out_features=768, bias=True
              (loras): ModuleDict()
            )
            (LayerNorm): LayerNorm((768,), eps=1e-12, elementwise_affine=True)
            (dropout): Dropout(p=0.1, inplace=False)
            (adapters): ModuleDict(
              (en): Adapter(
                (non_linearity): Activation_Function_Class(
                  (f): ReLU()
                )
                (adapter_down): Sequential(
                  (0): Linear(in_features=768, out_features=384, bias=True)
                  (1): Activation_Function_Class(
                    (f): ReLU()
                  )
                )
                (adapter_up): Linear(in_features=384, out_features=768, bias=True)
              )
              (disrpt): Adapter(
                (non_linearity): Activation_Function_Class(
                  (f): ReLU()
                )
                (adapter_down): Sequential(
                  (0): Linear(in_features=768, out_features=48, bias=True)
                  (1): Activation_Function_Class(
                    (f): ReLU()
                  )
                )
                (adapter_up): Linear(in_features=48, out_features=768, bias=True)
              )
            )
            (adapter_fusion_layer): ModuleDict()
          )
        )
        (9): BertLayer(
          (attention): BertAttention(
            (self): BertSelfAttention(
              (query): Linear(
                in_features=768, out_features=768, bias=True
                (loras): ModuleDict()
              )
              (key): Linear(
                in_features=768, out_features=768, bias=True
                (loras): ModuleDict()
              )
              (value): Linear(
                in_features=768, out_features=768, bias=True
                (loras): ModuleDict()
              )
              (dropout): Dropout(p=0.1, inplace=False)
              (prefix_tuning): PrefixTuningShim(
                (prefix_gates): ModuleDict()
                (pool): PrefixTuningPool(
                  (prefix_tunings): ModuleDict()
                )
              )
            )
            (output): BertSelfOutput(
              (dense): Linear(in_features=768, out_features=768, bias=True)
              (LayerNorm): LayerNorm((768,), eps=1e-12, elementwise_affine=True)
              (dropout): Dropout(p=0.1, inplace=False)
              (adapters): ModuleDict()
              (adapter_fusion_layer): ModuleDict()
            )
          )
          (intermediate): BertIntermediate(
            (dense): Linear(
              in_features=768, out_features=3072, bias=True
              (loras): ModuleDict()
            )
            (intermediate_act_fn): GELUActivation()
          )
          (output): BertOutput(
            (dense): Linear(
              in_features=3072, out_features=768, bias=True
              (loras): ModuleDict()
            )
            (LayerNorm): LayerNorm((768,), eps=1e-12, elementwise_affine=True)
            (dropout): Dropout(p=0.1, inplace=False)
            (adapters): ModuleDict(
              (en): Adapter(
                (non_linearity): Activation_Function_Class(
                  (f): ReLU()
                )
                (adapter_down): Sequential(
                  (0): Linear(in_features=768, out_features=384, bias=True)
                  (1): Activation_Function_Class(
                    (f): ReLU()
                  )
                )
                (adapter_up): Linear(in_features=384, out_features=768, bias=True)
              )
              (disrpt): Adapter(
                (non_linearity): Activation_Function_Class(
                  (f): ReLU()
                )
                (adapter_down): Sequential(
                  (0): Linear(in_features=768, out_features=48, bias=True)
                  (1): Activation_Function_Class(
                    (f): ReLU()
                  )
                )
                (adapter_up): Linear(in_features=48, out_features=768, bias=True)
              )
            )
            (adapter_fusion_layer): ModuleDict()
          )
        )
        (10): BertLayer(
          (attention): BertAttention(
            (self): BertSelfAttention(
              (query): Linear(
                in_features=768, out_features=768, bias=True
                (loras): ModuleDict()
              )
              (key): Linear(
                in_features=768, out_features=768, bias=True
                (loras): ModuleDict()
              )
              (value): Linear(
                in_features=768, out_features=768, bias=True
                (loras): ModuleDict()
              )
              (dropout): Dropout(p=0.1, inplace=False)
              (prefix_tuning): PrefixTuningShim(
                (prefix_gates): ModuleDict()
                (pool): PrefixTuningPool(
                  (prefix_tunings): ModuleDict()
                )
              )
            )
            (output): BertSelfOutput(
              (dense): Linear(in_features=768, out_features=768, bias=True)
              (LayerNorm): LayerNorm((768,), eps=1e-12, elementwise_affine=True)
              (dropout): Dropout(p=0.1, inplace=False)
              (adapters): ModuleDict()
              (adapter_fusion_layer): ModuleDict()
            )
          )
          (intermediate): BertIntermediate(
            (dense): Linear(
              in_features=768, out_features=3072, bias=True
              (loras): ModuleDict()
            )
            (intermediate_act_fn): GELUActivation()
          )
          (output): BertOutput(
            (dense): Linear(
              in_features=3072, out_features=768, bias=True
              (loras): ModuleDict()
            )
            (LayerNorm): LayerNorm((768,), eps=1e-12, elementwise_affine=True)
            (dropout): Dropout(p=0.1, inplace=False)
            (adapters): ModuleDict(
              (en): Adapter(
                (non_linearity): Activation_Function_Class(
                  (f): ReLU()
                )
                (adapter_down): Sequential(
                  (0): Linear(in_features=768, out_features=384, bias=True)
                  (1): Activation_Function_Class(
                    (f): ReLU()
                  )
                )
                (adapter_up): Linear(in_features=384, out_features=768, bias=True)
              )
              (disrpt): Adapter(
                (non_linearity): Activation_Function_Class(
                  (f): ReLU()
                )
                (adapter_down): Sequential(
                  (0): Linear(in_features=768, out_features=48, bias=True)
                  (1): Activation_Function_Class(
                    (f): ReLU()
                  )
                )
                (adapter_up): Linear(in_features=48, out_features=768, bias=True)
              )
            )
            (adapter_fusion_layer): ModuleDict()
          )
        )
        (11): BertLayer(
          (attention): BertAttention(
            (self): BertSelfAttention(
              (query): Linear(
                in_features=768, out_features=768, bias=True
                (loras): ModuleDict()
              )
              (key): Linear(
                in_features=768, out_features=768, bias=True
                (loras): ModuleDict()
              )
              (value): Linear(
                in_features=768, out_features=768, bias=True
                (loras): ModuleDict()
              )
              (dropout): Dropout(p=0.1, inplace=False)
              (prefix_tuning): PrefixTuningShim(
                (prefix_gates): ModuleDict()
                (pool): PrefixTuningPool(
                  (prefix_tunings): ModuleDict()
                )
              )
            )
            (output): BertSelfOutput(
              (dense): Linear(in_features=768, out_features=768, bias=True)
              (LayerNorm): LayerNorm((768,), eps=1e-12, elementwise_affine=True)
              (dropout): Dropout(p=0.1, inplace=False)
              (adapters): ModuleDict()
              (adapter_fusion_layer): ModuleDict()
            )
          )
          (intermediate): BertIntermediate(
            (dense): Linear(
              in_features=768, out_features=3072, bias=True
              (loras): ModuleDict()
            )
            (intermediate_act_fn): GELUActivation()
          )
          (output): BertOutput(
            (dense): Linear(
              in_features=3072, out_features=768, bias=True
              (loras): ModuleDict()
            )
            (LayerNorm): LayerNorm((768,), eps=1e-12, elementwise_affine=True)
            (dropout): Dropout(p=0.1, inplace=False)
            (adapters): ModuleDict(
              (en): Adapter(
                (non_linearity): Activation_Function_Class(
                  (f): ReLU()
                )
                (adapter_down): Sequential(
                  (0): Linear(in_features=768, out_features=384, bias=True)
                  (1): Activation_Function_Class(
                    (f): ReLU()
                  )
                )
                (adapter_up): Linear(in_features=384, out_features=768, bias=True)
              )
              (disrpt): Adapter(
                (non_linearity): Activation_Function_Class(
                  (f): ReLU()
                )
                (adapter_down): Sequential(
                  (0): Linear(in_features=768, out_features=48, bias=True)
                  (1): Activation_Function_Class(
                    (f): ReLU()
                  )
                )
                (adapter_up): Linear(in_features=48, out_features=768, bias=True)
              )
            )
            (adapter_fusion_layer): ModuleDict()
          )
        )
      )
    )
    (pooler): BertPooler(
      (dense): Linear(in_features=768, out_features=768, bias=True)
      (activation): Tanh()
    )
    (prefix_tuning): PrefixTuningPool(
      (prefix_tunings): ModuleDict()
    )
  )
  (heads): ModuleDict(
    (disrpt): ClassificationHead(
      (0): Dropout(p=0.1, inplace=False)
      (1): Linear(in_features=768, out_features=768, bias=True)
      (2): Activation_Function_Class(
        (f): Tanh()
      )
      (3): Dropout(p=0.1, inplace=False)
      (4): Linear(in_features=768, out_features=46, bias=True)
    )
  )
)
{'train@eng.pdtb.pdtb_loss': 1.3112739324569702, 'train@eng.pdtb.pdtb_accuracy@eng.pdtb.pdtb': 0.5872495446265938, 'train@eng.pdtb.pdtb_f1@eng.pdtb.pdtb': 0.24794807372489885, 'train@eng.pdtb.pdtb_precision@eng.pdtb.pdtb': 0.32168981713252576, 'train@eng.pdtb.pdtb_recall@eng.pdtb.pdtb': 0.24425419325194647, 'train@eng.pdtb.pdtb_loss@eng.pdtb.pdtb': 1.3112739324569702, 'train@eng.pdtb.pdtb_runtime': 522.0974, 'train@eng.pdtb.pdtb_samples_per_second': 84.122, 'train@eng.pdtb.pdtb_steps_per_second': 2.63, 'epoch': 1.0}
…
Lang1:  eng.rst.rstdt    Lang2:  eng.rst.gum
Saving run to:  runs/full_shot/FullShot=v4_eng.rst.rstdt_eng.rst.gum_lrfunc=Adafactor_lr=2e-05_plm=bert-base-multilingual-cased
Running with params: BERT_MODEL=bert-base-multilingual-cased lr=2e-05
read 16002 examples
read 1621 examples
read 2155 examples
read 13897 examples
read 2149 examples
read 2091 examples
Total prediction labels:  32
BertAdapterModel(
  (shared_parameters): ModuleDict()
  (bert): BertModel(
    (shared_parameters): ModuleDict()
    (invertible_adapters): ModuleDict(
      (en): NICECouplingBlock(
        (F): Sequential(
          (0): Linear(in_features=384, out_features=192, bias=True)
          (1): Activation_Function_Class(
            (f): ReLU()
          )
          (2): Linear(in_features=192, out_features=384, bias=True)
        )
        (G): Sequential(
          (0): Linear(in_features=384, out_features=192, bias=True)
          (1): Activation_Function_Class(
            (f): ReLU()
          )
          (2): Linear(in_features=192, out_features=384, bias=True)
        )
      )
    )
    (embeddings): BertEmbeddings(
      (word_embeddings): Embedding(119547, 768, padding_idx=0)
      (position_embeddings): Embedding(512, 768)
      (token_type_embeddings): Embedding(2, 768)
      (LayerNorm): LayerNorm((768,), eps=1e-12, elementwise_affine=True)
      (dropout): Dropout(p=0.1, inplace=False)
    )
    (encoder): BertEncoder(
      (layer): ModuleList(
        (0): BertLayer(
          (attention): BertAttention(
            (self): BertSelfAttention(
              (query): Linear(
                in_features=768, out_features=768, bias=True
                (loras): ModuleDict()
              )
              (key): Linear(
                in_features=768, out_features=768, bias=True
                (loras): ModuleDict()
              )
              (value): Linear(
                in_features=768, out_features=768, bias=True
                (loras): ModuleDict()
              )
              (dropout): Dropout(p=0.1, inplace=False)
              (prefix_tuning): PrefixTuningShim(
                (prefix_gates): ModuleDict()
                (pool): PrefixTuningPool(
                  (prefix_tunings): ModuleDict()
                )
              )
            )
            (output): BertSelfOutput(
              (dense): Linear(in_features=768, out_features=768, bias=True)
              (LayerNorm): LayerNorm((768,), eps=1e-12, elementwise_affine=True)
              (dropout): Dropout(p=0.1, inplace=False)
              (adapters): ModuleDict()
              (adapter_fusion_layer): ModuleDict()
            )
          )
          (intermediate): BertIntermediate(
            (dense): Linear(
              in_features=768, out_features=3072, bias=True
              (loras): ModuleDict()
            )
            (intermediate_act_fn): GELUActivation()
          )
          (output): BertOutput(
            (dense): Linear(
              in_features=3072, out_features=768, bias=True
              (loras): ModuleDict()
            )
            (LayerNorm): LayerNorm((768,), eps=1e-12, elementwise_affine=True)
            (dropout): Dropout(p=0.1, inplace=False)
            (adapters): ModuleDict(
              (en): Adapter(
                (non_linearity): Activation_Function_Class(
                  (f): ReLU()
                )
                (adapter_down): Sequential(
                  (0): Linear(in_features=768, out_features=384, bias=True)
                  (1): Activation_Function_Class(
                    (f): ReLU()
                  )
                )
                (adapter_up): Linear(in_features=384, out_features=768, bias=True)
              )
              (disrpt): Adapter(
                (non_linearity): Activation_Function_Class(
                  (f): ReLU()
                )
                (adapter_down): Sequential(
                  (0): Linear(in_features=768, out_features=48, bias=True)
                  (1): Activation_Function_Class(
                    (f): ReLU()
                  )
                )
                (adapter_up): Linear(in_features=48, out_features=768, bias=True)
              )
            )
            (adapter_fusion_layer): ModuleDict()
          )
        )
        (1): BertLayer(
          (attention): BertAttention(
            (self): BertSelfAttention(
              (query): Linear(
                in_features=768, out_features=768, bias=True
                (loras): ModuleDict()
              )
              (key): Linear(
                in_features=768, out_features=768, bias=True
                (loras): ModuleDict()
              )
              (value): Linear(
                in_features=768, out_features=768, bias=True
                (loras): ModuleDict()
              )
              (dropout): Dropout(p=0.1, inplace=False)
              (prefix_tuning): PrefixTuningShim(
                (prefix_gates): ModuleDict()
                (pool): PrefixTuningPool(
                  (prefix_tunings): ModuleDict()
                )
              )
            )
            (output): BertSelfOutput(
              (dense): Linear(in_features=768, out_features=768, bias=True)
              (LayerNorm): LayerNorm((768,), eps=1e-12, elementwise_affine=True)
              (dropout): Dropout(p=0.1, inplace=False)
              (adapters): ModuleDict()
              (adapter_fusion_layer): ModuleDict()
            )
          )
          (intermediate): BertIntermediate(
            (dense): Linear(
              in_features=768, out_features=3072, bias=True
              (loras): ModuleDict()
            )
            (intermediate_act_fn): GELUActivation()
          )
          (output): BertOutput(
            (dense): Linear(
              in_features=3072, out_features=768, bias=True
              (loras): ModuleDict()
            )
            (LayerNorm): LayerNorm((768,), eps=1e-12, elementwise_affine=True)
            (dropout): Dropout(p=0.1, inplace=False)
            (adapters): ModuleDict(
              (en): Adapter(
                (non_linearity): Activation_Function_Class(
                  (f): ReLU()
                )
                (adapter_down): Sequential(
                  (0): Linear(in_features=768, out_features=384, bias=True)
                  (1): Activation_Function_Class(
                    (f): ReLU()
                  )
                )
                (adapter_up): Linear(in_features=384, out_features=768, bias=True)
              )
              (disrpt): Adapter(
                (non_linearity): Activation_Function_Class(
                  (f): ReLU()
                )
                (adapter_down): Sequential(
                  (0): Linear(in_features=768, out_features=48, bias=True)
                  (1): Activation_Function_Class(
                    (f): ReLU()
                  )
                )
                (adapter_up): Linear(in_features=48, out_features=768, bias=True)
              )
            )
            (adapter_fusion_layer): ModuleDict()
          )
        )
        (2): BertLayer(
          (attention): BertAttention(
            (self): BertSelfAttention(
              (query): Linear(
                in_features=768, out_features=768, bias=True
                (loras): ModuleDict()
              )
              (key): Linear(
                in_features=768, out_features=768, bias=True
                (loras): ModuleDict()
              )
              (value): Linear(
                in_features=768, out_features=768, bias=True
                (loras): ModuleDict()
              )
              (dropout): Dropout(p=0.1, inplace=False)
              (prefix_tuning): PrefixTuningShim(
                (prefix_gates): ModuleDict()
                (pool): PrefixTuningPool(
                  (prefix_tunings): ModuleDict()
                )
              )
            )
            (output): BertSelfOutput(
              (dense): Linear(in_features=768, out_features=768, bias=True)
              (LayerNorm): LayerNorm((768,), eps=1e-12, elementwise_affine=True)
              (dropout): Dropout(p=0.1, inplace=False)
              (adapters): ModuleDict()
              (adapter_fusion_layer): ModuleDict()
            )
          )
          (intermediate): BertIntermediate(
            (dense): Linear(
              in_features=768, out_features=3072, bias=True
              (loras): ModuleDict()
            )
            (intermediate_act_fn): GELUActivation()
          )
          (output): BertOutput(
            (dense): Linear(
              in_features=3072, out_features=768, bias=True
              (loras): ModuleDict()
            )
            (LayerNorm): LayerNorm((768,), eps=1e-12, elementwise_affine=True)
            (dropout): Dropout(p=0.1, inplace=False)
            (adapters): ModuleDict(
              (en): Adapter(
                (non_linearity): Activation_Function_Class(
                  (f): ReLU()
                )
                (adapter_down): Sequential(
                  (0): Linear(in_features=768, out_features=384, bias=True)
                  (1): Activation_Function_Class(
                    (f): ReLU()
                  )
                )
                (adapter_up): Linear(in_features=384, out_features=768, bias=True)
              )
              (disrpt): Adapter(
                (non_linearity): Activation_Function_Class(
                  (f): ReLU()
                )
                (adapter_down): Sequential(
                  (0): Linear(in_features=768, out_features=48, bias=True)
                  (1): Activation_Function_Class(
                    (f): ReLU()
                  )
                )
                (adapter_up): Linear(in_features=48, out_features=768, bias=True)
              )
            )
            (adapter_fusion_layer): ModuleDict()
          )
        )
        (3): BertLayer(
          (attention): BertAttention(
            (self): BertSelfAttention(
              (query): Linear(
                in_features=768, out_features=768, bias=True
                (loras): ModuleDict()
              )
              (key): Linear(
                in_features=768, out_features=768, bias=True
                (loras): ModuleDict()
              )
              (value): Linear(
                in_features=768, out_features=768, bias=True
                (loras): ModuleDict()
              )
              (dropout): Dropout(p=0.1, inplace=False)
              (prefix_tuning): PrefixTuningShim(
                (prefix_gates): ModuleDict()
                (pool): PrefixTuningPool(
                  (prefix_tunings): ModuleDict()
                )
              )
            )
            (output): BertSelfOutput(
              (dense): Linear(in_features=768, out_features=768, bias=True)
              (LayerNorm): LayerNorm((768,), eps=1e-12, elementwise_affine=True)
              (dropout): Dropout(p=0.1, inplace=False)
              (adapters): ModuleDict()
              (adapter_fusion_layer): ModuleDict()
            )
          )
          (intermediate): BertIntermediate(
            (dense): Linear(
              in_features=768, out_features=3072, bias=True
              (loras): ModuleDict()
            )
            (intermediate_act_fn): GELUActivation()
          )
          (output): BertOutput(
            (dense): Linear(
              in_features=3072, out_features=768, bias=True
              (loras): ModuleDict()
            )
            (LayerNorm): LayerNorm((768,), eps=1e-12, elementwise_affine=True)
            (dropout): Dropout(p=0.1, inplace=False)
            (adapters): ModuleDict(
              (en): Adapter(
                (non_linearity): Activation_Function_Class(
                  (f): ReLU()
                )
                (adapter_down): Sequential(
                  (0): Linear(in_features=768, out_features=384, bias=True)
                  (1): Activation_Function_Class(
                    (f): ReLU()
                  )
                )
                (adapter_up): Linear(in_features=384, out_features=768, bias=True)
              )
              (disrpt): Adapter(
                (non_linearity): Activation_Function_Class(
                  (f): ReLU()
                )
                (adapter_down): Sequential(
                  (0): Linear(in_features=768, out_features=48, bias=True)
                  (1): Activation_Function_Class(
                    (f): ReLU()
                  )
                )
                (adapter_up): Linear(in_features=48, out_features=768, bias=True)
              )
            )
            (adapter_fusion_layer): ModuleDict()
          )
        )
        (4): BertLayer(
          (attention): BertAttention(
            (self): BertSelfAttention(
              (query): Linear(
                in_features=768, out_features=768, bias=True
                (loras): ModuleDict()
              )
              (key): Linear(
                in_features=768, out_features=768, bias=True
                (loras): ModuleDict()
              )
              (value): Linear(
                in_features=768, out_features=768, bias=True
                (loras): ModuleDict()
              )
              (dropout): Dropout(p=0.1, inplace=False)
              (prefix_tuning): PrefixTuningShim(
                (prefix_gates): ModuleDict()
                (pool): PrefixTuningPool(
                  (prefix_tunings): ModuleDict()
                )
              )
            )
            (output): BertSelfOutput(
              (dense): Linear(in_features=768, out_features=768, bias=True)
              (LayerNorm): LayerNorm((768,), eps=1e-12, elementwise_affine=True)
              (dropout): Dropout(p=0.1, inplace=False)
              (adapters): ModuleDict()
              (adapter_fusion_layer): ModuleDict()
            )
          )
          (intermediate): BertIntermediate(
            (dense): Linear(
              in_features=768, out_features=3072, bias=True
              (loras): ModuleDict()
            )
            (intermediate_act_fn): GELUActivation()
          )
          (output): BertOutput(
            (dense): Linear(
              in_features=3072, out_features=768, bias=True
              (loras): ModuleDict()
            )
            (LayerNorm): LayerNorm((768,), eps=1e-12, elementwise_affine=True)
            (dropout): Dropout(p=0.1, inplace=False)
            (adapters): ModuleDict(
              (en): Adapter(
                (non_linearity): Activation_Function_Class(
                  (f): ReLU()
                )
                (adapter_down): Sequential(
                  (0): Linear(in_features=768, out_features=384, bias=True)
                  (1): Activation_Function_Class(
                    (f): ReLU()
                  )
                )
                (adapter_up): Linear(in_features=384, out_features=768, bias=True)
              )
              (disrpt): Adapter(
                (non_linearity): Activation_Function_Class(
                  (f): ReLU()
                )
                (adapter_down): Sequential(
                  (0): Linear(in_features=768, out_features=48, bias=True)
                  (1): Activation_Function_Class(
                    (f): ReLU()
                  )
                )
                (adapter_up): Linear(in_features=48, out_features=768, bias=True)
              )
            )
            (adapter_fusion_layer): ModuleDict()
          )
        )
        (5): BertLayer(
          (attention): BertAttention(
            (self): BertSelfAttention(
              (query): Linear(
                in_features=768, out_features=768, bias=True
                (loras): ModuleDict()
              )
              (key): Linear(
                in_features=768, out_features=768, bias=True
                (loras): ModuleDict()
              )
              (value): Linear(
                in_features=768, out_features=768, bias=True
                (loras): ModuleDict()
              )
              (dropout): Dropout(p=0.1, inplace=False)
              (prefix_tuning): PrefixTuningShim(
                (prefix_gates): ModuleDict()
                (pool): PrefixTuningPool(
                  (prefix_tunings): ModuleDict()
                )
              )
            )
            (output): BertSelfOutput(
              (dense): Linear(in_features=768, out_features=768, bias=True)
              (LayerNorm): LayerNorm((768,), eps=1e-12, elementwise_affine=True)
              (dropout): Dropout(p=0.1, inplace=False)
              (adapters): ModuleDict()
              (adapter_fusion_layer): ModuleDict()
            )
          )
          (intermediate): BertIntermediate(
            (dense): Linear(
              in_features=768, out_features=3072, bias=True
              (loras): ModuleDict()
            )
            (intermediate_act_fn): GELUActivation()
          )
          (output): BertOutput(
            (dense): Linear(
              in_features=3072, out_features=768, bias=True
              (loras): ModuleDict()
            )
            (LayerNorm): LayerNorm((768,), eps=1e-12, elementwise_affine=True)
            (dropout): Dropout(p=0.1, inplace=False)
            (adapters): ModuleDict(
              (en): Adapter(
                (non_linearity): Activation_Function_Class(
                  (f): ReLU()
                )
                (adapter_down): Sequential(
                  (0): Linear(in_features=768, out_features=384, bias=True)
                  (1): Activation_Function_Class(
                    (f): ReLU()
                  )
                )
                (adapter_up): Linear(in_features=384, out_features=768, bias=True)
              )
              (disrpt): Adapter(
                (non_linearity): Activation_Function_Class(
                  (f): ReLU()
                )
                (adapter_down): Sequential(
                  (0): Linear(in_features=768, out_features=48, bias=True)
                  (1): Activation_Function_Class(
                    (f): ReLU()
                  )
                )
                (adapter_up): Linear(in_features=48, out_features=768, bias=True)
              )
            )
            (adapter_fusion_layer): ModuleDict()
          )
        )
        (6): BertLayer(
          (attention): BertAttention(
            (self): BertSelfAttention(
              (query): Linear(
                in_features=768, out_features=768, bias=True
                (loras): ModuleDict()
              )
              (key): Linear(
                in_features=768, out_features=768, bias=True
                (loras): ModuleDict()
              )
              (value): Linear(
                in_features=768, out_features=768, bias=True
                (loras): ModuleDict()
              )
              (dropout): Dropout(p=0.1, inplace=False)
              (prefix_tuning): PrefixTuningShim(
                (prefix_gates): ModuleDict()
                (pool): PrefixTuningPool(
                  (prefix_tunings): ModuleDict()
                )
              )
            )
            (output): BertSelfOutput(
              (dense): Linear(in_features=768, out_features=768, bias=True)
              (LayerNorm): LayerNorm((768,), eps=1e-12, elementwise_affine=True)
              (dropout): Dropout(p=0.1, inplace=False)
              (adapters): ModuleDict()
              (adapter_fusion_layer): ModuleDict()
            )
          )
          (intermediate): BertIntermediate(
            (dense): Linear(
              in_features=768, out_features=3072, bias=True
              (loras): ModuleDict()
            )
            (intermediate_act_fn): GELUActivation()
          )
          (output): BertOutput(
            (dense): Linear(
              in_features=3072, out_features=768, bias=True
              (loras): ModuleDict()
            )
            (LayerNorm): LayerNorm((768,), eps=1e-12, elementwise_affine=True)
            (dropout): Dropout(p=0.1, inplace=False)
            (adapters): ModuleDict(
              (en): Adapter(
                (non_linearity): Activation_Function_Class(
                  (f): ReLU()
                )
                (adapter_down): Sequential(
                  (0): Linear(in_features=768, out_features=384, bias=True)
                  (1): Activation_Function_Class(
                    (f): ReLU()
                  )
                )
                (adapter_up): Linear(in_features=384, out_features=768, bias=True)
              )
              (disrpt): Adapter(
                (non_linearity): Activation_Function_Class(
                  (f): ReLU()
                )
                (adapter_down): Sequential(
                  (0): Linear(in_features=768, out_features=48, bias=True)
                  (1): Activation_Function_Class(
                    (f): ReLU()
                  )
                )
                (adapter_up): Linear(in_features=48, out_features=768, bias=True)
              )
            )
            (adapter_fusion_layer): ModuleDict()
          )
        )
        (7): BertLayer(
          (attention): BertAttention(
            (self): BertSelfAttention(
              (query): Linear(
                in_features=768, out_features=768, bias=True
                (loras): ModuleDict()
              )
              (key): Linear(
                in_features=768, out_features=768, bias=True
                (loras): ModuleDict()
              )
              (value): Linear(
                in_features=768, out_features=768, bias=True
                (loras): ModuleDict()
              )
              (dropout): Dropout(p=0.1, inplace=False)
              (prefix_tuning): PrefixTuningShim(
                (prefix_gates): ModuleDict()
                (pool): PrefixTuningPool(
                  (prefix_tunings): ModuleDict()
                )
              )
            )
            (output): BertSelfOutput(
              (dense): Linear(in_features=768, out_features=768, bias=True)
              (LayerNorm): LayerNorm((768,), eps=1e-12, elementwise_affine=True)
              (dropout): Dropout(p=0.1, inplace=False)
              (adapters): ModuleDict()
              (adapter_fusion_layer): ModuleDict()
            )
          )
          (intermediate): BertIntermediate(
            (dense): Linear(
              in_features=768, out_features=3072, bias=True
              (loras): ModuleDict()
            )
            (intermediate_act_fn): GELUActivation()
          )
          (output): BertOutput(
            (dense): Linear(
              in_features=3072, out_features=768, bias=True
              (loras): ModuleDict()
            )
            (LayerNorm): LayerNorm((768,), eps=1e-12, elementwise_affine=True)
            (dropout): Dropout(p=0.1, inplace=False)
            (adapters): ModuleDict(
              (en): Adapter(
                (non_linearity): Activation_Function_Class(
                  (f): ReLU()
                )
                (adapter_down): Sequential(
                  (0): Linear(in_features=768, out_features=384, bias=True)
                  (1): Activation_Function_Class(
                    (f): ReLU()
                  )
                )
                (adapter_up): Linear(in_features=384, out_features=768, bias=True)
              )
              (disrpt): Adapter(
                (non_linearity): Activation_Function_Class(
                  (f): ReLU()
                )
                (adapter_down): Sequential(
                  (0): Linear(in_features=768, out_features=48, bias=True)
                  (1): Activation_Function_Class(
                    (f): ReLU()
                  )
                )
                (adapter_up): Linear(in_features=48, out_features=768, bias=True)
              )
            )
            (adapter_fusion_layer): ModuleDict()
          )
        )
        (8): BertLayer(
          (attention): BertAttention(
            (self): BertSelfAttention(
              (query): Linear(
                in_features=768, out_features=768, bias=True
                (loras): ModuleDict()
              )
              (key): Linear(
                in_features=768, out_features=768, bias=True
                (loras): ModuleDict()
              )
              (value): Linear(
                in_features=768, out_features=768, bias=True
                (loras): ModuleDict()
              )
              (dropout): Dropout(p=0.1, inplace=False)
              (prefix_tuning): PrefixTuningShim(
                (prefix_gates): ModuleDict()
                (pool): PrefixTuningPool(
                  (prefix_tunings): ModuleDict()
                )
              )
            )
            (output): BertSelfOutput(
              (dense): Linear(in_features=768, out_features=768, bias=True)
              (LayerNorm): LayerNorm((768,), eps=1e-12, elementwise_affine=True)
              (dropout): Dropout(p=0.1, inplace=False)
              (adapters): ModuleDict()
              (adapter_fusion_layer): ModuleDict()
            )
          )
          (intermediate): BertIntermediate(
            (dense): Linear(
              in_features=768, out_features=3072, bias=True
              (loras): ModuleDict()
            )
            (intermediate_act_fn): GELUActivation()
          )
          (output): BertOutput(
            (dense): Linear(
              in_features=3072, out_features=768, bias=True
              (loras): ModuleDict()
            )
            (LayerNorm): LayerNorm((768,), eps=1e-12, elementwise_affine=True)
            (dropout): Dropout(p=0.1, inplace=False)
            (adapters): ModuleDict(
              (en): Adapter(
                (non_linearity): Activation_Function_Class(
                  (f): ReLU()
                )
                (adapter_down): Sequential(
                  (0): Linear(in_features=768, out_features=384, bias=True)
                  (1): Activation_Function_Class(
                    (f): ReLU()
                  )
                )
                (adapter_up): Linear(in_features=384, out_features=768, bias=True)
              )
              (disrpt): Adapter(
                (non_linearity): Activation_Function_Class(
                  (f): ReLU()
                )
                (adapter_down): Sequential(
                  (0): Linear(in_features=768, out_features=48, bias=True)
                  (1): Activation_Function_Class(
                    (f): ReLU()
                  )
                )
                (adapter_up): Linear(in_features=48, out_features=768, bias=True)
              )
            )
            (adapter_fusion_layer): ModuleDict()
          )
        )
        (9): BertLayer(
          (attention): BertAttention(
            (self): BertSelfAttention(
              (query): Linear(
                in_features=768, out_features=768, bias=True
                (loras): ModuleDict()
              )
              (key): Linear(
                in_features=768, out_features=768, bias=True
                (loras): ModuleDict()
              )
              (value): Linear(
                in_features=768, out_features=768, bias=True
                (loras): ModuleDict()
              )
              (dropout): Dropout(p=0.1, inplace=False)
              (prefix_tuning): PrefixTuningShim(
                (prefix_gates): ModuleDict()
                (pool): PrefixTuningPool(
                  (prefix_tunings): ModuleDict()
                )
              )
            )
            (output): BertSelfOutput(
              (dense): Linear(in_features=768, out_features=768, bias=True)
              (LayerNorm): LayerNorm((768,), eps=1e-12, elementwise_affine=True)
              (dropout): Dropout(p=0.1, inplace=False)
              (adapters): ModuleDict()
              (adapter_fusion_layer): ModuleDict()
            )
          )
          (intermediate): BertIntermediate(
            (dense): Linear(
              in_features=768, out_features=3072, bias=True
              (loras): ModuleDict()
            )
            (intermediate_act_fn): GELUActivation()
          )
          (output): BertOutput(
            (dense): Linear(
              in_features=3072, out_features=768, bias=True
              (loras): ModuleDict()
            )
            (LayerNorm): LayerNorm((768,), eps=1e-12, elementwise_affine=True)
            (dropout): Dropout(p=0.1, inplace=False)
            (adapters): ModuleDict(
              (en): Adapter(
                (non_linearity): Activation_Function_Class(
                  (f): ReLU()
                )
                (adapter_down): Sequential(
                  (0): Linear(in_features=768, out_features=384, bias=True)
                  (1): Activation_Function_Class(
                    (f): ReLU()
                  )
                )
                (adapter_up): Linear(in_features=384, out_features=768, bias=True)
              )
              (disrpt): Adapter(
                (non_linearity): Activation_Function_Class(
                  (f): ReLU()
                )
                (adapter_down): Sequential(
                  (0): Linear(in_features=768, out_features=48, bias=True)
                  (1): Activation_Function_Class(
                    (f): ReLU()
                  )
                )
                (adapter_up): Linear(in_features=48, out_features=768, bias=True)
              )
            )
            (adapter_fusion_layer): ModuleDict()
          )
        )
        (10): BertLayer(
          (attention): BertAttention(
            (self): BertSelfAttention(
              (query): Linear(
                in_features=768, out_features=768, bias=True
                (loras): ModuleDict()
              )
              (key): Linear(
                in_features=768, out_features=768, bias=True
                (loras): ModuleDict()
              )
              (value): Linear(
                in_features=768, out_features=768, bias=True
                (loras): ModuleDict()
              )
              (dropout): Dropout(p=0.1, inplace=False)
              (prefix_tuning): PrefixTuningShim(
                (prefix_gates): ModuleDict()
                (pool): PrefixTuningPool(
                  (prefix_tunings): ModuleDict()
                )
              )
            )
            (output): BertSelfOutput(
              (dense): Linear(in_features=768, out_features=768, bias=True)
              (LayerNorm): LayerNorm((768,), eps=1e-12, elementwise_affine=True)
              (dropout): Dropout(p=0.1, inplace=False)
              (adapters): ModuleDict()
              (adapter_fusion_layer): ModuleDict()
            )
          )
          (intermediate): BertIntermediate(
            (dense): Linear(
              in_features=768, out_features=3072, bias=True
              (loras): ModuleDict()
            )
            (intermediate_act_fn): GELUActivation()
          )
          (output): BertOutput(
            (dense): Linear(
              in_features=3072, out_features=768, bias=True
              (loras): ModuleDict()
            )
            (LayerNorm): LayerNorm((768,), eps=1e-12, elementwise_affine=True)
            (dropout): Dropout(p=0.1, inplace=False)
            (adapters): ModuleDict(
              (en): Adapter(
                (non_linearity): Activation_Function_Class(
                  (f): ReLU()
                )
                (adapter_down): Sequential(
                  (0): Linear(in_features=768, out_features=384, bias=True)
                  (1): Activation_Function_Class(
                    (f): ReLU()
                  )
                )
                (adapter_up): Linear(in_features=384, out_features=768, bias=True)
              )
              (disrpt): Adapter(
                (non_linearity): Activation_Function_Class(
                  (f): ReLU()
                )
                (adapter_down): Sequential(
                  (0): Linear(in_features=768, out_features=48, bias=True)
                  (1): Activation_Function_Class(
                    (f): ReLU()
                  )
                )
                (adapter_up): Linear(in_features=48, out_features=768, bias=True)
              )
            )
            (adapter_fusion_layer): ModuleDict()
          )
        )
        (11): BertLayer(
          (attention): BertAttention(
            (self): BertSelfAttention(
              (query): Linear(
                in_features=768, out_features=768, bias=True
                (loras): ModuleDict()
              )
              (key): Linear(
                in_features=768, out_features=768, bias=True
                (loras): ModuleDict()
              )
              (value): Linear(
                in_features=768, out_features=768, bias=True
                (loras): ModuleDict()
              )
              (dropout): Dropout(p=0.1, inplace=False)
              (prefix_tuning): PrefixTuningShim(
                (prefix_gates): ModuleDict()
                (pool): PrefixTuningPool(
                  (prefix_tunings): ModuleDict()
                )
              )
            )
            (output): BertSelfOutput(
              (dense): Linear(in_features=768, out_features=768, bias=True)
              (LayerNorm): LayerNorm((768,), eps=1e-12, elementwise_affine=True)
              (dropout): Dropout(p=0.1, inplace=False)
              (adapters): ModuleDict()
              (adapter_fusion_layer): ModuleDict()
            )
          )
          (intermediate): BertIntermediate(
            (dense): Linear(
              in_features=768, out_features=3072, bias=True
              (loras): ModuleDict()
            )
            (intermediate_act_fn): GELUActivation()
          )
          (output): BertOutput(
            (dense): Linear(
              in_features=3072, out_features=768, bias=True
              (loras): ModuleDict()
            )
            (LayerNorm): LayerNorm((768,), eps=1e-12, elementwise_affine=True)
            (dropout): Dropout(p=0.1, inplace=False)
            (adapters): ModuleDict(
              (en): Adapter(
                (non_linearity): Activation_Function_Class(
                  (f): ReLU()
                )
                (adapter_down): Sequential(
                  (0): Linear(in_features=768, out_features=384, bias=True)
                  (1): Activation_Function_Class(
                    (f): ReLU()
                  )
                )
                (adapter_up): Linear(in_features=384, out_features=768, bias=True)
              )
              (disrpt): Adapter(
                (non_linearity): Activation_Function_Class(
                  (f): ReLU()
                )
                (adapter_down): Sequential(
                  (0): Linear(in_features=768, out_features=48, bias=True)
                  (1): Activation_Function_Class(
                    (f): ReLU()
                  )
                )
                (adapter_up): Linear(in_features=48, out_features=768, bias=True)
              )
            )
            (adapter_fusion_layer): ModuleDict()
          )
        )
      )
    )
    (pooler): BertPooler(
      (dense): Linear(in_features=768, out_features=768, bias=True)
      (activation): Tanh()
    )
    (prefix_tuning): PrefixTuningPool(
      (prefix_tunings): ModuleDict()
    )
  )
  (heads): ModuleDict(
    (disrpt): ClassificationHead(
      (0): Dropout(p=0.1, inplace=False)
      (1): Linear(in_features=768, out_features=768, bias=True)
      (2): Activation_Function_Class(
        (f): Tanh()
      )
      (3): Dropout(p=0.1, inplace=False)
      (4): Linear(in_features=768, out_features=32, bias=True)
    )
  )
)
{'train@eng.rst.rstdt_loss': 1.764591932296753, 'train@eng.rst.rstdt_accuracy@eng.rst.rstdt': 0.5069991251093613, 'train@eng.rst.rstdt_f1@eng.rst.rstdt': 0.08243700316032554, 'train@eng.rst.rstdt_precision@eng.rst.rstdt': 0.0701875434595459, 'train@eng.rst.rstdt_recall@eng.rst.rstdt': 0.10927607802221889, 'train@eng.rst.rstdt_loss@eng.rst.rstdt': 1.7645920515060425, 'train@eng.rst.rstdt_runtime': 188.1902, 'train@eng.rst.rstdt_samples_per_second': 85.031, 'train@eng.rst.rstdt_steps_per_second': 2.662, 'epoch': 1.0}
…
Lang1:  eng.sdrt.stac    Lang2:  eng.rst.gum
Saving run to:  runs/full_shot/FullShot=v4_eng.sdrt.stac_eng.rst.gum_lrfunc=Adafactor_lr=2e-05_plm=bert-base-multilingual-cased
Running with params: BERT_MODEL=bert-base-multilingual-cased lr=2e-05
read 9580 examples
read 1145 examples
read 1510 examples
read 13897 examples
read 2149 examples
read 2091 examples
Total prediction labels:  39
BertAdapterModel(
  (shared_parameters): ModuleDict()
  (bert): BertModel(
    (shared_parameters): ModuleDict()
    (invertible_adapters): ModuleDict(
      (en): NICECouplingBlock(
        (F): Sequential(
          (0): Linear(in_features=384, out_features=192, bias=True)
          (1): Activation_Function_Class(
            (f): ReLU()
          )
          (2): Linear(in_features=192, out_features=384, bias=True)
        )
        (G): Sequential(
          (0): Linear(in_features=384, out_features=192, bias=True)
          (1): Activation_Function_Class(
            (f): ReLU()
          )
          (2): Linear(in_features=192, out_features=384, bias=True)
        )
      )
    )
    (embeddings): BertEmbeddings(
      (word_embeddings): Embedding(119547, 768, padding_idx=0)
      (position_embeddings): Embedding(512, 768)
      (token_type_embeddings): Embedding(2, 768)
      (LayerNorm): LayerNorm((768,), eps=1e-12, elementwise_affine=True)
      (dropout): Dropout(p=0.1, inplace=False)
    )
    (encoder): BertEncoder(
      (layer): ModuleList(
        (0): BertLayer(
          (attention): BertAttention(
            (self): BertSelfAttention(
              (query): Linear(
                in_features=768, out_features=768, bias=True
                (loras): ModuleDict()
              )
              (key): Linear(
                in_features=768, out_features=768, bias=True
                (loras): ModuleDict()
              )
              (value): Linear(
                in_features=768, out_features=768, bias=True
                (loras): ModuleDict()
              )
              (dropout): Dropout(p=0.1, inplace=False)
              (prefix_tuning): PrefixTuningShim(
                (prefix_gates): ModuleDict()
                (pool): PrefixTuningPool(
                  (prefix_tunings): ModuleDict()
                )
              )
            )
            (output): BertSelfOutput(
              (dense): Linear(in_features=768, out_features=768, bias=True)
              (LayerNorm): LayerNorm((768,), eps=1e-12, elementwise_affine=True)
              (dropout): Dropout(p=0.1, inplace=False)
              (adapters): ModuleDict()
              (adapter_fusion_layer): ModuleDict()
            )
          )
          (intermediate): BertIntermediate(
            (dense): Linear(
              in_features=768, out_features=3072, bias=True
              (loras): ModuleDict()
            )
            (intermediate_act_fn): GELUActivation()
          )
          (output): BertOutput(
            (dense): Linear(
              in_features=3072, out_features=768, bias=True
              (loras): ModuleDict()
            )
            (LayerNorm): LayerNorm((768,), eps=1e-12, elementwise_affine=True)
            (dropout): Dropout(p=0.1, inplace=False)
            (adapters): ModuleDict(
              (en): Adapter(
                (non_linearity): Activation_Function_Class(
                  (f): ReLU()
                )
                (adapter_down): Sequential(
                  (0): Linear(in_features=768, out_features=384, bias=True)
                  (1): Activation_Function_Class(
                    (f): ReLU()
                  )
                )
                (adapter_up): Linear(in_features=384, out_features=768, bias=True)
              )
              (disrpt): Adapter(
                (non_linearity): Activation_Function_Class(
                  (f): ReLU()
                )
                (adapter_down): Sequential(
                  (0): Linear(in_features=768, out_features=48, bias=True)
                  (1): Activation_Function_Class(
                    (f): ReLU()
                  )
                )
                (adapter_up): Linear(in_features=48, out_features=768, bias=True)
              )
            )
            (adapter_fusion_layer): ModuleDict()
          )
        )
        (1): BertLayer(
          (attention): BertAttention(
            (self): BertSelfAttention(
              (query): Linear(
                in_features=768, out_features=768, bias=True
                (loras): ModuleDict()
              )
              (key): Linear(
                in_features=768, out_features=768, bias=True
                (loras): ModuleDict()
              )
              (value): Linear(
                in_features=768, out_features=768, bias=True
                (loras): ModuleDict()
              )
              (dropout): Dropout(p=0.1, inplace=False)
              (prefix_tuning): PrefixTuningShim(
                (prefix_gates): ModuleDict()
                (pool): PrefixTuningPool(
                  (prefix_tunings): ModuleDict()
                )
              )
            )
            (output): BertSelfOutput(
              (dense): Linear(in_features=768, out_features=768, bias=True)
              (LayerNorm): LayerNorm((768,), eps=1e-12, elementwise_affine=True)
              (dropout): Dropout(p=0.1, inplace=False)
              (adapters): ModuleDict()
              (adapter_fusion_layer): ModuleDict()
            )
          )
          (intermediate): BertIntermediate(
            (dense): Linear(
              in_features=768, out_features=3072, bias=True
              (loras): ModuleDict()
            )
            (intermediate_act_fn): GELUActivation()
          )
          (output): BertOutput(
            (dense): Linear(
              in_features=3072, out_features=768, bias=True
              (loras): ModuleDict()
            )
            (LayerNorm): LayerNorm((768,), eps=1e-12, elementwise_affine=True)
            (dropout): Dropout(p=0.1, inplace=False)
            (adapters): ModuleDict(
              (en): Adapter(
                (non_linearity): Activation_Function_Class(
                  (f): ReLU()
                )
                (adapter_down): Sequential(
                  (0): Linear(in_features=768, out_features=384, bias=True)
                  (1): Activation_Function_Class(
                    (f): ReLU()
                  )
                )
                (adapter_up): Linear(in_features=384, out_features=768, bias=True)
              )
              (disrpt): Adapter(
                (non_linearity): Activation_Function_Class(
                  (f): ReLU()
                )
                (adapter_down): Sequential(
                  (0): Linear(in_features=768, out_features=48, bias=True)
                  (1): Activation_Function_Class(
                    (f): ReLU()
                  )
                )
                (adapter_up): Linear(in_features=48, out_features=768, bias=True)
              )
            )
            (adapter_fusion_layer): ModuleDict()
          )
        )
        (2): BertLayer(
          (attention): BertAttention(
            (self): BertSelfAttention(
              (query): Linear(
                in_features=768, out_features=768, bias=True
                (loras): ModuleDict()
              )
              (key): Linear(
                in_features=768, out_features=768, bias=True
                (loras): ModuleDict()
              )
              (value): Linear(
                in_features=768, out_features=768, bias=True
                (loras): ModuleDict()
              )
              (dropout): Dropout(p=0.1, inplace=False)
              (prefix_tuning): PrefixTuningShim(
                (prefix_gates): ModuleDict()
                (pool): PrefixTuningPool(
                  (prefix_tunings): ModuleDict()
                )
              )
            )
            (output): BertSelfOutput(
              (dense): Linear(in_features=768, out_features=768, bias=True)
              (LayerNorm): LayerNorm((768,), eps=1e-12, elementwise_affine=True)
              (dropout): Dropout(p=0.1, inplace=False)
              (adapters): ModuleDict()
              (adapter_fusion_layer): ModuleDict()
            )
          )
          (intermediate): BertIntermediate(
            (dense): Linear(
              in_features=768, out_features=3072, bias=True
              (loras): ModuleDict()
            )
            (intermediate_act_fn): GELUActivation()
          )
          (output): BertOutput(
            (dense): Linear(
              in_features=3072, out_features=768, bias=True
              (loras): ModuleDict()
            )
            (LayerNorm): LayerNorm((768,), eps=1e-12, elementwise_affine=True)
            (dropout): Dropout(p=0.1, inplace=False)
            (adapters): ModuleDict(
              (en): Adapter(
                (non_linearity): Activation_Function_Class(
                  (f): ReLU()
                )
                (adapter_down): Sequential(
                  (0): Linear(in_features=768, out_features=384, bias=True)
                  (1): Activation_Function_Class(
                    (f): ReLU()
                  )
                )
                (adapter_up): Linear(in_features=384, out_features=768, bias=True)
              )
              (disrpt): Adapter(
                (non_linearity): Activation_Function_Class(
                  (f): ReLU()
                )
                (adapter_down): Sequential(
                  (0): Linear(in_features=768, out_features=48, bias=True)
                  (1): Activation_Function_Class(
                    (f): ReLU()
                  )
                )
                (adapter_up): Linear(in_features=48, out_features=768, bias=True)
              )
            )
            (adapter_fusion_layer): ModuleDict()
          )
        )
        (3): BertLayer(
          (attention): BertAttention(
            (self): BertSelfAttention(
              (query): Linear(
                in_features=768, out_features=768, bias=True
                (loras): ModuleDict()
              )
              (key): Linear(
                in_features=768, out_features=768, bias=True
                (loras): ModuleDict()
              )
              (value): Linear(
                in_features=768, out_features=768, bias=True
                (loras): ModuleDict()
              )
              (dropout): Dropout(p=0.1, inplace=False)
              (prefix_tuning): PrefixTuningShim(
                (prefix_gates): ModuleDict()
                (pool): PrefixTuningPool(
                  (prefix_tunings): ModuleDict()
                )
              )
            )
            (output): BertSelfOutput(
              (dense): Linear(in_features=768, out_features=768, bias=True)
              (LayerNorm): LayerNorm((768,), eps=1e-12, elementwise_affine=True)
              (dropout): Dropout(p=0.1, inplace=False)
              (adapters): ModuleDict()
              (adapter_fusion_layer): ModuleDict()
            )
          )
          (intermediate): BertIntermediate(
            (dense): Linear(
              in_features=768, out_features=3072, bias=True
              (loras): ModuleDict()
            )
            (intermediate_act_fn): GELUActivation()
          )
          (output): BertOutput(
            (dense): Linear(
              in_features=3072, out_features=768, bias=True
              (loras): ModuleDict()
            )
            (LayerNorm): LayerNorm((768,), eps=1e-12, elementwise_affine=True)
            (dropout): Dropout(p=0.1, inplace=False)
            (adapters): ModuleDict(
              (en): Adapter(
                (non_linearity): Activation_Function_Class(
                  (f): ReLU()
                )
                (adapter_down): Sequential(
                  (0): Linear(in_features=768, out_features=384, bias=True)
                  (1): Activation_Function_Class(
                    (f): ReLU()
                  )
                )
                (adapter_up): Linear(in_features=384, out_features=768, bias=True)
              )
              (disrpt): Adapter(
                (non_linearity): Activation_Function_Class(
                  (f): ReLU()
                )
                (adapter_down): Sequential(
                  (0): Linear(in_features=768, out_features=48, bias=True)
                  (1): Activation_Function_Class(
                    (f): ReLU()
                  )
                )
                (adapter_up): Linear(in_features=48, out_features=768, bias=True)
              )
            )
            (adapter_fusion_layer): ModuleDict()
          )
        )
        (4): BertLayer(
          (attention): BertAttention(
            (self): BertSelfAttention(
              (query): Linear(
                in_features=768, out_features=768, bias=True
                (loras): ModuleDict()
              )
              (key): Linear(
                in_features=768, out_features=768, bias=True
                (loras): ModuleDict()
              )
              (value): Linear(
                in_features=768, out_features=768, bias=True
                (loras): ModuleDict()
              )
              (dropout): Dropout(p=0.1, inplace=False)
              (prefix_tuning): PrefixTuningShim(
                (prefix_gates): ModuleDict()
                (pool): PrefixTuningPool(
                  (prefix_tunings): ModuleDict()
                )
              )
            )
            (output): BertSelfOutput(
              (dense): Linear(in_features=768, out_features=768, bias=True)
              (LayerNorm): LayerNorm((768,), eps=1e-12, elementwise_affine=True)
              (dropout): Dropout(p=0.1, inplace=False)
              (adapters): ModuleDict()
              (adapter_fusion_layer): ModuleDict()
            )
          )
          (intermediate): BertIntermediate(
            (dense): Linear(
              in_features=768, out_features=3072, bias=True
              (loras): ModuleDict()
            )
            (intermediate_act_fn): GELUActivation()
          )
          (output): BertOutput(
            (dense): Linear(
              in_features=3072, out_features=768, bias=True
              (loras): ModuleDict()
            )
            (LayerNorm): LayerNorm((768,), eps=1e-12, elementwise_affine=True)
            (dropout): Dropout(p=0.1, inplace=False)
            (adapters): ModuleDict(
              (en): Adapter(
                (non_linearity): Activation_Function_Class(
                  (f): ReLU()
                )
                (adapter_down): Sequential(
                  (0): Linear(in_features=768, out_features=384, bias=True)
                  (1): Activation_Function_Class(
                    (f): ReLU()
                  )
                )
                (adapter_up): Linear(in_features=384, out_features=768, bias=True)
              )
              (disrpt): Adapter(
                (non_linearity): Activation_Function_Class(
                  (f): ReLU()
                )
                (adapter_down): Sequential(
                  (0): Linear(in_features=768, out_features=48, bias=True)
                  (1): Activation_Function_Class(
                    (f): ReLU()
                  )
                )
                (adapter_up): Linear(in_features=48, out_features=768, bias=True)
              )
            )
            (adapter_fusion_layer): ModuleDict()
          )
        )
        (5): BertLayer(
          (attention): BertAttention(
            (self): BertSelfAttention(
              (query): Linear(
                in_features=768, out_features=768, bias=True
                (loras): ModuleDict()
              )
              (key): Linear(
                in_features=768, out_features=768, bias=True
                (loras): ModuleDict()
              )
              (value): Linear(
                in_features=768, out_features=768, bias=True
                (loras): ModuleDict()
              )
              (dropout): Dropout(p=0.1, inplace=False)
              (prefix_tuning): PrefixTuningShim(
                (prefix_gates): ModuleDict()
                (pool): PrefixTuningPool(
                  (prefix_tunings): ModuleDict()
                )
              )
            )
            (output): BertSelfOutput(
              (dense): Linear(in_features=768, out_features=768, bias=True)
              (LayerNorm): LayerNorm((768,), eps=1e-12, elementwise_affine=True)
              (dropout): Dropout(p=0.1, inplace=False)
              (adapters): ModuleDict()
              (adapter_fusion_layer): ModuleDict()
            )
          )
          (intermediate): BertIntermediate(
            (dense): Linear(
              in_features=768, out_features=3072, bias=True
              (loras): ModuleDict()
            )
            (intermediate_act_fn): GELUActivation()
          )
          (output): BertOutput(
            (dense): Linear(
              in_features=3072, out_features=768, bias=True
              (loras): ModuleDict()
            )
            (LayerNorm): LayerNorm((768,), eps=1e-12, elementwise_affine=True)
            (dropout): Dropout(p=0.1, inplace=False)
            (adapters): ModuleDict(
              (en): Adapter(
                (non_linearity): Activation_Function_Class(
                  (f): ReLU()
                )
                (adapter_down): Sequential(
                  (0): Linear(in_features=768, out_features=384, bias=True)
                  (1): Activation_Function_Class(
                    (f): ReLU()
                  )
                )
                (adapter_up): Linear(in_features=384, out_features=768, bias=True)
              )
              (disrpt): Adapter(
                (non_linearity): Activation_Function_Class(
                  (f): ReLU()
                )
                (adapter_down): Sequential(
                  (0): Linear(in_features=768, out_features=48, bias=True)
                  (1): Activation_Function_Class(
                    (f): ReLU()
                  )
                )
                (adapter_up): Linear(in_features=48, out_features=768, bias=True)
              )
            )
            (adapter_fusion_layer): ModuleDict()
          )
        )
        (6): BertLayer(
          (attention): BertAttention(
            (self): BertSelfAttention(
              (query): Linear(
                in_features=768, out_features=768, bias=True
                (loras): ModuleDict()
              )
              (key): Linear(
                in_features=768, out_features=768, bias=True
                (loras): ModuleDict()
              )
              (value): Linear(
                in_features=768, out_features=768, bias=True
                (loras): ModuleDict()
              )
              (dropout): Dropout(p=0.1, inplace=False)
              (prefix_tuning): PrefixTuningShim(
                (prefix_gates): ModuleDict()
                (pool): PrefixTuningPool(
                  (prefix_tunings): ModuleDict()
                )
              )
            )
            (output): BertSelfOutput(
              (dense): Linear(in_features=768, out_features=768, bias=True)
              (LayerNorm): LayerNorm((768,), eps=1e-12, elementwise_affine=True)
              (dropout): Dropout(p=0.1, inplace=False)
              (adapters): ModuleDict()
              (adapter_fusion_layer): ModuleDict()
            )
          )
          (intermediate): BertIntermediate(
            (dense): Linear(
              in_features=768, out_features=3072, bias=True
              (loras): ModuleDict()
            )
            (intermediate_act_fn): GELUActivation()
          )
          (output): BertOutput(
            (dense): Linear(
              in_features=3072, out_features=768, bias=True
              (loras): ModuleDict()
            )
            (LayerNorm): LayerNorm((768,), eps=1e-12, elementwise_affine=True)
            (dropout): Dropout(p=0.1, inplace=False)
            (adapters): ModuleDict(
              (en): Adapter(
                (non_linearity): Activation_Function_Class(
                  (f): ReLU()
                )
                (adapter_down): Sequential(
                  (0): Linear(in_features=768, out_features=384, bias=True)
                  (1): Activation_Function_Class(
                    (f): ReLU()
                  )
                )
                (adapter_up): Linear(in_features=384, out_features=768, bias=True)
              )
              (disrpt): Adapter(
                (non_linearity): Activation_Function_Class(
                  (f): ReLU()
                )
                (adapter_down): Sequential(
                  (0): Linear(in_features=768, out_features=48, bias=True)
                  (1): Activation_Function_Class(
                    (f): ReLU()
                  )
                )
                (adapter_up): Linear(in_features=48, out_features=768, bias=True)
              )
            )
            (adapter_fusion_layer): ModuleDict()
          )
        )
        (7): BertLayer(
          (attention): BertAttention(
            (self): BertSelfAttention(
              (query): Linear(
                in_features=768, out_features=768, bias=True
                (loras): ModuleDict()
              )
              (key): Linear(
                in_features=768, out_features=768, bias=True
                (loras): ModuleDict()
              )
              (value): Linear(
                in_features=768, out_features=768, bias=True
                (loras): ModuleDict()
              )
              (dropout): Dropout(p=0.1, inplace=False)
              (prefix_tuning): PrefixTuningShim(
                (prefix_gates): ModuleDict()
                (pool): PrefixTuningPool(
                  (prefix_tunings): ModuleDict()
                )
              )
            )
            (output): BertSelfOutput(
              (dense): Linear(in_features=768, out_features=768, bias=True)
              (LayerNorm): LayerNorm((768,), eps=1e-12, elementwise_affine=True)
              (dropout): Dropout(p=0.1, inplace=False)
              (adapters): ModuleDict()
              (adapter_fusion_layer): ModuleDict()
            )
          )
          (intermediate): BertIntermediate(
            (dense): Linear(
              in_features=768, out_features=3072, bias=True
              (loras): ModuleDict()
            )
            (intermediate_act_fn): GELUActivation()
          )
          (output): BertOutput(
            (dense): Linear(
              in_features=3072, out_features=768, bias=True
              (loras): ModuleDict()
            )
            (LayerNorm): LayerNorm((768,), eps=1e-12, elementwise_affine=True)
            (dropout): Dropout(p=0.1, inplace=False)
            (adapters): ModuleDict(
              (en): Adapter(
                (non_linearity): Activation_Function_Class(
                  (f): ReLU()
                )
                (adapter_down): Sequential(
                  (0): Linear(in_features=768, out_features=384, bias=True)
                  (1): Activation_Function_Class(
                    (f): ReLU()
                  )
                )
                (adapter_up): Linear(in_features=384, out_features=768, bias=True)
              )
              (disrpt): Adapter(
                (non_linearity): Activation_Function_Class(
                  (f): ReLU()
                )
                (adapter_down): Sequential(
                  (0): Linear(in_features=768, out_features=48, bias=True)
                  (1): Activation_Function_Class(
                    (f): ReLU()
                  )
                )
                (adapter_up): Linear(in_features=48, out_features=768, bias=True)
              )
            )
            (adapter_fusion_layer): ModuleDict()
          )
        )
        (8): BertLayer(
          (attention): BertAttention(
            (self): BertSelfAttention(
              (query): Linear(
                in_features=768, out_features=768, bias=True
                (loras): ModuleDict()
              )
              (key): Linear(
                in_features=768, out_features=768, bias=True
                (loras): ModuleDict()
              )
              (value): Linear(
                in_features=768, out_features=768, bias=True
                (loras): ModuleDict()
              )
              (dropout): Dropout(p=0.1, inplace=False)
              (prefix_tuning): PrefixTuningShim(
                (prefix_gates): ModuleDict()
                (pool): PrefixTuningPool(
                  (prefix_tunings): ModuleDict()
                )
              )
            )
            (output): BertSelfOutput(
              (dense): Linear(in_features=768, out_features=768, bias=True)
              (LayerNorm): LayerNorm((768,), eps=1e-12, elementwise_affine=True)
              (dropout): Dropout(p=0.1, inplace=False)
              (adapters): ModuleDict()
              (adapter_fusion_layer): ModuleDict()
            )
          )
          (intermediate): BertIntermediate(
            (dense): Linear(
              in_features=768, out_features=3072, bias=True
              (loras): ModuleDict()
            )
            (intermediate_act_fn): GELUActivation()
          )
          (output): BertOutput(
            (dense): Linear(
              in_features=3072, out_features=768, bias=True
              (loras): ModuleDict()
            )
            (LayerNorm): LayerNorm((768,), eps=1e-12, elementwise_affine=True)
            (dropout): Dropout(p=0.1, inplace=False)
            (adapters): ModuleDict(
              (en): Adapter(
                (non_linearity): Activation_Function_Class(
                  (f): ReLU()
                )
                (adapter_down): Sequential(
                  (0): Linear(in_features=768, out_features=384, bias=True)
                  (1): Activation_Function_Class(
                    (f): ReLU()
                  )
                )
                (adapter_up): Linear(in_features=384, out_features=768, bias=True)
              )
              (disrpt): Adapter(
                (non_linearity): Activation_Function_Class(
                  (f): ReLU()
                )
                (adapter_down): Sequential(
                  (0): Linear(in_features=768, out_features=48, bias=True)
                  (1): Activation_Function_Class(
                    (f): ReLU()
                  )
                )
                (adapter_up): Linear(in_features=48, out_features=768, bias=True)
              )
            )
            (adapter_fusion_layer): ModuleDict()
          )
        )
        (9): BertLayer(
          (attention): BertAttention(
            (self): BertSelfAttention(
              (query): Linear(
                in_features=768, out_features=768, bias=True
                (loras): ModuleDict()
              )
              (key): Linear(
                in_features=768, out_features=768, bias=True
                (loras): ModuleDict()
              )
              (value): Linear(
                in_features=768, out_features=768, bias=True
                (loras): ModuleDict()
              )
              (dropout): Dropout(p=0.1, inplace=False)
              (prefix_tuning): PrefixTuningShim(
                (prefix_gates): ModuleDict()
                (pool): PrefixTuningPool(
                  (prefix_tunings): ModuleDict()
                )
              )
            )
            (output): BertSelfOutput(
              (dense): Linear(in_features=768, out_features=768, bias=True)
              (LayerNorm): LayerNorm((768,), eps=1e-12, elementwise_affine=True)
              (dropout): Dropout(p=0.1, inplace=False)
              (adapters): ModuleDict()
              (adapter_fusion_layer): ModuleDict()
            )
          )
          (intermediate): BertIntermediate(
            (dense): Linear(
              in_features=768, out_features=3072, bias=True
              (loras): ModuleDict()
            )
            (intermediate_act_fn): GELUActivation()
          )
          (output): BertOutput(
            (dense): Linear(
              in_features=3072, out_features=768, bias=True
              (loras): ModuleDict()
            )
            (LayerNorm): LayerNorm((768,), eps=1e-12, elementwise_affine=True)
            (dropout): Dropout(p=0.1, inplace=False)
            (adapters): ModuleDict(
              (en): Adapter(
                (non_linearity): Activation_Function_Class(
                  (f): ReLU()
                )
                (adapter_down): Sequential(
                  (0): Linear(in_features=768, out_features=384, bias=True)
                  (1): Activation_Function_Class(
                    (f): ReLU()
                  )
                )
                (adapter_up): Linear(in_features=384, out_features=768, bias=True)
              )
              (disrpt): Adapter(
                (non_linearity): Activation_Function_Class(
                  (f): ReLU()
                )
                (adapter_down): Sequential(
                  (0): Linear(in_features=768, out_features=48, bias=True)
                  (1): Activation_Function_Class(
                    (f): ReLU()
                  )
                )
                (adapter_up): Linear(in_features=48, out_features=768, bias=True)
              )
            )
            (adapter_fusion_layer): ModuleDict()
          )
        )
        (10): BertLayer(
          (attention): BertAttention(
            (self): BertSelfAttention(
              (query): Linear(
                in_features=768, out_features=768, bias=True
                (loras): ModuleDict()
              )
              (key): Linear(
                in_features=768, out_features=768, bias=True
                (loras): ModuleDict()
              )
              (value): Linear(
                in_features=768, out_features=768, bias=True
                (loras): ModuleDict()
              )
              (dropout): Dropout(p=0.1, inplace=False)
              (prefix_tuning): PrefixTuningShim(
                (prefix_gates): ModuleDict()
                (pool): PrefixTuningPool(
                  (prefix_tunings): ModuleDict()
                )
              )
            )
            (output): BertSelfOutput(
              (dense): Linear(in_features=768, out_features=768, bias=True)
              (LayerNorm): LayerNorm((768,), eps=1e-12, elementwise_affine=True)
              (dropout): Dropout(p=0.1, inplace=False)
              (adapters): ModuleDict()
              (adapter_fusion_layer): ModuleDict()
            )
          )
          (intermediate): BertIntermediate(
            (dense): Linear(
              in_features=768, out_features=3072, bias=True
              (loras): ModuleDict()
            )
            (intermediate_act_fn): GELUActivation()
          )
          (output): BertOutput(
            (dense): Linear(
              in_features=3072, out_features=768, bias=True
              (loras): ModuleDict()
            )
            (LayerNorm): LayerNorm((768,), eps=1e-12, elementwise_affine=True)
            (dropout): Dropout(p=0.1, inplace=False)
            (adapters): ModuleDict(
              (en): Adapter(
                (non_linearity): Activation_Function_Class(
                  (f): ReLU()
                )
                (adapter_down): Sequential(
                  (0): Linear(in_features=768, out_features=384, bias=True)
                  (1): Activation_Function_Class(
                    (f): ReLU()
                  )
                )
                (adapter_up): Linear(in_features=384, out_features=768, bias=True)
              )
              (disrpt): Adapter(
                (non_linearity): Activation_Function_Class(
                  (f): ReLU()
                )
                (adapter_down): Sequential(
                  (0): Linear(in_features=768, out_features=48, bias=True)
                  (1): Activation_Function_Class(
                    (f): ReLU()
                  )
                )
                (adapter_up): Linear(in_features=48, out_features=768, bias=True)
              )
            )
            (adapter_fusion_layer): ModuleDict()
          )
        )
        (11): BertLayer(
          (attention): BertAttention(
            (self): BertSelfAttention(
              (query): Linear(
                in_features=768, out_features=768, bias=True
                (loras): ModuleDict()
              )
              (key): Linear(
                in_features=768, out_features=768, bias=True
                (loras): ModuleDict()
              )
              (value): Linear(
                in_features=768, out_features=768, bias=True
                (loras): ModuleDict()
              )
              (dropout): Dropout(p=0.1, inplace=False)
              (prefix_tuning): PrefixTuningShim(
                (prefix_gates): ModuleDict()
                (pool): PrefixTuningPool(
                  (prefix_tunings): ModuleDict()
                )
              )
            )
            (output): BertSelfOutput(
              (dense): Linear(in_features=768, out_features=768, bias=True)
              (LayerNorm): LayerNorm((768,), eps=1e-12, elementwise_affine=True)
              (dropout): Dropout(p=0.1, inplace=False)
              (adapters): ModuleDict()
              (adapter_fusion_layer): ModuleDict()
            )
          )
          (intermediate): BertIntermediate(
            (dense): Linear(
              in_features=768, out_features=3072, bias=True
              (loras): ModuleDict()
            )
            (intermediate_act_fn): GELUActivation()
          )
          (output): BertOutput(
            (dense): Linear(
              in_features=3072, out_features=768, bias=True
              (loras): ModuleDict()
            )
            (LayerNorm): LayerNorm((768,), eps=1e-12, elementwise_affine=True)
            (dropout): Dropout(p=0.1, inplace=False)
            (adapters): ModuleDict(
              (en): Adapter(
                (non_linearity): Activation_Function_Class(
                  (f): ReLU()
                )
                (adapter_down): Sequential(
…
              (LayerNorm): LayerNorm((768,), eps=1e-12, elementwise_affine=True)
              (dropout): Dropout(p=0.1, inplace=False)
              (adapters): ModuleDict()
              (adapter_fusion_layer): ModuleDict()
            )
          )
          (intermediate): BertIntermediate(
            (dense): Linear(
              in_features=768, out_features=3072, bias=True
              (loras): ModuleDict()
            )
            (intermediate_act_fn): GELUActivation()
          )
          (output): BertOutput(
            (dense): Linear(
              in_features=3072, out_features=768, bias=True
              (loras): ModuleDict()
            )
            (LayerNorm): LayerNorm((768,), eps=1e-12, elementwise_affine=True)
            (dropout): Dropout(p=0.1, inplace=False)
            (adapters): ModuleDict(
              (es): Adapter(
                (non_linearity): Activation_Function_Class(
                  (f): NewGELUActivation()
                )
                (adapter_down): Sequential(
                  (0): Linear(in_features=768, out_features=384, bias=True)
                  (1): Activation_Function_Class(
                    (f): NewGELUActivation()
                  )
                )
                (adapter_up): Linear(in_features=384, out_features=768, bias=True)
              )
              (en): Adapter(
                (non_linearity): Activation_Function_Class(
                  (f): ReLU()
                )
                (adapter_down): Sequential(
                  (0): Linear(in_features=768, out_features=384, bias=True)
                  (1): Activation_Function_Class(
                    (f): ReLU()
                  )
                )
                (adapter_up): Linear(in_features=384, out_features=768, bias=True)
              )
              (disrpt): Adapter(
                (non_linearity): Activation_Function_Class(
                  (f): ReLU()
                )
                (adapter_down): Sequential(
                  (0): Linear(in_features=768, out_features=48, bias=True)
                  (1): Activation_Function_Class(
                    (f): ReLU()
                  )
                )
                (adapter_up): Linear(in_features=48, out_features=768, bias=True)
              )
            )
            (adapter_fusion_layer): ModuleDict()
          )
        )
        (11): BertLayer(
          (attention): BertAttention(
            (self): BertSelfAttention(
              (query): Linear(
                in_features=768, out_features=768, bias=True
                (loras): ModuleDict()
              )
              (key): Linear(
                in_features=768, out_features=768, bias=True
                (loras): ModuleDict()
              )
              (value): Linear(
                in_features=768, out_features=768, bias=True
                (loras): ModuleDict()
              )
              (dropout): Dropout(p=0.1, inplace=False)
              (prefix_tuning): PrefixTuningShim(
                (prefix_gates): ModuleDict()
                (pool): PrefixTuningPool(
                  (prefix_tunings): ModuleDict()
                )
              )
            )
            (output): BertSelfOutput(
              (dense): Linear(in_features=768, out_features=768, bias=True)
              (LayerNorm): LayerNorm((768,), eps=1e-12, elementwise_affine=True)
              (dropout): Dropout(p=0.1, inplace=False)
              (adapters): ModuleDict()
              (adapter_fusion_layer): ModuleDict()
            )
          )
          (intermediate): BertIntermediate(
            (dense): Linear(
              in_features=768, out_features=3072, bias=True
              (loras): ModuleDict()
            )
            (intermediate_act_fn): GELUActivation()
          )
          (output): BertOutput(
            (dense): Linear(
              in_features=3072, out_features=768, bias=True
              (loras): ModuleDict()
            )
            (LayerNorm): LayerNorm((768,), eps=1e-12, elementwise_affine=True)
            (dropout): Dropout(p=0.1, inplace=False)
            (adapters): ModuleDict(
              (es): Adapter(
                (non_linearity): Activation_Function_Class(
                  (f): NewGELUActivation()
                )
                (adapter_down): Sequential(
                  (0): Linear(in_features=768, out_features=384, bias=True)
                  (1): Activation_Function_Class(
                    (f): NewGELUActivation()
                  )
                )
                (adapter_up): Linear(in_features=384, out_features=768, bias=True)
              )
              (en): Adapter(
                (non_linearity): Activation_Function_Class(
                  (f): ReLU()
                )
                (adapter_down): Sequential(
                  (0): Linear(in_features=768, out_features=384, bias=True)
                  (1): Activation_Function_Class(
                    (f): ReLU()
                  )
                )
                (adapter_up): Linear(in_features=384, out_features=768, bias=True)
              )
              (disrpt): Adapter(
                (non_linearity): Activation_Function_Class(
                  (f): ReLU()
                )
                (adapter_down): Sequential(
                  (0): Linear(in_features=768, out_features=48, bias=True)
                  (1): Activation_Function_Class(
                    (f): ReLU()
                  )
                )
                (adapter_up): Linear(in_features=48, out_features=768, bias=True)
              )
            )
            (adapter_fusion_layer): ModuleDict()
          )
        )
      )
    )
    (pooler): BertPooler(
      (dense): Linear(in_features=768, out_features=768, bias=True)
      (activation): Tanh()
    )
    (prefix_tuning): PrefixTuningPool(
      (prefix_tunings): ModuleDict()
    )
  )
  (heads): ModuleDict(
    (disrpt): ClassificationHead(
      (0): Dropout(p=0.1, inplace=False)
      (1): Linear(in_features=768, out_features=768, bias=True)
      (2): Activation_Function_Class(
        (f): Tanh()
      )
      (3): Dropout(p=0.1, inplace=False)
      (4): Linear(in_features=768, out_features=29, bias=True)
    )
  )
)
{'train@spa.rst.sctb_loss': 3.1103081703186035, 'train@spa.rst.sctb_accuracy@spa.rst.sctb': 0.33940774487471526, 'train@spa.rst.sctb_f1@spa.rst.sctb': 0.02372137666255314, 'train@spa.rst.sctb_precision@spa.rst.sctb': 0.028304370721432336, 'train@spa.rst.sctb_recall@spa.rst.sctb': 0.041899641577060935, 'train@spa.rst.sctb_loss@spa.rst.sctb': 3.1103084087371826, 'train@spa.rst.sctb_runtime': 5.4783, 'train@spa.rst.sctb_samples_per_second': 80.134, 'train@spa.rst.sctb_steps_per_second': 2.556, 'epoch': 1.0}
…
Lang1:  tur.pdtb.tdb    Lang2:  eng.rst.gum
Saving run to:  runs/full_shot/FullShot=v4_tur.pdtb.tdb_eng.rst.gum_lrfunc=Adafactor_lr=2e-05_plm=bert-base-multilingual-cased
Running with params: BERT_MODEL=bert-base-multilingual-cased lr=2e-05
read 2451 examples
read 312 examples
read 422 examples
read 13897 examples
read 2149 examples
read 2091 examples
Total prediction labels:  46
BertAdapterModel(
  (shared_parameters): ModuleDict()
  (bert): BertModel(
    (shared_parameters): ModuleDict()
    (invertible_adapters): ModuleDict(
      (tr): NICECouplingBlock(
        (F): Sequential(
          (0): Linear(in_features=384, out_features=192, bias=True)
          (1): Activation_Function_Class(
            (f): NewGELUActivation()
          )
          (2): Linear(in_features=192, out_features=384, bias=True)
        )
        (G): Sequential(
          (0): Linear(in_features=384, out_features=192, bias=True)
          (1): Activation_Function_Class(
            (f): NewGELUActivation()
          )
          (2): Linear(in_features=192, out_features=384, bias=True)
        )
      )
      (en): NICECouplingBlock(
        (F): Sequential(
          (0): Linear(in_features=384, out_features=192, bias=True)
          (1): Activation_Function_Class(
            (f): ReLU()
          )
          (2): Linear(in_features=192, out_features=384, bias=True)
        )
        (G): Sequential(
          (0): Linear(in_features=384, out_features=192, bias=True)
          (1): Activation_Function_Class(
            (f): ReLU()
          )
          (2): Linear(in_features=192, out_features=384, bias=True)
        )
      )
    )
    (embeddings): BertEmbeddings(
      (word_embeddings): Embedding(119547, 768, padding_idx=0)
      (position_embeddings): Embedding(512, 768)
      (token_type_embeddings): Embedding(2, 768)
      (LayerNorm): LayerNorm((768,), eps=1e-12, elementwise_affine=True)
      (dropout): Dropout(p=0.1, inplace=False)
    )
    (encoder): BertEncoder(
      (layer): ModuleList(
        (0): BertLayer(
          (attention): BertAttention(
            (self): BertSelfAttention(
              (query): Linear(
                in_features=768, out_features=768, bias=True
                (loras): ModuleDict()
              )
              (key): Linear(
                in_features=768, out_features=768, bias=True
                (loras): ModuleDict()
              )
              (value): Linear(
                in_features=768, out_features=768, bias=True
                (loras): ModuleDict()
              )
              (dropout): Dropout(p=0.1, inplace=False)
              (prefix_tuning): PrefixTuningShim(
                (prefix_gates): ModuleDict()
                (pool): PrefixTuningPool(
                  (prefix_tunings): ModuleDict()
                )
              )
            )
            (output): BertSelfOutput(
              (dense): Linear(in_features=768, out_features=768, bias=True)
              (LayerNorm): LayerNorm((768,), eps=1e-12, elementwise_affine=True)
              (dropout): Dropout(p=0.1, inplace=False)
              (adapters): ModuleDict()
              (adapter_fusion_layer): ModuleDict()
            )
          )
          (intermediate): BertIntermediate(
            (dense): Linear(
              in_features=768, out_features=3072, bias=True
              (loras): ModuleDict()
            )
            (intermediate_act_fn): GELUActivation()
          )
          (output): BertOutput(
            (dense): Linear(
              in_features=3072, out_features=768, bias=True
              (loras): ModuleDict()
            )
            (LayerNorm): LayerNorm((768,), eps=1e-12, elementwise_affine=True)
            (dropout): Dropout(p=0.1, inplace=False)
            (adapters): ModuleDict(
              (tr): Adapter(
                (non_linearity): Activation_Function_Class(
                  (f): NewGELUActivation()
                )
                (adapter_down): Sequential(
                  (0): Linear(in_features=768, out_features=384, bias=True)
                  (1): Activation_Function_Class(
                    (f): NewGELUActivation()
                  )
                )
                (adapter_up): Linear(in_features=384, out_features=768, bias=True)
              )
              (en): Adapter(
                (non_linearity): Activation_Function_Class(
                  (f): ReLU()
                )
                (adapter_down): Sequential(
                  (0): Linear(in_features=768, out_features=384, bias=True)
                  (1): Activation_Function_Class(
                    (f): ReLU()
                  )
                )
                (adapter_up): Linear(in_features=384, out_features=768, bias=True)
              )
              (disrpt): Adapter(
                (non_linearity): Activation_Function_Class(
                  (f): ReLU()
                )
                (adapter_down): Sequential(
                  (0): Linear(in_features=768, out_features=48, bias=True)
                  (1): Activation_Function_Class(
                    (f): ReLU()
                  )
                )
                (adapter_up): Linear(in_features=48, out_features=768, bias=True)
              )
            )
            (adapter_fusion_layer): ModuleDict()
          )
        )
        (1): BertLayer(
          (attention): BertAttention(
            (self): BertSelfAttention(
              (query): Linear(
                in_features=768, out_features=768, bias=True
                (loras): ModuleDict()
              )
              (key): Linear(
                in_features=768, out_features=768, bias=True
                (loras): ModuleDict()
              )
              (value): Linear(
                in_features=768, out_features=768, bias=True
                (loras): ModuleDict()
              )
              (dropout): Dropout(p=0.1, inplace=False)
              (prefix_tuning): PrefixTuningShim(
                (prefix_gates): ModuleDict()
                (pool): PrefixTuningPool(
                  (prefix_tunings): ModuleDict()
                )
              )
            )
            (output): BertSelfOutput(
              (dense): Linear(in_features=768, out_features=768, bias=True)
              (LayerNorm): LayerNorm((768,), eps=1e-12, elementwise_affine=True)
              (dropout): Dropout(p=0.1, inplace=False)
              (adapters): ModuleDict()
              (adapter_fusion_layer): ModuleDict()
            )
          )
          (intermediate): BertIntermediate(
            (dense): Linear(
              in_features=768, out_features=3072, bias=True
              (loras): ModuleDict()
            )
            (intermediate_act_fn): GELUActivation()
          )
          (output): BertOutput(
            (dense): Linear(
              in_features=3072, out_features=768, bias=True
              (loras): ModuleDict()
            )
            (LayerNorm): LayerNorm((768,), eps=1e-12, elementwise_affine=True)
            (dropout): Dropout(p=0.1, inplace=False)
            (adapters): ModuleDict(
              (tr): Adapter(
                (non_linearity): Activation_Function_Class(
                  (f): NewGELUActivation()
                )
                (adapter_down): Sequential(
                  (0): Linear(in_features=768, out_features=384, bias=True)
                  (1): Activation_Function_Class(
                    (f): NewGELUActivation()
                  )
                )
                (adapter_up): Linear(in_features=384, out_features=768, bias=True)
              )
              (en): Adapter(
                (non_linearity): Activation_Function_Class(
                  (f): ReLU()
                )
                (adapter_down): Sequential(
                  (0): Linear(in_features=768, out_features=384, bias=True)
                  (1): Activation_Function_Class(
                    (f): ReLU()
                  )
                )
                (adapter_up): Linear(in_features=384, out_features=768, bias=True)
              )
              (disrpt): Adapter(
                (non_linearity): Activation_Function_Class(
                  (f): ReLU()
                )
                (adapter_down): Sequential(
                  (0): Linear(in_features=768, out_features=48, bias=True)
                  (1): Activation_Function_Class(
                    (f): ReLU()
                  )
                )
                (adapter_up): Linear(in_features=48, out_features=768, bias=True)
              )
            )
            (adapter_fusion_layer): ModuleDict()
          )
        )
        (2): BertLayer(
          (attention): BertAttention(
            (self): BertSelfAttention(
              (query): Linear(
                in_features=768, out_features=768, bias=True
                (loras): ModuleDict()
              )
              (key): Linear(
                in_features=768, out_features=768, bias=True
                (loras): ModuleDict()
              )
              (value): Linear(
                in_features=768, out_features=768, bias=True
                (loras): ModuleDict()
              )
              (dropout): Dropout(p=0.1, inplace=False)
              (prefix_tuning): PrefixTuningShim(
                (prefix_gates): ModuleDict()
                (pool): PrefixTuningPool(
                  (prefix_tunings): ModuleDict()
                )
              )
            )
            (output): BertSelfOutput(
              (dense): Linear(in_features=768, out_features=768, bias=True)
              (LayerNorm): LayerNorm((768,), eps=1e-12, elementwise_affine=True)
              (dropout): Dropout(p=0.1, inplace=False)
              (adapters): ModuleDict()
              (adapter_fusion_layer): ModuleDict()
            )
          )
          (intermediate): BertIntermediate(
            (dense): Linear(
              in_features=768, out_features=3072, bias=True
              (loras): ModuleDict()
            )
            (intermediate_act_fn): GELUActivation()
          )
          (output): BertOutput(
            (dense): Linear(
              in_features=3072, out_features=768, bias=True
              (loras): ModuleDict()
            )
            (LayerNorm): LayerNorm((768,), eps=1e-12, elementwise_affine=True)
            (dropout): Dropout(p=0.1, inplace=False)
            (adapters): ModuleDict(
              (tr): Adapter(
                (non_linearity): Activation_Function_Class(
                  (f): NewGELUActivation()
                )
                (adapter_down): Sequential(
                  (0): Linear(in_features=768, out_features=384, bias=True)
                  (1): Activation_Function_Class(
                    (f): NewGELUActivation()
                  )
                )
                (adapter_up): Linear(in_features=384, out_features=768, bias=True)
              )
              (en): Adapter(
                (non_linearity): Activation_Function_Class(
                  (f): ReLU()
                )
                (adapter_down): Sequential(
                  (0): Linear(in_features=768, out_features=384, bias=True)
                  (1): Activation_Function_Class(
                    (f): ReLU()
                  )
                )
                (adapter_up): Linear(in_features=384, out_features=768, bias=True)
              )
              (disrpt): Adapter(
                (non_linearity): Activation_Function_Class(
                  (f): ReLU()
                )
                (adapter_down): Sequential(
                  (0): Linear(in_features=768, out_features=48, bias=True)
                  (1): Activation_Function_Class(
                    (f): ReLU()
                  )
                )
                (adapter_up): Linear(in_features=48, out_features=768, bias=True)
              )
            )
            (adapter_fusion_layer): ModuleDict()
          )
        )
        (3): BertLayer(
          (attention): BertAttention(
            (self): BertSelfAttention(
              (query): Linear(
                in_features=768, out_features=768, bias=True
                (loras): ModuleDict()
              )
              (key): Linear(
                in_features=768, out_features=768, bias=True
                (loras): ModuleDict()
              )
              (value): Linear(
                in_features=768, out_features=768, bias=True
                (loras): ModuleDict()
              )
              (dropout): Dropout(p=0.1, inplace=False)
              (prefix_tuning): PrefixTuningShim(
                (prefix_gates): ModuleDict()
                (pool): PrefixTuningPool(
                  (prefix_tunings): ModuleDict()
                )
              )
            )
            (output): BertSelfOutput(
              (dense): Linear(in_features=768, out_features=768, bias=True)
              (LayerNorm): LayerNorm((768,), eps=1e-12, elementwise_affine=True)
              (dropout): Dropout(p=0.1, inplace=False)
              (adapters): ModuleDict()
              (adapter_fusion_layer): ModuleDict()
            )
          )
          (intermediate): BertIntermediate(
            (dense): Linear(
              in_features=768, out_features=3072, bias=True
              (loras): ModuleDict()
            )
            (intermediate_act_fn): GELUActivation()
          )
          (output): BertOutput(
            (dense): Linear(
              in_features=3072, out_features=768, bias=True
              (loras): ModuleDict()
            )
            (LayerNorm): LayerNorm((768,), eps=1e-12, elementwise_affine=True)
            (dropout): Dropout(p=0.1, inplace=False)
            (adapters): ModuleDict(
              (tr): Adapter(
                (non_linearity): Activation_Function_Class(
                  (f): NewGELUActivation()
                )
                (adapter_down): Sequential(
                  (0): Linear(in_features=768, out_features=384, bias=True)
                  (1): Activation_Function_Class(
                    (f): NewGELUActivation()
                  )
                )
                (adapter_up): Linear(in_features=384, out_features=768, bias=True)
              )
              (en): Adapter(
                (non_linearity): Activation_Function_Class(
                  (f): ReLU()
                )
                (adapter_down): Sequential(
                  (0): Linear(in_features=768, out_features=384, bias=True)
                  (1): Activation_Function_Class(
                    (f): ReLU()
                  )
                )
                (adapter_up): Linear(in_features=384, out_features=768, bias=True)
              )
              (disrpt): Adapter(
                (non_linearity): Activation_Function_Class(
                  (f): ReLU()
                )
                (adapter_down): Sequential(
                  (0): Linear(in_features=768, out_features=48, bias=True)
                  (1): Activation_Function_Class(
                    (f): ReLU()
                  )
                )
                (adapter_up): Linear(in_features=48, out_features=768, bias=True)
              )
            )
            (adapter_fusion_layer): ModuleDict()
          )
        )
        (4): BertLayer(
          (attention): BertAttention(
            (self): BertSelfAttention(
              (query): Linear(
                in_features=768, out_features=768, bias=True
                (loras): ModuleDict()
              )
              (key): Linear(
                in_features=768, out_features=768, bias=True
                (loras): ModuleDict()
              )
              (value): Linear(
                in_features=768, out_features=768, bias=True
                (loras): ModuleDict()
              )
              (dropout): Dropout(p=0.1, inplace=False)
              (prefix_tuning): PrefixTuningShim(
                (prefix_gates): ModuleDict()
                (pool): PrefixTuningPool(
                  (prefix_tunings): ModuleDict()
                )
              )
            )
            (output): BertSelfOutput(
              (dense): Linear(in_features=768, out_features=768, bias=True)
              (LayerNorm): LayerNorm((768,), eps=1e-12, elementwise_affine=True)
              (dropout): Dropout(p=0.1, inplace=False)
              (adapters): ModuleDict()
              (adapter_fusion_layer): ModuleDict()
            )
          )
          (intermediate): BertIntermediate(
            (dense): Linear(
              in_features=768, out_features=3072, bias=True
              (loras): ModuleDict()
            )
            (intermediate_act_fn): GELUActivation()
          )
          (output): BertOutput(
            (dense): Linear(
              in_features=3072, out_features=768, bias=True
              (loras): ModuleDict()
            )
            (LayerNorm): LayerNorm((768,), eps=1e-12, elementwise_affine=True)
            (dropout): Dropout(p=0.1, inplace=False)
            (adapters): ModuleDict(
              (tr): Adapter(
                (non_linearity): Activation_Function_Class(
                  (f): NewGELUActivation()
                )
                (adapter_down): Sequential(
                  (0): Linear(in_features=768, out_features=384, bias=True)
                  (1): Activation_Function_Class(
                    (f): NewGELUActivation()
                  )
                )
                (adapter_up): Linear(in_features=384, out_features=768, bias=True)
              )
              (en): Adapter(
                (non_linearity): Activation_Function_Class(
                  (f): ReLU()
                )
                (adapter_down): Sequential(
                  (0): Linear(in_features=768, out_features=384, bias=True)
                  (1): Activation_Function_Class(
                    (f): ReLU()
                  )
                )
                (adapter_up): Linear(in_features=384, out_features=768, bias=True)
              )
              (disrpt): Adapter(
                (non_linearity): Activation_Function_Class(
                  (f): ReLU()
                )
                (adapter_down): Sequential(
                  (0): Linear(in_features=768, out_features=48, bias=True)
                  (1): Activation_Function_Class(
                    (f): ReLU()
                  )
                )
                (adapter_up): Linear(in_features=48, out_features=768, bias=True)
              )
            )
            (adapter_fusion_layer): ModuleDict()
          )
        )
        (5): BertLayer(
          (attention): BertAttention(
            (self): BertSelfAttention(
              (query): Linear(
                in_features=768, out_features=768, bias=True
                (loras): ModuleDict()
              )
              (key): Linear(
                in_features=768, out_features=768, bias=True
                (loras): ModuleDict()
              )
              (value): Linear(
                in_features=768, out_features=768, bias=True
                (loras): ModuleDict()
              )
              (dropout): Dropout(p=0.1, inplace=False)
              (prefix_tuning): PrefixTuningShim(
                (prefix_gates): ModuleDict()
                (pool): PrefixTuningPool(
                  (prefix_tunings): ModuleDict()
                )
              )
            )
            (output): BertSelfOutput(
              (dense): Linear(in_features=768, out_features=768, bias=True)
              (LayerNorm): LayerNorm((768,), eps=1e-12, elementwise_affine=True)
              (dropout): Dropout(p=0.1, inplace=False)
              (adapters): ModuleDict()
              (adapter_fusion_layer): ModuleDict()
            )
          )
          (intermediate): BertIntermediate(
            (dense): Linear(
              in_features=768, out_features=3072, bias=True
              (loras): ModuleDict()
            )
            (intermediate_act_fn): GELUActivation()
          )
          (output): BertOutput(
            (dense): Linear(
              in_features=3072, out_features=768, bias=True
              (loras): ModuleDict()
            )
            (LayerNorm): LayerNorm((768,), eps=1e-12, elementwise_affine=True)
            (dropout): Dropout(p=0.1, inplace=False)
            (adapters): ModuleDict(
              (tr): Adapter(
                (non_linearity): Activation_Function_Class(
                  (f): NewGELUActivation()
                )
                (adapter_down): Sequential(
                  (0): Linear(in_features=768, out_features=384, bias=True)
                  (1): Activation_Function_Class(
                    (f): NewGELUActivation()
                  )
                )
                (adapter_up): Linear(in_features=384, out_features=768, bias=True)
              )
              (en): Adapter(
                (non_linearity): Activation_Function_Class(
                  (f): ReLU()
                )
                (adapter_down): Sequential(
                  (0): Linear(in_features=768, out_features=384, bias=True)
                  (1): Activation_Function_Class(
                    (f): ReLU()
                  )
                )
                (adapter_up): Linear(in_features=384, out_features=768, bias=True)
              )
              (disrpt): Adapter(
                (non_linearity): Activation_Function_Class(
                  (f): ReLU()
                )
                (adapter_down): Sequential(
                  (0): Linear(in_features=768, out_features=48, bias=True)
                  (1): Activation_Function_Class(
                    (f): ReLU()
                  )
                )
                (adapter_up): Linear(in_features=48, out_features=768, bias=True)
              )
            )
            (adapter_fusion_layer): ModuleDict()
          )
        )
        (6): BertLayer(
          (attention): BertAttention(
            (self): BertSelfAttention(
              (query): Linear(
                in_features=768, out_features=768, bias=True
                (loras): ModuleDict()
              )
              (key): Linear(
                in_features=768, out_features=768, bias=True
                (loras): ModuleDict()
              )
              (value): Linear(
                in_features=768, out_features=768, bias=True
                (loras): ModuleDict()
              )
              (dropout): Dropout(p=0.1, inplace=False)
              (prefix_tuning): PrefixTuningShim(
                (prefix_gates): ModuleDict()
                (pool): PrefixTuningPool(
                  (prefix_tunings): ModuleDict()
                )
              )
            )
            (output): BertSelfOutput(
              (dense): Linear(in_features=768, out_features=768, bias=True)
              (LayerNorm): LayerNorm((768,), eps=1e-12, elementwise_affine=True)
              (dropout): Dropout(p=0.1, inplace=False)
              (adapters): ModuleDict()
              (adapter_fusion_layer): ModuleDict()
            )
          )
          (intermediate): BertIntermediate(
            (dense): Linear(
              in_features=768, out_features=3072, bias=True
              (loras): ModuleDict()
            )
            (intermediate_act_fn): GELUActivation()
          )
          (output): BertOutput(
            (dense): Linear(
              in_features=3072, out_features=768, bias=True
              (loras): ModuleDict()
            )
            (LayerNorm): LayerNorm((768,), eps=1e-12, elementwise_affine=True)
            (dropout): Dropout(p=0.1, inplace=False)
            (adapters): ModuleDict(
              (tr): Adapter(
                (non_linearity): Activation_Function_Class(
                  (f): NewGELUActivation()
                )
                (adapter_down): Sequential(
                  (0): Linear(in_features=768, out_features=384, bias=True)
                  (1): Activation_Function_Class(
                    (f): NewGELUActivation()
                  )
                )
                (adapter_up): Linear(in_features=384, out_features=768, bias=True)
              )
              (en): Adapter(
                (non_linearity): Activation_Function_Class(
                  (f): ReLU()
                )
                (adapter_down): Sequential(
                  (0): Linear(in_features=768, out_features=384, bias=True)
                  (1): Activation_Function_Class(
                    (f): ReLU()
                  )
                )
                (adapter_up): Linear(in_features=384, out_features=768, bias=True)
              )
              (disrpt): Adapter(
                (non_linearity): Activation_Function_Class(
                  (f): ReLU()
                )
                (adapter_down): Sequential(
                  (0): Linear(in_features=768, out_features=48, bias=True)
                  (1): Activation_Function_Class(
                    (f): ReLU()
                  )
                )
                (adapter_up): Linear(in_features=48, out_features=768, bias=True)
              )
            )
            (adapter_fusion_layer): ModuleDict()
          )
        )
        (7): BertLayer(
          (attention): BertAttention(
            (self): BertSelfAttention(
              (query): Linear(
                in_features=768, out_features=768, bias=True
                (loras): ModuleDict()
              )
              (key): Linear(
                in_features=768, out_features=768, bias=True
                (loras): ModuleDict()
              )
              (value): Linear(
                in_features=768, out_features=768, bias=True
                (loras): ModuleDict()
              )
              (dropout): Dropout(p=0.1, inplace=False)
              (prefix_tuning): PrefixTuningShim(
                (prefix_gates): ModuleDict()
                (pool): PrefixTuningPool(
                  (prefix_tunings): ModuleDict()
                )
              )
            )
            (output): BertSelfOutput(
              (dense): Linear(in_features=768, out_features=768, bias=True)
              (LayerNorm): LayerNorm((768,), eps=1e-12, elementwise_affine=True)
              (dropout): Dropout(p=0.1, inplace=False)
              (adapters): ModuleDict()
              (adapter_fusion_layer): ModuleDict()
            )
          )
          (intermediate): BertIntermediate(
            (dense): Linear(
              in_features=768, out_features=3072, bias=True
              (loras): ModuleDict()
            )
            (intermediate_act_fn): GELUActivation()
          )
          (output): BertOutput(
            (dense): Linear(
              in_features=3072, out_features=768, bias=True
              (loras): ModuleDict()
            )
            (LayerNorm): LayerNorm((768,), eps=1e-12, elementwise_affine=True)
            (dropout): Dropout(p=0.1, inplace=False)
            (adapters): ModuleDict(
              (tr): Adapter(
                (non_linearity): Activation_Function_Class(
                  (f): NewGELUActivation()
                )
                (adapter_down): Sequential(
                  (0): Linear(in_features=768, out_features=384, bias=True)
                  (1): Activation_Function_Class(
                    (f): NewGELUActivation()
                  )
                )
                (adapter_up): Linear(in_features=384, out_features=768, bias=True)
              )
              (en): Adapter(
                (non_linearity): Activation_Function_Class(
                  (f): ReLU()
                )
                (adapter_down): Sequential(
                  (0): Linear(in_features=768, out_features=384, bias=True)
                  (1): Activation_Function_Class(
                    (f): ReLU()
                  )
                )
                (adapter_up): Linear(in_features=384, out_features=768, bias=True)
              )
              (disrpt): Adapter(
                (non_linearity): Activation_Function_Class(
                  (f): ReLU()
                )
                (adapter_down): Sequential(
                  (0): Linear(in_features=768, out_features=48, bias=True)
                  (1): Activation_Function_Class(
                    (f): ReLU()
                  )
                )
                (adapter_up): Linear(in_features=48, out_features=768, bias=True)
              )
            )
            (adapter_fusion_layer): ModuleDict()
          )
        )
        (8): BertLayer(
          (attention): BertAttention(
            (self): BertSelfAttention(
              (query): Linear(
                in_features=768, out_features=768, bias=True
                (loras): ModuleDict()
              )
              (key): Linear(
                in_features=768, out_features=768, bias=True
                (loras): ModuleDict()
              )
              (value): Linear(
                in_features=768, out_features=768, bias=True
                (loras): ModuleDict()
              )
              (dropout): Dropout(p=0.1, inplace=False)
              (prefix_tuning): PrefixTuningShim(
                (prefix_gates): ModuleDict()
                (pool): PrefixTuningPool(
                  (prefix_tunings): ModuleDict()
                )
              )
            )
            (output): BertSelfOutput(
              (dense): Linear(in_features=768, out_features=768, bias=True)
              (LayerNorm): LayerNorm((768,), eps=1e-12, elementwise_affine=True)
              (dropout): Dropout(p=0.1, inplace=False)
              (adapters): ModuleDict()
              (adapter_fusion_layer): ModuleDict()
            )
          )
          (intermediate): BertIntermediate(
            (dense): Linear(
              in_features=768, out_features=3072, bias=True
              (loras): ModuleDict()
            )
            (intermediate_act_fn): GELUActivation()
          )
          (output): BertOutput(
            (dense): Linear(
              in_features=3072, out_features=768, bias=True
              (loras): ModuleDict()
            )
            (LayerNorm): LayerNorm((768,), eps=1e-12, elementwise_affine=True)
            (dropout): Dropout(p=0.1, inplace=False)
            (adapters): ModuleDict(
              (tr): Adapter(
                (non_linearity): Activation_Function_Class(
                  (f): NewGELUActivation()
                )
                (adapter_down): Sequential(
                  (0): Linear(in_features=768, out_features=384, bias=True)
                  (1): Activation_Function_Class(
                    (f): NewGELUActivation()
                  )
                )
                (adapter_up): Linear(in_features=384, out_features=768, bias=True)
              )
              (en): Adapter(
                (non_linearity): Activation_Function_Class(
                  (f): ReLU()
                )
                (adapter_down): Sequential(
                  (0): Linear(in_features=768, out_features=384, bias=True)
                  (1): Activation_Function_Class(
                    (f): ReLU()
                  )
                )
                (adapter_up): Linear(in_features=384, out_features=768, bias=True)
              )
              (disrpt): Adapter(
                (non_linearity): Activation_Function_Class(
                  (f): ReLU()
                )
                (adapter_down): Sequential(
                  (0): Linear(in_features=768, out_features=48, bias=True)
                  (1): Activation_Function_Class(
                    (f): ReLU()
                  )
                )
                (adapter_up): Linear(in_features=48, out_features=768, bias=True)
              )
            )
            (adapter_fusion_layer): ModuleDict()
          )
        )
        (9): BertLayer(
          (attention): BertAttention(
            (self): BertSelfAttention(
              (query): Linear(
                in_features=768, out_features=768, bias=True
                (loras): ModuleDict()
              )
              (key): Linear(
                in_features=768, out_features=768, bias=True
                (loras): ModuleDict()
              )
              (value): Linear(
                in_features=768, out_features=768, bias=True
                (loras): ModuleDict()
              )
              (dropout): Dropout(p=0.1, inplace=False)
              (prefix_tuning): PrefixTuningShim(
                (prefix_gates): ModuleDict()
                (pool): PrefixTuningPool(
                  (prefix_tunings): ModuleDict()
                )
              )
            )
            (output): BertSelfOutput(
              (dense): Linear(in_features=768, out_features=768, bias=True)
              (LayerNorm): LayerNorm((768,), eps=1e-12, elementwise_affine=True)
              (dropout): Dropout(p=0.1, inplace=False)
              (adapters): ModuleDict()
              (adapter_fusion_layer): ModuleDict()
            )
          )
          (intermediate): BertIntermediate(
            (dense): Linear(
              in_features=768, out_features=3072, bias=True
              (loras): ModuleDict()
            )
            (intermediate_act_fn): GELUActivation()
          )
          (output): BertOutput(
            (dense): Linear(
              in_features=3072, out_features=768, bias=True
              (loras): ModuleDict()
            )
            (LayerNorm): LayerNorm((768,), eps=1e-12, elementwise_affine=True)
            (dropout): Dropout(p=0.1, inplace=False)
            (adapters): ModuleDict(
              (tr): Adapter(
                (non_linearity): Activation_Function_Class(
                  (f): NewGELUActivation()
                )
                (adapter_down): Sequential(
                  (0): Linear(in_features=768, out_features=384, bias=True)
                  (1): Activation_Function_Class(
                    (f): NewGELUActivation()
                  )
                )
                (adapter_up): Linear(in_features=384, out_features=768, bias=True)
              )
              (en): Adapter(
                (non_linearity): Activation_Function_Class(
                  (f): ReLU()
                )
                (adapter_down): Sequential(
                  (0): Linear(in_features=768, out_features=384, bias=True)
                  (1): Activation_Function_Class(
                    (f): ReLU()
                  )
                )
                (adapter_up): Linear(in_features=384, out_features=768, bias=True)
              )
              (disrpt): Adapter(
                (non_linearity): Activation_Function_Class(
                  (f): ReLU()
                )
                (adapter_down): Sequential(
                  (0): Linear(in_features=768, out_features=48, bias=True)
                  (1): Activation_Function_Class(
                    (f): ReLU()
                  )
                )
                (adapter_up): Linear(in_features=48, out_features=768, bias=True)
              )
            )
            (adapter_fusion_layer): ModuleDict()
          )
        )
        (10): BertLayer(
          (attention): BertAttention(
            (self): BertSelfAttention(
              (query): Linear(
                in_features=768, out_features=768, bias=True
                (loras): ModuleDict()
              )
              (key): Linear(
                in_features=768, out_features=768, bias=True
                (loras): ModuleDict()
              )
              (value): Linear(
                in_features=768, out_features=768, bias=True
                (loras): ModuleDict()
              )
              (dropout): Dropout(p=0.1, inplace=False)
              (prefix_tuning): PrefixTuningShim(
                (prefix_gates): ModuleDict()
                (pool): PrefixTuningPool(
                  (prefix_tunings): ModuleDict()
                )
              )
            )
            (output): BertSelfOutput(
              (dense): Linear(in_features=768, out_features=768, bias=True)
              (LayerNorm): LayerNorm((768,), eps=1e-12, elementwise_affine=True)
              (dropout): Dropout(p=0.1, inplace=False)
              (adapters): ModuleDict()
              (adapter_fusion_layer): ModuleDict()
            )
          )
          (intermediate): BertIntermediate(
            (dense): Linear(
              in_features=768, out_features=3072, bias=True
              (loras): ModuleDict()
            )
            (intermediate_act_fn): GELUActivation()
          )
          (output): BertOutput(
            (dense): Linear(
              in_features=3072, out_features=768, bias=True
              (loras): ModuleDict()
            )
            (LayerNorm): LayerNorm((768,), eps=1e-12, elementwise_affine=True)
            (dropout): Dropout(p=0.1, inplace=False)
            (adapters): ModuleDict(
              (tr): Adapter(
                (non_linearity): Activation_Function_Class(
                  (f): NewGELUActivation()
                )
                (adapter_down): Sequential(
                  (0): Linear(in_features=768, out_features=384, bias=True)
                  (1): Activation_Function_Class(
                    (f): NewGELUActivation()
                  )
                )
                (adapter_up): Linear(in_features=384, out_features=768, bias=True)
              )
              (en): Adapter(
                (non_linearity): Activation_Function_Class(
                  (f): ReLU()
                )
                (adapter_down): Sequential(
                  (0): Linear(in_features=768, out_features=384, bias=True)
                  (1): Activation_Function_Class(
                    (f): ReLU()
                  )
                )
                (adapter_up): Linear(in_features=384, out_features=768, bias=True)
              )
              (disrpt): Adapter(
                (non_linearity): Activation_Function_Class(
                  (f): ReLU()
                )
                (adapter_down): Sequential(
                  (0): Linear(in_features=768, out_features=48, bias=True)
                  (1): Activation_Function_Class(
                    (f): ReLU()
                  )
                )
                (adapter_up): Linear(in_features=48, out_features=768, bias=True)
              )
            )
            (adapter_fusion_layer): ModuleDict()
          )
        )
        (11): BertLayer(
          (attention): BertAttention(
            (self): BertSelfAttention(
              (query): Linear(
                in_features=768, out_features=768, bias=True
                (loras): ModuleDict()
              )
              (key): Linear(
                in_features=768, out_features=768, bias=True
                (loras): ModuleDict()
              )
              (value): Linear(
                in_features=768, out_features=768, bias=True
                (loras): ModuleDict()
              )
              (dropout): Dropout(p=0.1, inplace=False)
              (prefix_tuning): PrefixTuningShim(
                (prefix_gates): ModuleDict()
                (pool): PrefixTuningPool(
                  (prefix_tunings): ModuleDict()
                )
              )
            )
            (output): BertSelfOutput(
              (dense): Linear(in_features=768, out_features=768, bias=True)
              (LayerNorm): LayerNorm((768,), eps=1e-12, elementwise_affine=True)
              (dropout): Dropout(p=0.1, inplace=False)
              (adapters): ModuleDict()
              (adapter_fusion_layer): ModuleDict()
            )
          )
          (intermediate): BertIntermediate(
            (dense): Linear(
              in_features=768, out_features=3072, bias=True
              (loras): ModuleDict()
            )
            (intermediate_act_fn): GELUActivation()
          )
          (output): BertOutput(
            (dense): Linear(
              in_features=3072, out_features=768, bias=True
              (loras): ModuleDict()
            )
            (LayerNorm): LayerNorm((768,), eps=1e-12, elementwise_affine=True)
            (dropout): Dropout(p=0.1, inplace=False)
            (adapters): ModuleDict(
              (tr): Adapter(
                (non_linearity): Activation_Function_Class(
                  (f): NewGELUActivation()
                )
                (adapter_down): Sequential(
                  (0): Linear(in_features=768, out_features=384, bias=True)
                  (1): Activation_Function_Class(
                    (f): NewGELUActivation()
                  )
                )
                (adapter_up): Linear(in_features=384, out_features=768, bias=True)
              )
              (en): Adapter(
                (non_linearity): Activation_Function_Class(
                  (f): ReLU()
                )
                (adapter_down): Sequential(
                  (0): Linear(in_features=768, out_features=384, bias=True)
                  (1): Activation_Function_Class(
                    (f): ReLU()
                  )
                )
                (adapter_up): Linear(in_features=384, out_features=768, bias=True)
              )
              (disrpt): Adapter(
                (non_linearity): Activation_Function_Class(
                  (f): ReLU()
                )
                (adapter_down): Sequential(
                  (0): Linear(in_features=768, out_features=48, bias=True)
                  (1): Activation_Function_Class(
                    (f): ReLU()
                  )
                )
                (adapter_up): Linear(in_features=48, out_features=768, bias=True)
              )
            )
            (adapter_fusion_layer): ModuleDict()
          )
        )
      )
    )
    (pooler): BertPooler(
      (dense): Linear(in_features=768, out_features=768, bias=True)
      (activation): Tanh()
    )
    (prefix_tuning): PrefixTuningPool(
      (prefix_tunings): ModuleDict()
    )
  )
  (heads): ModuleDict(
    (tr): BertStyleMaskedLMHead(
      (0): Linear(in_features=768, out_features=768, bias=True)
      (1): Activation_Function_Class(
        (f): GELUActivation()
      )
      (2): LayerNorm((768,), eps=1e-12, elementwise_affine=True)
      (3): Linear(in_features=768, out_features=119547, bias=True)
    )
    (disrpt): ClassificationHead(
      (0): Dropout(p=0.1, inplace=False)
      (1): Linear(in_features=768, out_features=768, bias=True)
      (2): Activation_Function_Class(
        (f): Tanh()
      )
      (3): Dropout(p=0.1, inplace=False)
      (4): Linear(in_features=768, out_features=46, bias=True)
    )
  )
)
{'train@tur.pdtb.tdb_loss': 2.8921523094177246, 'train@tur.pdtb.tdb_accuracy@tur.pdtb.tdb': 0.25050999592003265, 'train@tur.pdtb.tdb_f1@tur.pdtb.tdb': 0.01741967515426626, 'train@tur.pdtb.tdb_precision@tur.pdtb.tdb': 0.010891738953044898, 'train@tur.pdtb.tdb_recall@tur.pdtb.tdb': 0.043478260869565216, 'train@tur.pdtb.tdb_loss@tur.pdtb.tdb': 2.8921523094177246, 'train@tur.pdtb.tdb_runtime': 29.5333, 'train@tur.pdtb.tdb_samples_per_second': 82.991, 'train@tur.pdtb.tdb_steps_per_second': 2.607, 'epoch': 1.0}
…
